trained_models/iS_GNN_Trained_ep_150_bs64_lr_5em04_k_diff_1_kNN_12_kernel_r_0_75_w_0_7em01.pth (torch, 137655 bytes, 6 tensors)

GNN1.Theta1 f4 [54, 96]
00000000: 51fc 2bbd 1810 c4bd d714 8f3d bb2e 623d
00000010: fe51 693c c24d 80bd 912e 653d d720 6ebb
00000020: 2c61 b43c 6952 20bd c64b afbc afce 703b
00000030: aa19 e6bc 3d4b db3c 7d46 5ebd 23e5 babc
00000040: ba8c 8abd 5d55 a23d 6c44 a03c 0792 9d3c
00000050: d2ed 263d 5c44 6f3d 6fc7 5d3d 471f 9a3d
00000060: 2c3d bdbb 90d4 2c3d 9c51 003c 7bae 823d
00000070: f151 65bd 23ab 63bd 4cfe c4bd e4af 7d3d
00000080: c606 9c3d 6d96 4e3d 4541 f63c 4794 d7bb
00000090: c788 25bd ade5 853d 2502 8d3d 77d4 583c
000000a0: 893f 94bd 2978 643d 4d6a 1bbd 5c0e c5bc
000000b0: ea3a 993d f96c 51bd 94e0 773d 6595 b03c
000000c0: 46ee 4cbd 94a1 adbd bcfa 3bbd f376 96bd
000000d0: 6de9 6fbd 92da a83d 4a6c 0fbd 7dad 81bc
000000e0: 9cff 943c 9f00 93bb 74fd aabc 6291 83bd
000000f0: 6ad0 0cbb fdab 6ebd 1d48 6a3d e3fd babd
00000100: 580c cc3c f293 cebd 7989 903d 51c7 583d
00000110: 39c1 993c c494 10bc 95e3 043d fa90 6b3d
00000120: 3ca7 70bd 5ab0 f33c c286 ca3c e397 be3b
00000130: dc80 b33d 8283 353d adbf 7cbd 2669 0cbd
00000140: a81d 163d 49ab 14bd 74e1 48bd d3d4 b8bd
00000150: 8e77 bf3c 554a 2cbd f008 8bbd 4c64 6e3d
00000160: 5e76 3f3d 0509 4d3d 6db7 ddbb 9571 2ebd
00000170: 0796 bf3a c388 6e3c 61be 6c3d 5212 4b3d
00000180: 7a1f 4abd a1a0 3c3d 50aa 793c 5e0a 0fbd
00000190: 5d79 05bd 14ef 27bd 9da3 3c3d d635 9e3d
000001a0: a428 32bc e81c ec3d a586 343d a099 583d
000001b0: 9926 adba bfe8 873b 2de8 a9bd 27e2 58bd
000001c0: 7787 8e3d a2ef 37bc 418c 573d a217 94bd
000001d0: 7a56 de3c 4e8b 503d d0e8 b9bd fabe cd3d
000001e0: 3132 863d ff32 2dbc d28a 643b 2eea 94bd
000001f0: b9ce 9ebb da75 203d 7d25 c83d ea52 a63d
00000200: b789 b8bd b577 c6bc 10c1 33bd d9a9 d03b
00000210: 74f2 d6bd 98e2 46ba 2a99 3e3d c240 393d
00000220: 3969 1b3d 321b 8c3d 03f4 b63c 05f9 593d
00000230: c627 193d 1dc0 c1bd cfa7 b4bd e22e bcb9
00000240: 86fd 18bd c008 083d 7ca0 49bd 8761 703c
00000250: 3f7d 43bd f4c8 22bd 4840 8dbc 3786 043e
00000260: ecad a93b 9e3c e63c 1acf 85bd ce67 66bd
00000270: fd70 95bd c809 8fbc 0ed1 96bd 85de 8e3d
00000280: 65db c83d 862f 09bd bfef d2bc c6b9 9b3d
00000290: cade 06bd 5df4 eb3c 842f b5bd d7d4 803d
000002a0: 4684 f3ba 168b e43b f51a 9cbd a31e 153d
000002b0: 8ac3 56bc 3d8c 17bd c81a 84bd 788c 2dbd
000002c0: 467a 993d bc60 f33a f505 023d 1d38 833d
000002d0: 48b6 403d 11a4 813d 8822 c73d 41c0 a33c
000002e0: c18b 153c b72f b53d 1605 51bd bf71 323c
000002f0: dcff c0bc 602e 083d 5fe3 203c 3198 33bd
00000300: a2f8 253d 65a7 30bc 56f7 bebc e290 8f3d
00000310: 0011 6a3d d59e ea3b 2abb efbd ca68 86bd
00000320: 3e1e 61bd 3170 a2bd 1836 a23d b9ad 7fbc
00000330: f68e 94bd fa83 ebbb b4fe 413d 084f a3bc
00000340: 93ce 22bc b4c6 53bd 4b2b c53d 29b9 bb3c
00000350: f1c9 243d d001 24bd dc9c 003d 6c50 a6bd
00000360: 991f eb3c 299d 2ebd c691 123d 6a9c 41bd
00000370: 5c7c 8abd 123a 37bd d10c abbd 99fc ccbd
00000380: 62a6 c1bd 9d75 7f3d 977b fa3b dde7 b63b
00000390: 2e9b ac3d 81b2 a3bd c71e d1bc 5a47 88bd
000003a0: 26e8 863d 505d f0bd e5fc 8abd 6513 94bc
000003b0: 8ce3 7a3c 074e 633d dd8e f9bc 2e4e 25bd
000003c0: 84ef d93c 7d3b 813d 5e4b 9a3d 2f52 753d
000003d0: 31c6 0fbd e4e8 c83c 1eed 8e3d 26ec 93bd
000003e0: 8460 8d3b b171 50bd 2105 463d 2603 3b3d
000003f0: a8a7 0eb9 c219 903c aa04 3bbd d189 9bbd
-0.041988675 -0.09573382 0.06986397 0.055220347 0.01424074 -0.06264831 0.055952612 -0.0036335492
0.022018991 -0.039141092 -0.021398436 0.0036744287 -0.02808841 0.026769275 -0.05426644 -0.022814339
-0.06765123 0.07926438 0.019563876 0.01923467 0.040754147 0.058414802 0.054145273 0.07525497
-0.0057751145 0.042194903 0.007831957 0.06380936 -0.05598635 -0.05558313 -0.09618816 0.06193532
0.076184794 0.050436426 0.03006042 -0.0065789553 -0.040413644 0.06537948 0.06885175 0.013234249
-0.07238681 0.055778656 -0.037943173 -0.024054699 0.0748194 -0.051129315 0.06051691 0.021555612
-0.050031923 -0.08478084 -0.045893416 -0.073469065 -0.05857222 0.08244814 -0.035015382 -0.015829796
0.01818829 -0.004486158 -0.020872809 -0.06424214 -0.002148653 -0.05826949 0.05719768 -0.09130456
0.02490823 -0.10086812 0.07057471 0.052924458 0.018768894 -0.008824531 0.0324436 0.057511307
-0.058753237 0.029747177 0.02472246 0.005816446 0.08764812 0.04431487 -0.061706234 -0.034279965
0.036649376 -0.036296163 -0.049043134 -0.09024968 0.023372438 -0.042063076 -0.06788814 0.05820112
0.046743743 0.05005743 -0.006766251 -0.04258879 0.0014616855 0.014558974 0.057798747 0.04957802
-0.049346425 0.046051625 0.01523836 -0.034921996 -0.032586444 -0.040999487 0.04605447 0.07725112
-0.010873947 0.11528951 0.04407372 0.052880883 -0.0013210356 0.0041476185 -0.08296237 -0.05295005
0.069594316 -0.0112265665 0.05262399 -0.0723107 0.027140845 0.0509141 -0.090776086 0.100461915
0.06552542 -0.01057124 0.0034872782 -0.07271229 -0.0048464206 0.039174892 0.09772775 0.08121283
-0.09010642 -0.024227003 -0.04388529 0.0063679037 -0.10495463 -0.00075868657 0.046532787 0.045227773
0.037942145 0.068411246 0.02233315 0.053216 0.037391447 -0.09460471 -0.088210694 -0.00035893085
-0.037351154 0.03321147 -0.049225315 0.01467169 -0.047726866 -0.039742425 -0.017242566 0.12941824
0.005178204 0.028105076 -0.06533642 -0.05625134 -0.072969414 -0.017460719 -0.07364093 0.06976036
0.09807471 -0.033492588 -0.025749085 0.07603793 -0.032927312 0.028803045 -0.088469535 0.06290596
-0.0018578849 0.006974588 -0.07622329 0.03640617 -0.013108144 -0.036998976 -0.064504206 -0.04237029
0.07494025 0.0018568258 0.031743962 0.06407187 0.047048837 0.06330121 0.09723383 0.019989135
0.009127558 0.088469915 -0.05103024 0.010891377 -0.023559503 0.03324735 0.0098198345 -0.043846313
0.040520318 -0.0107820975 -0.023311298 0.07010056 0.05714512 0.0071600475 -0.117056206 -0.06562956
-0.05496048 -0.07931555 0.07920474 -0.015605384 -0.0725383 -0.0071873637 0.047362044 -0.019935146
-0.009936946 -0.05170317 0.09627398 0.02291544 0.04023165 -0.04004079 0.031399593 -0.08120808
0.02870159 -0.04263035 0.03578355 -0.04726831 -0.06762001 -0.044733115 -0.08352054 -0.10009117
-0.09455563 0.062368024 0.0076441276 0.0055818395 0.08428036 -0.07993031 -0.025527371 -0.06654234
0.065872476 -0.11736548 -0.06786517 -0.018075654 0.01531304 0.055494335 -0.03046363 -0.04035776
0.026603468 0.063101746 0.075339064 0.05989283 -0.03510112 0.024525113 0.0697882 -0.07222776
0.004314484 -0.050889675 0.048344735 0.0456573 -0.00013604632 0.017590407 -0.045658745 -0.07594646

GNN1.bias f4 [96]
00000000: 6c6f 45bd 40e5 3d3d 6ca6 c53d dca9 fd3b
00000010: 24eb 80bb bbaf 0bbd 53fe 6dbd b0ed 85bd
00000020: 4ee9 663d e6b3 58bd a648 e63c 8017 b73c
00000030: 83b7 6cbd 3c9e 40bd 5f22 a6bb c407 68bd
00000040: cfef ce3d 60bb 31bd b7c4 a0bd 79f8 86bd
00000050: 0ffc 5c3b 7756 da3d bb7d cdbd f93e 063d
00000060: a6f8 0e3d 277f 863b 170a 8a3c c959 40bc
00000070: f390 313d 3053 3d3d b00d b03d 6b1b 8d3d
00000080: 5e97 4a3c bc35 5bbd d2ef 803c 548f 6abd
00000090: a10f 543d 4a80 153d a712 183c 949e 7fbd
000000a0: 2a8b 65bd 8459 523d 4a1d 6f3d e754 36bd
000000b0: 7685 a7bd abd4 173d 231f 433d 4542 18bd
000000c0: a1c1 24bc e9a6 8b3d cfbe c2bc b79c 1f3d
000000d0: e339 23bd 2111 a83d 2abd 173d 0098 583d
000000e0: b1bf 723d 9109 913c d24c 49bd 9a3f 71bd
000000f0: 26b5 bc3d e656 833d a543 29bc 704d 9bbd
00000100: f735 d53d 6e13 c43d 04e7 b7bd cf7e bf3c
00000110: f28d 1a3b 50ff 163d f341 b8bc 71c1 30bd
00000120: a580 803b fdff ba3c 4f26 79bd f899 a13d
00000130: e737 be3d 91d4 c73d efa4 fe3c 2591 36bd
00000140: d28c 72bc 704d 0dbd a04c a93c e252 24bd
00000150: bb89 1cbd 5d63 98bd 9887 fb3b 67d5 653c
00000160: 506e b43d 1f03 343d 8ae9 8f3d 09b5 51bd
00000170: 5f85 1d39 7634 a6bc 5789 8d3c 77d7 28bd
-0.048201963 0.046361208 0.09650883 0.007741196 -0.003934281 -0.034103137 -0.05810387 -0.06539476
0.05637484 -0.05290594 0.028110813 0.022350073 -0.057792198 -0.047025904 -0.0050700153 -0.05664803
0.101043336 -0.043391585 -0.078500204 -0.06590361 0.0033719575 0.10661023 -0.10033747 0.0327749
0.0349051 0.004104513 0.016850514 -0.011740156 0.043351125 0.046221912 0.08596361 0.06889995
0.01236519 -0.053518042 0.015739355 -0.057265595 0.051772717 0.0364993 0.009281791 -0.06240709
-0.05604092 0.0513549 0.05837754 -0.044514563 -0.081797525 0.03706805 0.047637116 -0.037172575
-0.01005593 0.06818945 -0.023772625 0.038967814 -0.039850127 0.08206392 0.037045635 0.052879333
0.059264842 0.017704757 -0.049145527 -0.058898546 0.09214239 0.06413059 -0.010331069 -0.075831294
0.104106836 0.095740184 -0.089796096 0.023375897 0.002358314 0.03686458 -0.022492385 -0.04315323
0.0039215856 0.022827143 -0.06082755 0.07890695 0.09288006 0.09757341 0.031084506 -0.044572014
-0.014804082 -0.03449768 0.02066642 -0.040118106 -0.038217288 -0.07440827 0.007676076 0.01402793
0.08810103 0.04394829 0.07026966 -0.05119804 0.00015022371 -0.020288687 0.017277403 -0.04122111

GNN2.Theta1 f4 [288, 96]
00000000: 837c 173d 6e17 ad3d 4770 2f3d 9503 bf3b
00000010: a425 f73b 4196 9dbd 678d 0ebd 05ba 39bd
00000020: b060 48bd f40a bbbd 440d da3c 3417 9f3c
00000030: 5e13 b73c 600f 0e3d 0844 56bd c139 3fbd
00000040: 4fa8 28bd 40ab 9ebc 4f88 05bd 399c 903d
00000050: efdc 673c 6c03 37bd 2f87 ea3c 1452 c0bc
00000060: f9ca 0dbc ac4e 1a3d bee1 723c 536a 8a3c
00000070: 6e27 9f3d 6b1b 793d 584d 2ebd 33f3 01bd
00000080: daa4 2cbd deae b83c 6145 0bbd dcb4 06bd
00000090: 73d3 82bc a5f2 653d a376 89bd 5bc8 adbd
000000a0: 1995 6a3d d3b4 1c3d c769 ecbc b74c 9cbd
000000b0: b183 1fbd fef6 453d f1b6 1cbd 7a04 10bd
000000c0: 9383 86bd b8e7 01bd 432f 4dbb 8c8e 303d
000000d0: 1d79 8dbd a3da b1bd 3e8a fe3c 5cda a5bd
000000e0: 1d87 653d 6c1b 44bd 9d82 81bd c073 a1bc
000000f0: 20c8 2e3d 1377 9ebd fc77 ce3b bb93 58bd
00000100: a167 f9bc 6ea6 67bd 8bf1 2a3d ac53 2bbd
00000110: 941d 93bd fa7d c4bd ee5a ac3d 94a4 883c
00000120: 283f edbc e5d5 ba3d db98 663d 5d3f 32bd
00000130: e9dd 943d 2480 d1bc 06b1 503d 07ec 60bd
00000140: 7ced 313d 3005 afbd 548d 71bd c06d 14bc
00000150: 4ab5 a5bd e233 ab3a 5f75 95bc d860 ad3d
00000160: 9d96 673c 690a 663d 3030 873d f3ce 723d
00000170: 864c 2a3d 15bf 2a3d 154d 953d 115d a93d
00000180: ed9c 34bd a039 2f3d 2d4b 233d 9180 413d
00000190: 949e 07bd 5d6f e73b fcd3 1d3d 8639 043d
000001a0: 28d4 8b3c e221 7c3d daa9 0fbd 6fed e03b
000001b0: 4b5c b2bd 531c 763d cefd 9fbd ad65 203d
000001c0: 1984 1fbd 6565 013d 6b6f 4fbd e4df 963d
000001d0: 4715 a1bd e674 653d ffec bdbc ba52 d7bd
000001e0: e25f edbc 95a4 6fbd 0199 193d 2a94 973d
000001f0: 5bd4 e33c b689 7fbc 4501 f63c 5a5b b4bd
00000200: 40e6 2fbd 48ae 813d ca1e a43d 676b 9c3b
00000210: f850 f63c 4922 8f3d a0fa 65bd e6d6 37bb
00000220: 0c96 b5bd d817 c03c f807 31bb 7e1f 9d39
00000230: a8fc 8f3d 0da9 94bd 24cd 9f3d a530 ebbc
00000240: 1763 b73d 384b 96bc 6b77 20bd 079c 703c
00000250: b0ec 103d 7343 a6bb a439 96bc c814 4abd
00000260: 8099 3fbb 8f55 88bd 766c f2bb 8056 943c
00000270: 3efc 04bd 5157 8a3d 186d 65bd 626d 5b3b
00000280: 26c5 843b 6a2b 02bd 664e 883d ffb2 66bd
00000290: a594 8c3c e98c b03c 9e23 963d b0a3 9d3d
000002a0: 4a03 da3c 9879 9bbd d6e3 0bbd 32d4 9c3c
000002b0: b7c0 b13c 67cf 863d 4f44 1b3d 3440 8a3d
000002c0: 0d32 0cbd 2e66 2c3d f1d6 2abd 79e2 323c
000002d0: 1f6b 8c3d 990f c83d 2bd0 d0bd 21ee 043d
000002e0: fbde 9c3d d350 c1bd cb7c 913d 2d42 a2bd
000002f0: 2e4e aebd 3b77 6d3d a37b 12bd ed7f 8f3d
00000300: d9b9 52bd 3642 debd c599 86bd 2174 28bd
00000310: 2c84 92bd e736 77bd e257 6dbd 1661 46bd
00000320: d6bb efbc 8693 4d3d cc6c 8c3d e193 6dbd
00000330: 6b9a 04bc 2c42 84bd de60 6c3d 2dae a6bd
00000340: 8a2b 4abd d23d 003d 3bed 24bd 4104 5abd
00000350: cedb 9e3c 3c1a 21bd 476a 363d cb0b ad3d
00000360: 2cc5 07bd 2989 9c3d b6ec 8d3d 8ecb a83d
00000370: cccd 393d 248a 923d b3cb 0ebd 2004 953d
00000380: 7027 9a3d b6ec 093d ab8e 97bb ded8 56bd
00000390: bbfc 8b3d f879 623d f882 5c3d b256 bc3d
000003a0: a608 0f3d 0839 1d3c 1500 553d 71f0 5d3d
000003b0: 7dce 5abc 7cca 44bd 6efe d43d bad4 fe3c
000003c0: ff94 07bd c20c e4bd 99b4 bb3b 0145 4f3d
000003d0: 31df d33b ebbb 303d 3b97 bdbd 08f2 8c3d
000003e0: 9977 f4bc e8bf 97bd 0033 f2bc 35c6 b63d
000003f0: 4964 a5bc 5ec4 c4bd 28a5 4fbd a714 4dbd
0.036983978 0.084517345 0.042831685 0.0058292844 0.007542329 -0.07694674 -0.03480282 -0.045343418
-0.048920333 -0.091329485 0.026617654 0.019420244 0.022348102 0.03468263 -0.052310973 -0.046685938
-0.041176137 -0.019368768 -0.032600697 0.07061047 0.014151796 -0.044680998 0.028628914 -0.023476638
-0.0086543495 0.037672684 0.014824329 0.016896402 0.077711925 0.060817163 -0.04255423 -0.031726073
-0.042149402 0.02254432 -0.03400171 -0.032887325 -0.015969967 0.056139607 -0.06712081 -0.084854804
0.057271097 0.038258385 -0.028859032 -0.0763182 -0.03894395 0.048331253 -0.038260404 -0.03516052
-0.065680645 -0.031715125 -0.0031308688 0.043104693 -0.06907866 -0.0868428 0.031071778 -0.08098289
0.056037057 -0.047877714 -0.06323741 -0.019708514 0.042671323 -0.07737555 0.0063009243 -0.05287526
-0.030444922 -0.056555204 0.04173426 -0.041827843 -0.07183376 -0.095943406 0.08415781 0.01668004
-0.02896078 0.091228284 0.056298118 -0.04351746 0.072688885 -0.025573798 0.050950073 -0.054912593
0.043439373 -0.08545911 -0.05897267 -0.00905937 -0.08091219 0.0013061727 -0.018244443 0.08465737
0.01413503 0.05616227 0.06600988 0.059279393 0.041576885 0.041686136 0.07290093 0.08269704
-0.04409497 0.042779565 0.039866615 0.04724175 -0.033110216 0.007062836 0.038532242 0.03228142
0.017068937 0.06155575 -0.035074092 0.006864242 -0.0870901 0.060085606 -0.07812081 0.039159466
-0.038944338 0.031590838 -0.050643366 0.073669225 -0.078653865 0.056019686 -0.023184298 -0.10513826
-0.028976385 -0.058506567 0.03749943 0.07401307 0.02781122 -0.015596798 0.030029902 -0.088064864
-0.042944193 0.0633207 0.08013685 0.0047735455 0.030067906 0.06988961 -0.056147218 -0.0028051673
-0.0886651 0.02344887 -0.0027012806 0.00029968837 0.07030612 -0.072588064 0.07802799 -0.028709719
0.08954447 -0.018346414 -0.039176386 0.014685637 0.035381973 -0.0050739585 -0.018338032 -0.049336225
-0.002923578 -0.06656944 -0.0073981835 0.018107653 -0.03246712 0.067549355 -0.056012243 0.0033481945
0.0040518222 -0.031779684 0.06655578 -0.056323048 0.017160723 0.021551566 0.07331012 0.076972365
0.026612896 -0.075915515 -0.03415283 0.019144151 0.021698339 0.065825276 0.03790694 0.06750527
-0.03422742 0.042089634 -0.04170889 0.010918253 0.06856369 0.097686 -0.10195955 0.03245366
0.07659718 -0.09439244 0.071038805 -0.07922778 -0.08511005 0.057975035 -0.03576244 0.07006822
-0.05144677 -0.108524725 -0.06572298 -0.041126374 -0.07154116 -0.060355093 -0.05794514 -0.048432432
-0.029264372 0.050189517 0.06856689 -0.058002356 -0.008093457 -0.06457934 0.057709567 -0.0813869
-0.04935793 0.031308956 -0.040265303 -0.053226713 0.01939192 -0.03933166 0.044534948 0.08449515
-0.033147022 0.07643349 0.06929915 0.0824195 0.04536228 0.071552545 -0.03486223 0.072761774
0.07527053 0.03367301 -0.0046251616 -0.052452914 0.06835314 0.0552921 0.05383584 0.09196223
0.034920357 0.009596117 0.05200203 0.05418438 -0.013354895 -0.048044667 0.10400091 0.031107295
-0.033101078 -0.11135246 0.005728316 0.050602917 0.0064658155 0.043147963 -0.092573605 0.06882101
-0.029842185 -0.0740965 -0.029565334 0.08924524 -0.020189421 -0.096077666 -0.050694615 -0.050068524

GNN2.bias f4 [96]
00000000: b203 af3d 9a88 19bd 0975 963c fcc8 9fbc
00000010: d5ff 17bd ee10 81bd 43de 8c3d a17e 903d
00000020: 2c6c 713d 5194 f4bc 8edf 643d 5701 42bd
00000030: b099 1dbd f245 4a3c 7764 94bd 1138 bf3b
00000040: e631 d13c 2fba c33c 9681 5d3d bdd0 153d
00000050: 7f0a d2bc ca62 9f3d c06e 4f3c e6f9 87bb
00000060: b96c 843c 48e4 eabc 4bec 0b3d f331 7f3d
00000070: 8384 583c 1d03 8bbd ef54 a83d d502 7cbd
00000080: 6103 e33b 5a1e 2e3d 68bf 183c 0f7c 463c
00000090: 8526 a63d d701 843c 83e9 143d 9935 a0bd
000000a0: d6ef 2dbd 705c 10bd 4fa3 733c c398 693d
000000b0: 126b 523d e97d 3d3d d550 c53c f1f6 123d
000000c0: 9e4c 17bb 889e 07bd 0c8f f3bc 146d e4bc
000000d0: bdea a3bd e111 9b3d a14e 683c 1ab6 b63c
000000e0: e7d3 b0bc 9532 cbbc 414e 253d 59bd 353d
000000f0: 90ee ba3c f7f0 c23c 3e9d 61bb 43e4 a23c
00000100: 2499 293d f433 5bbd b802 a0bb eb9a 853d
00000110: e395 0f3a 31d7 a5bd db4e a33d 7ad8 913d
00000120: 4621 1ebd 1132 f9ba 6f9e 95bd 4d7e 9b3d
00000130: dc12 fd3c 3a68 7b3d 93f4 a43c 1b2b 483c
00000140: ee56 783d eda9 61bd 10ba 86bd ea0c 453d
00000150: 48ec 19bd 24f9 603d 6e4d cf3b c2ee a43c
00000160: 487f 8f3d c529 553c d1fe 27bd 3be2 6cbd
00000170: 4ba8 58bd 96fb 063d 652b 763c 307e 18bd
0.08545627 -0.03748379 0.018366354 -0.019505017 -0.037109215 -0.06302057 0.068783306 0.070554025
0.05894105 -0.029855879 0.05587726 -0.04736456 -0.038476646 0.012345778 -0.07245725 0.005835541
0.025536489 0.02389249 0.05407866 0.03657602 -0.02563977 0.077825144 0.012660682 -0.0041496633
0.016165124 -0.028673306 0.034160893 0.062303495 0.013215187 -0.06787703 0.08219325 -0.06152614
0.006927893 0.042509414 0.009322979 0.012114539 0.08112816 0.016114159 0.036355507 -0.07822723
-0.042465053 -0.035244405 0.014870479 0.05703045 0.05137164 0.046262655 0.024086395 0.035880033
-0.002308644 -0.03311017 -0.029731296 -0.027884044 -0.08003757 0.075717695 0.014178903 0.02230363
-0.021585418 -0.024804393 0.040357832 0.04437003 0.022818834 0.023796542 -0.0034426 0.019884234
0.041405812 -0.053516343 -0.0048831366 0.06523689 0.0005477352 -0.08097685 0.07974025 0.07121368
-0.03860595 -0.0019012113 -0.073056094 0.07592449 0.030892782 0.061378695 0.020136153 0.012217308
0.060629778 -0.055093694 -0.06578457 0.04810802 -0.03757885 0.0549251 0.006326369 0.02013338
0.07006699 0.013010447 -0.041014496 -0.057832938 -0.05289487 0.032954775 0.0150249945 -0.037229717

GNN3.Theta1 f4 [288, 2]
00000000: eb9c f9be 8d8b d13e ccb4 0abf dd00 323e
00000010: d1b9 063e 25c9 80be a061 0abf 048d 30be
00000020: 37c3 cabe 6cde cc3d 748a aa3e 45af 51be
00000030: 61bb 0dbe dc57 b43e 629d a2be bdfb 1dbe
00000040: dc84 1b3e fb53 0f3f b790 72be 0203 26be
00000050: 6465 5d3e 5bee 57be d5c0 15be e267 20bf
00000060: 04be b1be 9d82 0bbf aab7 6abd 97e3 e63e
00000070: 55d0 01bf 8222 c63e 3bca 29bf 9632 343f
00000080: baa4 7e3c 6e57 19bf 8cdf 24bd 8aea b2be
00000090: 43f3 0cbf 4c0e e1be 1fb1 c6be affe 233f
000000a0: 5cfc c6bd a068 a5be 9182 5b3d 00d2 5bbe
000000b0: de6b 0d3f b455 8d3e cdad fe3e 6a8c 153e
000000c0: ba53 03be 6372 8cbe 6a0e f43e 1c6a e83d
000000d0: cdc5 9bbe 6f5e d13e aaa7 973e 00b4 cdbe
000000e0: c4fc f2be 5485 9a3e a806 d43c e63f 063e
000000f0: b72b 25bd 7b07 0dbf 0015 b1be 550e 1fbf
00000100: 4f55 913e 972a 8b3e c339 c4be f61e e7be
00000110: 56ee ed3e 6fc6 713d 04f0 09bf c5b4 083e
00000120: 21ff 1fbb 9ed4 4b3e 6e7a 5a3e 58f3 4aba
00000130: 20fb 09bf 3dba fbbd 384d 393d d2ba ed3e
00000140: ffd2 2b3f 9b2b 0b3f be14 2bbf 1b4e aabe
00000150: 78f3 bf3b 0bdf d4be 78e8 95be 6e69 b9bc
00000160: c34d b0bd 8d93 063f 3441 0bbf bef0 993d
00000170: 91e8 c1be d3d7 9bbe 5de3 843e 91c2 b73e
00000180: d3cd 17bf 8339 0cbf 8047 c8be 1596 81be
00000190: 86c2 1b3f 2360 e3be 3223 1b3f d067 67bc
000001a0: c431 c0be 0a21 9dbe 44c2 023f a837 843e
000001b0: de48 f43e f0df 87be 4c68 1c3f a797 02be
000001c0: 9148 9c3c 6fc0 9d3e f6a4 ccbe 8c7f e83e
000001d0: d403 9dbd 4a2e 1fbf 6ba5 c73e a4d3 11bf
000001e0: 81ae 1dbf 1708 823e 280c 01bf deb9 dcbe
000001f0: 1400 e23e 8498 1a3f 0d7e eebe d0fb 303c
00000200: c31c 92bc 3c3e 573e 1146 233f 5958 28bf
00000210: 0bb8 c4bd 336b 223e b12b efbd dbb4 3b3e
00000220: 3008 febd 8cb8 e7bd fdd6 5dbd 1ecf 063f
00000230: 6310 db3e 3d8d 05bf 310f e8be bba2 073f
00000240: e9b3 82be 3717 073f 2ae1 9ebe 8bec ddbe
00000250: 83d5 633b 9a3c 553e c632 d43e c8de a03e
00000260: 6cd6 fd3e 849d 1dbf 8efc ad3e 0f1e 683e
00000270: 0852 91be 1da0 92bc 095a edbe 7092 d83d
00000280: 1c0b cebd 5b0b 8bbe 8449 4e3e 0720 1e3f
00000290: b506 14bf ee75 1cbf b10e 2a3f da18 b83e
000002a0: 34cc 22bd 9294 633e 7b93 0d3f 6131 adbe
000002b0: 8965 11bf 67b7 0abf d3bd 073d ac4f 4abe
000002c0: dc0b 76be c384 9d3d c93a e73e 7bb4 023f
000002d0: e0f9 a6bd a18e 1cbf 45ef 013f 8ff0 c6bd
000002e0: 8c89 2abf 8907 da3e 2f68 d3be 91fc fa3e
000002f0: 8d98 973e 7b01 1ebe 7208 a43e 80a3 023f
00000300: 1b7a b1be 9fb0 1abf 8471 02bf c24d 75be
00000310: fe19 15bf 7f61 913c 83d9 0a3e 8e45 153f
00000320: 418c 673e e5aa f73e 5398 ecbd cbb8 98be
00000330: a808 163f e93f c7be 980b 2a3f f792 00bf
00000340: fb29 b6be c884 f9be a32b 54bd 580c f4be
00000350: 10e1 92be c5c1 06bf 0e32 223f 8758 22bf
00000360: be59 a3be 2045 d13e 14de de3e d432 9fbe
00000370: 3aa3 b6bd bb0c 3dbe 5237 b03e 3e39 22be
00000380: dcb7 fdbd c3dd e8be c662 02bf 2cd2 d83e
00000390: 7466 cf3e 41c5 34bf 8025 96bc 2b37 0b3f
000003a0: 1739 3c3d 77da bc3e 3d30 9b3d 01dc d03e
000003b0: 63fd 1dbe 7830 453e 1572 393e 86dd fdbe
000003c0: 83d9 dcbe e7b6 003f 96c5 913e 147c 1fbf
000003d0: a519 f8be af2e 123f e5bd 273f 9936 20bf
000003e0: 49b3 e6be 817e 3a3e 8b44 c7be 076d 85bc
000003f0: 3463 703d 1975 0d3f 1112 16be 1373 953e
-0.4875253 0.4092678 -0.54182124 0.17383142 0.13156821 -0.2515346 -0.54055214 -0.17241293
-0.39602062 0.10003361 0.33308756 -0.20477016 -0.1384101 0.3522328 -0.317607 -0.15428062
0.151874 0.5598752 -0.23688017 -0.16212085 0.21620709 -0.21087019 -0.14624341 -0.6265851
-0.34715283 -0.54496175 -0.057304062 0.45095512 -0.50708514 0.38698202 -0.66324204 0.7038969
0.015542204 -0.5989903 -0.040252253 -0.34944564 -0.5505869 -0.4395622 -0.38807008 0.6406049
-0.097161025 -0.32306385 0.053591315 -0.21466827 0.5524272 0.2760445 0.49741974 0.14604345
-0.12824908 -0.2743102 0.47667247 0.11348364 -0.30424348 0.4089236 0.29620105 -0.40176392
-0.4745847 0.30179846 0.02588208 0.13110313 -0.040324893 -0.5508954 -0.34586334 -0.62131244
0.28385398 0.2718093 -0.3832532 -0.4514081 0.46470898 0.05902713 -0.5388186 0.13350208
-0.0024413543 0.19905326 0.21335766 -0.00077419495 -0.5389881 -0.122913815 0.045239657 0.46431595
0.6711883 0.5436341 -0.66828525 -0.33262715 0.005857881 -0.41576418 -0.29278922 -0.02263328
-0.08608582 0.52568895 -0.5439637 0.07516621 -0.37872747 -0.30438098 0.25954714 0.3589063
-0.5929844 -0.54775256 -0.3911705 -0.25309816 0.60843694 -0.44409284 0.6060058 -0.014123872
-0.37537968 -0.3068927 0.51077676 0.25823712 0.47711843 -0.26538038 0.61096644 -0.12753163
0.019077571 0.30810878 -0.39969605 0.4540981 -0.07666746 -0.62180007 0.3899339 -0.5696356
-0.61594397 0.25396797 -0.50409174 -0.43110555 0.44140685 0.6038897 -0.46580544 0.010802224
-0.01783598 0.21019834 0.6377879 -0.6575981 -0.09605416 0.15861206 -0.11678255 0.1833071
-0.124039054 -0.113144964 -0.054160107 0.52659786 0.4278594 -0.5216864 -0.4532409 0.5298268
-0.25527886 0.527698 -0.31031162 -0.4334453 0.0034764714 0.20823899 0.41444987 0.3141997
0.49577653 -0.61568475 0.33981746 0.22667716 -0.28382897 -0.017898614 -0.46357754 0.10574806
-0.10060713 -0.271571 0.20145231 0.6176762 -0.57822734 -0.61117446 0.6642867 0.3595646
-0.039745525 0.22224644 0.5530316 -0.33826736 -0.56795555 -0.541861 0.033140015 -0.19756955
-0.24027961 0.07691338 0.45162037 0.5105664 -0.081531286 -0.61155134 0.5075572 -0.09713852
-0.6661613 0.42583874 -0.41290423 0.49020818 0.29608575 -0.15430252 0.32037693 0.5103073
-0.34663472 -0.6042575 -0.5095446 -0.23955444 -0.58242786 0.017746685 0.13559537 0.5830926
0.22612096 0.4837257 -0.11552491 -0.29828486 0.5860696 -0.38915947 0.6642394 -0.5022425
-0.35578904 -0.48734117 -0.051799428 -0.47665668 -0.28687334 -0.5263942 0.6335763 -0.6341633
-0.31904405 0.4087305 0.43528807 -0.31093466 -0.08917852 -0.18461888 0.34417206 -0.15842149
-0.12388584 -0.4548169 -0.50931966 0.42347848 0.40507853 -0.70613486 -0.018328428 0.54381055
0.045952883 0.36885425 0.0757756 0.4079285 -0.1542869 0.1925677 0.18109925 -0.4958307
-0.43134698 0.50279087 0.2847106 -0.62298703 -0.48457065 0.57102484 0.6552413 -0.6258331
-0.4505866 0.1821232 -0.38919482 -0.01628734 0.058688357 0.552568 -0.1465533 0.29189357

GNN3.bias f4 [2]
00000000: 6bd5 82bd 2fea 0d3f
-0.063883625 0.5543546
