trained_models/iS_GNN_Trained_ep_100_bs64_lr5em04_z96_k_diff_1_kNN_5_ramps_30_b_cap_90.pth (torch, 134999 bytes, 6 tensors)

GNN1.Theta1 f4 [48, 96]
0	0x3c3e8357	0.011627994
1	0x3d173190	0.0369125
2	0xb9b2c5a6	-0.00034098065
3	0x3d9abb30	0.075552344
4	0xbc17ffd7	-0.009277306
5	0x3b1c42d7	0.002384355
6	0xbcd67278	-0.02617763
7	0x3d40060c	0.046880767
8	0x3d74f57a	0.059804417
9	0xbc9fc486	-0.01950289
10	0x3d67b8ef	0.05657285
11	0x3bd2e2e8	0.0064357407
12	0x3da280fb	0.07934757
13	0x3d454b02	0.048167236
14	0x3cd1e16e	0.025620189
15	0x3c528083	0.012848022
16	0x3d14a479	0.036289666
17	0x3d09c307	0.03363326
18	0xbc51539a	-0.01277628
19	0x3c95aafe	0.018270012
20	0xbc1ec788	-0.009691127
21	0x3cb54cbc	0.022131316
22	0xbc82f438	-0.015985593
23	0x3d376919	0.044777963
24	0xbd48a3e5	-0.048984427
25	0xbcd14a1d	-0.025548035
26	0xbd0348d6	-0.032051884
27	0x3bc4d4a8	0.006006796
28	0x3d17bef1	0.03704733
29	0xbd81a1ae	-0.06329666
30	0x3d87984f	0.066208474
31	0xbce9317e	-0.028465983
32	0x3d43a438	0.047764033
33	0x3c031623	0.008000883
34	0xbd623287	-0.055223968
35	0x3d17d5e8	0.03706923
36	0x3d8a6107	0.06756788
37	0x3d7bdc42	0.06148935
38	0xb9688e5c	-0.00022178277
39	0xbcb7e7db	-0.022449424
40	0x3d155267	0.036455538
41	0xbb8a0663	-0.004212187
42	0x3cfdbb89	0.030973213
43	0x3d6a3bbf	0.057185885
44	0x3d34405e	0.044006698
45	0xbcc878bc	-0.024471633
46	0x3cc7da25	0.024396012
47	0x3d368181	0.0445571
48	0x3ca79630	0.020457357
49	0xbcc6076f	-0.024173466
50	0xbd4d2d96	-0.050092302
51	0xbcdb5ed4	-0.026778616
52	0xbd68518b	-0.05671839
53	0x3d6adf33	0.057341766
54	0x3c699cd5	0.014258583
55	0x3c9e69af	0.019337503
56	0x3cb35333	0.021890258
57	0xbc3f1750	-0.011663273
58	0x3d269547	0.040669706
59	0x396222f2	0.00021566058
60	0xbc8b6974	-0.017018057
61	0xbce8101a	-0.02832799
62	0x3ce2d2ef	0.027688472
63	0x3bc201b0	0.0059206113
64	0x3b4d2a45	0.0031305712
65	0xbc15cde8	-0.00914333
66	0x3d10c777	0.035346474
67	0xbce0db88	-0.02744843
68	0xbd72d173	-0.059281778
69	0xbd098999	-0.03357849
70	0x3d2daae1	0.04239929
71	0x3d0d7a73	0.034540605
72	0x3c8db58e	0.017298486
73	0xbd2ae91c	-0.041726217
74	0xbd309588	-0.043111354
75	0xbd3f0b66	-0.04664173
76	0xbd2ab7fd	-0.04167937
77	0x3d2dc715	0.042426188
78	0x3c91efe2	0.01781458
79	0x3d9d706d	0.07687459
80	0xbcce8771	-0.025211068
81	0xbd9b497a	-0.07582374
82	0x3bf39280	0.0074332356
83	0xbb2e834e	-0.0026628557
84	0x3cf53847	0.029934062
85	0xbcd2102d	-0.025642479
86	0x3cb3e8d5	0.021961609
87	0xbd261cf4	-0.040554956
88	0xbd511b0f	-0.051051196
89	0x3cbb4758	0.022861168
90	0x3cdcda0e	0.026959445
91	0xbc4346ea	-0.011918763
92	0x3d76ccd5	0.060253937
93	0x3d4723f8	0.048618287
94	0xbc84be62	-0.016204063
95	0xbd033318	-0.03203115
96	0x3d138cc5	0.03602292
97	0xbd855a22	-0.06511332
98	0xbcec85e0	-0.02887243
99	0xbdaedede	-0.08538602
100	0xbcb6571c	-0.022258334
101	0xbbb253c3	-0.005442114
102	0x3a0bf6f4	0.0005339228
103	0xbd3d7e6b	-0.04626314
104	0x3d08c069	0.03338662
105	0xbc18242f	-0.009285971
106	0xbdda80b0	-0.106690764
107	0xbda3d020	-0.07998681
108	0xbd91c54d	-0.0711771
109	0xbc162370	-0.009163722
110	0x3db04374	0.08606616
111	0x3d3348e0	0.04377067
112	0x3b62fdc3	0.0034636117
113	0xbd97e195	-0.07416073
114	0xbcf4ec36	-0.02989779
115	0xbcd4818f	-0.025940685
116	0x3d0d5a58	0.034509987
117	0xbd55c48e	-0.052189402
118	0xbd1d0c27	-0.038341668
119	0xbdc5ebb6	-0.09664099
120	0x3c8823ff	0.016618727
121	0xbccede68	-0.025252536
122	0xbc7a7772	-0.015287267
123	0xbd27c604	-0.040960327
124	0xb9c3ea95	-0.00037368076
125	0xbd1d7873	-0.038444947
126	0xbd704086	-0.058655284
127	0xbd1ea735	-0.03873368
128	0x3d9bb23c	0.07602355
129	0xbd17e7fe	-0.03708648
130	0x3d741c3a	0.05959723
131	0x3b76e267	0.0037671567
132	0xbcbf16e8	-0.023326352
133	0x3d97ab67	0.07405739
134	0xbc29680f	-0.010339751
135	0xbd631136	-0.055436336
136	0xbdb0c6ec	-0.08631691
137	0xbd9fd745	-0.07804731
138	0xb9ad7539	-0.0003308447
139	0xbcb54794	-0.022128858
140	0x3d00a0fc	0.031403527
141	0xbd10bd0b	-0.035336535
142	0x3db6490f	0.089006536
143	0xbd0338de	-0.032036655
144	0xbcf8e2f2	-0.030381653
145	0x3d6d5bb5	0.057948787
146	0x3d94baea	0.072622135
147	0x3dba8a52	0.09108414
148	0x3dc1366f	0.094342105
149	0xbd2071ff	-0.039171215
150	0x3d1d47f1	0.038398687
151	0xbd5918dd	-0.053002227
152	0xbb33b149	-0.0027418903
153	0xbdb43973	-0.0880002
154	0x3d945eb9	0.072446294
155	0xbc705190	-0.0146678835
156	0x3d3088fe	0.043099396
157	0x3d2c6084	0.042084232
158	0x3d210190	0.03930813
159	0xbc05f5ec	-0.008176308
160	0x3d4bddd4	0.0497721
161	0x3d11fe1d	0.035642732
162	0xba8145c5	-0.0009862712
163	0xbd8c2827	-0.06843596
164	0x3c8a786c	0.016903125
165	0x3c4f4c8a	0.012652526
166	0xbdbbc1f3	-0.09167852
167	0x3dc99922	0.09843661
168	0xbd021005	-0.03175356
169	0xbd67d874	-0.05660291
170	0xbc974f3d	-0.018470401
171	0x3cd4ae79	0.025962101
172	0x3d8ba19f	0.06817936
173	0x3c945d2c	0.018110834
174	0xbdb44717	-0.08802622
175	0xbca2e13c	-0.01988279
176	0xbd87a504	-0.06623271
177	0x3ce98474	0.028505541
178	0x3d17cfd0	0.03706342
179	0xbd27675a	-0.040870048
180	0x3d32bc4f	0.043636616
181	0x3ce56fc7	0.028007401
182	0x3bb32e70	0.0054681823
183	0x3cf88c5c	0.030340366
184	0x3d47e73f	0.048804518
185	0x3d55d890	0.052208483
186	0x3d557a56	0.05211862
187	0x3cb95042	0.022621278
188	0x3c863df7	0.016386969
189	0xbc380c1e	-0.011233358
190	0x3d145352	0.036212273
191	0xbd0d0a07	-0.03443339
192	0x3bffd52d	0.007807395
193	0x3d69a067	0.057037737
194	0xbb3714f2	-0.0027936068
195	0xbc1b5db9	-0.009482794
196	0x3d1a551e	0.03767883
197	0xbd17ae5a	-0.03703151
198	0x3d1dde87	0.038542297
199	0x3d671c5f	0.05642354
200	0xbd7cbf97	-0.06170615
201	0x3cba7faf	0.022765962
202	0x3d86db3c	0.065847844
203	0x3c82db0d	0.015973592
204	0x3c562e9c	0.013072636
205	0xbbbb20a2	-0.0057106772
206	0xbda08f2e	-0.07839809
207	0xbd8912a3	-0.06693008
208	0xbd7ae7c7	-0.061256196
209	0x3d63515c	0.055497512
210	0x3dd153f0	0.10221088
211	0x3d61e827	0.05515304
212	0xbd92c608	-0.07166678
213	0xbcc2a217	-0.023758931
214	0xbc2b96f9	-0.010473006
215	0x3d8169ca	0.06319006
216	0x3cfec581	0.031100037
217	0xbc608f1a	-0.013705993
218	0x3d0b4de2	0.03400982
219	0xbc2ee0ec	-0.010673743
220	0x3b6d4dc6	0.0036209687
221	0x3dc3c5bd	0.095592
222	0xbd8f9f02	-0.0701275
223	0x3caeff14	0.021361865
224	0xbde3801f	-0.111084215
225	0x3d52d8da	0.051476337
226	0x3d4926ab	0.049109142
227	0x3c161f7d	0.009162781
228	0xbc042595	-0.008065601
229	0xbdc7466d	-0.097302295
230	0xbd856dad	-0.065150596
231	0x3d74eb0f	0.05979448
232	0x3d42290c	0.047402427
233	0x3ddfdb06	0.10930447
234	0x3cc41415	0.023935357
235	0x3cd4f7d8	0.025997087
236	0xbc18e168	-0.009331085
237	0xbcef2dbf	-0.029196618
238	0xbd97fc15	-0.07421128
239	0xbd575f6d	-0.05258124
240	0x3cedbfbc	0.02902209
241	0xbc5cd320	-0.0134780705
242	0xba1f57bd	-0.00060784427
243	0xbd4cfffd	-0.050048817
244	0xbc8d26d1	-0.017230423
245	0xbcf667bc	-0.030078761
246	0xbd5d15dd	-0.05397593
247	0x3ccac5b9	0.024752485
248	0xbcb35286	-0.021889936
249	0x3d52884d	0.051399518
250	0xbd5a2776	-0.05326029
251	0xbc6fad81	-0.014628769
252	0xbcf14c83	-0.029455429
253	0xbd313016	-0.04325875
254	0xbccd7a1f	-0.025082646
255	0xbd4d73fe	-0.050159447

GNN1.bias f4 [96]
0	0x3c918924	0.017765589
1	0xbd1dfd85	-0.038571853
2	0x3cfa5c3f	0.030561564
3	0xbd7740bf	-0.06036448
4	0xbcca25b8	-0.024676189
5	0x3c9f4576	0.019442301
6	0x3d88ef64	0.06686285
7	0x3c2280b8	0.009918384
8	0xbd477a80	-0.04870081
9	0xbd878655	-0.06617419
10	0xbc738332	-0.014862822
11	0xbd05318e	-0.032517962
12	0x3daf70e8	0.08566457
13	0xbd41afa5	-0.04728665
14	0x3d2e5f01	0.04257107
15	0x3bcc7f93	0.006240794
16	0xbcbebbfb	-0.023282995
17	0x3d855658	0.065106094
18	0x3be04e2d	0.006845257
19	0xbb91a5b8	-0.004444804
20	0xbd1d0e1f	-0.038343545
21	0xbcb94721	-0.022616925
22	0x3cc6b20f	0.024254827
23	0x3d801c32	0.06255378
24	0xbd0bbac3	-0.034113657
25	0xbcd53977	-0.026028378
26	0xbd849584	-0.0647383
27	0x3d86667d	0.06562517
28	0x3d71878a	0.05896715
29	0x3d26f3e6	0.040759943
30	0xbd0bd3f2	-0.034137674
31	0x3d1c93c8	0.038226873
32	0xbca50954	-0.02014605
33	0x3d55ed14	0.05222805
34	0x3d92bb12	0.07164587
35	0xbdb8bfc9	-0.09020955
36	0x3d07a43e	0.033115618
37	0x3d17b96a	0.03704206
38	0xbd819baa	-0.06328519
39	0x3dcd6b96	0.10030286
40	0x3d4479a6	0.047967575
41	0x3d4b9182	0.049699314
42	0x3accefd0	0.0015635435
43	0xbd4baaa5	-0.049723286
44	0xbcaaa017	-0.02082829
45	0x3d53bc7e	0.051693432
46	0xbc97f55c	-0.018549614
47	0x3d89d7cd	0.06730614
48	0x3d71e6b4	0.059057906
49	0x3c1d5446	0.009602612
50	0xbd8e49af	-0.06947648
51	0x3d74e546	0.059788965
52	0x3da9ee63	0.08297422
53	0xbc788e3d	-0.015170631
54	0xbd0be4c8	-0.03415373
55	0xbb82c935	-0.003991271
56	0xbb809885	-0.0039244317
57	0xbd6efc6a	-0.05834619
58	0x3d553c59	0.052059505
59	0x3d7114e1	0.058857802
60	0xbd25eb99	-0.040507887
61	0xbcfc82fd	-0.030824179
62	0xbccffd5f	-0.025389371
63	0x3d97618b	0.07391652
64	0x3cde7939	0.027157413
65	0x3cc80834	0.024417974
66	0xbbc51ce1	-0.0060154055
67	0x3c55d10b	0.013050328
68	0x3df97295	0.12180058
69	0x3cd77a96	0.02630357
70	0xbd35f011	-0.0444184
71	0x3d856590	0.06513512
72	0xbd3f57cc	-0.04671459
73	0x3c9cf6b6	0.01916061
74	0xbd17342f	-0.036915
75	0xbb03f827	-0.0020136924
76	0x3b59edc1	0.0033253285
77	0xbcbbebfe	-0.022939678
78	0x3d76cbad	0.060252834
79	0x3d95a80d	0.07307444
80	0xbd2956fb	-0.041342717
81	0x3cd75ca2	0.026289288
82	0xbd6973c8	-0.056995183
83	0xbc28ce58	-0.010303102
84	0x3d3572d8	0.044298977
85	0xbbd0a361	-0.0063671325
86	0x3c80cc57	0.015722437
87	0xbd1faae5	-0.038981337
88	0x3da8cbe0	0.08242011
89	0xbcbaa0a8	-0.022781685
90	0x3cffd3a1	0.031228842
91	0x3cf9ed1b	0.030508569
92	0x3dac5d21	0.084162004
93	0xb9f5bec2	-0.00046872167
94	0x3d8a2ce1	0.06746841
95	0x3d355b93	0.044276785

GNN2.Theta1 f4 [288, 96]
0	0x3d29dc90	0.04147011
1	0x3a4fc409	0.0007925635
2	0x3cabb2d8	0.020959303
3	0x3dba2c36	0.09090464
4	0xbcdf6d5c	-0.027273826
5	0xbd078d2a	-0.03309361
6	0x3db6a8c5	0.08918909
7	0x3d1aab48	0.037761003
8	0xbda81de7	-0.082088284
9	0x3cee813c	0.029114358
10	0xbdc24a73	-0.09486856
11	0xbd83a252	-0.064274445
12	0x3d5b8d61	0.053601626
13	0x3d44bddc	0.048032627
14	0xbcc33dca	-0.023833174
15	0x3d9ab088	0.07553202
16	0x3dad581a	0.0846407
17	0x3d659214	0.056047514
18	0xbd76937a	-0.06019924
19	0xbcba64d0	-0.02275315
20	0x3b91d775	0.0044507333
21	0x3d91b937	0.07115405
22	0xbd1a125f	-0.037615176
23	0x3c2d27bf	0.010568558
24	0x3cdb14d3	0.026743328
25	0xbd1b16b4	-0.03786345
26	0xbd040652	-0.03223259
27	0x3dcd4b3f	0.10024118
28	0xbb8f547a	-0.004374084
29	0x3dabe94b	0.083941065
30	0xbde5785c	-0.11204597
31	0xbd4da79a	-0.050208665
32	0x3d400a7b	0.046884995
33	0xbc52c0c0	-0.012863338
34	0x3cc55e86	0.024092924
35	0xbdaba724	-0.08381489
36	0x3db72b4f	0.08943807
37	0xbd53cc2e	-0.051708393
38	0x3c3e5ef1	0.0116193155
39	0xbd67ce34	-0.056593135
40	0xbd83099b	-0.063983165
41	0xbd9e7a77	-0.07738202
42	0xbdcb0258	-0.099125564
43	0x3c50a458	0.012734495
44	0xbd30c728	-0.04315868
45	0x3d8191bd	0.063266255
46	0xbcb45d63	-0.022017187
47	0x3d8a9f46	0.0676866
48	0xbc5d4345	-0.013504808
49	0x3cb21fd9	0.021743702
50	0x3db865ef	0.09003817
51	0xbdbee9c4	-0.09321931
52	0xbd43ef6a	-0.047835745
53	0x3d9e349a	0.07724877
54	0xbd0b045a	-0.033939697
55	0xbd4aa381	-0.049472336
56	0xbbe42851	-0.006962814
57	0xbd33c086	-0.043884777
58	0x3ca04984	0.019566305
59	0xbd6c3469	-0.05766717
60	0x3c895340	0.01676333
61	0xbd3a3e28	-0.045469433
62	0xbd050ba8	-0.03248182
63	0xbcfda17b	-0.030960789
64	0x3c11903f	0.008884489
65	0x3d51bfd6	0.05120834
66	0xbd9d6383	-0.07684996
67	0xbd71d394	-0.059039667
68	0xbdc4d89a	-0.09611626
69	0x3d14eadb	0.036356788
70	0x3d51f8c7	0.051262643
71	0xbdc7767e	-0.097393975
72	0x3cb54438	0.022127256
73	0x3cd72187	0.026261104
74	0xbd4fc170	-0.050721586
75	0x3cb8bdcd	0.022551442
76	0x3d75111a	0.059830762
77	0x3dc96ac5	0.09834818
78	0x3d39a34e	0.045321755
79	0xbce7c30f	-0.028291253
80	0xbd862778	-0.06550497
81	0xbca4e76a	-0.020129878
82	0x3bef38ea	0.007300486
83	0x3cbe47ae	0.023227539
84	0x3db6f2d3	0.08933034
85	0xbdbe0367	-0.09277993
86	0x3b53f62d	0.0032342777
87	0xbd364622	-0.044500478
88	0x3c48328f	0.012219085
89	0x3dd682da	0.10474177
90	0x3c87775d	0.016536409
91	0xbb92c4f2	-0.004479044
92	0xbcc371c7	-0.023857964
93	0xbdc919ad	-0.098193504
94	0xbda4e0ad	-0.08050666
95	0x3d0006e4	0.03125657
96	0xbd9484b2	-0.07251872
97	0x3d588a29	0.052866135
98	0xbd0ba4be	-0.034092657
99	0x3d03a97c	0.032144055
100	0x3dabc8d3	0.083879136
101	0x3c8d4029	0.017242508
102	0x3d47a385	0.04873993
103	0x3dc27637	0.09495204
104	0xbc87069a	-0.01648264
105	0x3d94637d	0.072455384
106	0xbda9dc52	-0.08293976
107	0x3dab81ce	0.08374368
108	0xbcc6d1c7	-0.024269952
109	0xbc1cf48b	-0.009579788
110	0x3d649e98	0.05581531
111	0xbc093c1f	-0.00837615
112	0x3d92ef8a	0.07174595
113	0xbd88c1a1	-0.06677557
114	0xbd18e34c	-0.037326142
115	0x3dd41034	0.10354653
116	0xbd8e69e9	-0.069537945
117	0x3d629e3f	0.055326696
118	0x3d962583	0.073313735
119	0x3d594816	0.053047262
120	0xbd787181	-0.06065512
121	0x3c713cc5	0.014723961
122	0xbd7a40b8	-0.061096877
123	0xbd786409	-0.060642276
124	0xbca423e1	-0.02003664
125	0xbd75c752	-0.06000454
126	0x3d341bc8	0.043971807
127	0x3d28ef95	0.04124411
128	0xbd6071ee	-0.05479615
129	0xbc4ac1bc	-0.012375291
130	0x3db3a4a2	0.087716356
131	0x3b8264ee	0.003979317
132	0x3d89d792	0.0673057
133	0x3dbe1027	0.092804246
134	0xbcae0dc8	-0.021246806
135	0xbdc33161	-0.09530903
136	0x3d9132e1	0.070897825
137	0xbd494edb	-0.049147468
138	0x3db64461	0.08899761
139	0xbcf2b445	-0.029626975
140	0x3c98b20e	0.01863959
141	0x3ca17ae9	0.019711928
142	0xbd1e0c36	-0.038585864
143	0x3da54079	0.08068938
144	0xbdabf82d	-0.08396945
145	0xbd1bd12e	-0.038041286
146	0xbc93b30a	-0.018029708
147	0x3d7ddeae	0.061979942
148	0x3d2ed801	0.042686466
149	0x3d7149e6	0.058908366
150	0x3d05c67d	0.032659996
151	0x3d8f337e	0.06992243
152	0xbd07f61e	-0.0331937
153	0xbcd0ae97	-0.025473876
154	0xbb10394e	-0.0022006813
155	0x3cc956fb	0.024577608
156	0xbd47c665	-0.04877319
157	0x3c10fd84	0.008849505
158	0x3ce895ea	0.028391797
159	0x3ce90703	0.028445726
160	0x3d884b6f	0.06655013
161	0x3c913a24	0.017727919
162	0x3dad5473	0.08463373
163	0xbc849e64	-0.016188808
164	0xbdb75ca3	-0.08953216
165	0x3d47c71f	0.04877388
166	0x3cc3907d	0.023872608
167	0x3db553fe	0.08853911
168	0x3cebc9f4	0.028782822
169	0x3bc7c64a	0.006096636
170	0xbd88ce35	-0.06679956
171	0xbdb6b73a	-0.089216664
172	0x3b3906db	0.0028232846
173	0x3da4f1a2	0.080539
174	0xba9716ba	-0.0011527159
175	0xbd2e52c4	-0.0425594
176	0x3d249b28	0.04018703
177	0xbd0601c9	-0.032716546
178	0x3d37f739	0.044913504
179	0xbd486fae	-0.04893463
180	0xbda3ae77	-0.07992261
181	0xbd71f01a	-0.05906687
182	0xbcec0b7d	-0.028814072
183	0x3ce6ffa5	0.028198073
184	0x3d632035	0.055450637
185	0xbd54e654	-0.05197747
186	0xbc0d1e64	-0.008613203
187	0x3d5791fb	0.052629452
188	0xbc25850c	-0.010102522
189	0xbb2e46e5	-0.002659255
190	0x3da438f6	0.08018677
191	0xbd195b56	-0.03744062
192	0x3d2dc74d	0.042426396
193	0x3d9f6fd7	0.07785004
194	0x3cec7aee	0.028867211
195	0xbcbae196	-0.022812646
196	0xbd624d2f	-0.05524939
197	0xbd856af9	-0.06514544
198	0xbbc9056f	-0.006134681
199	0x3d264a34	0.04059811
200	0x3d923e84	0.0714083
201	0xbbf6a15c	-0.0075265598
202	0x3dae5fa4	0.08514336
203	0xbd4d5d9a	-0.050138094
204	0x3cf22895	0.029560367
205	0xbd6d8835	-0.057991225
206	0x3cd4de27	0.025984837
207	0x3d91e50c	0.07123765
208	0x3c959e9d	0.01826411
209	0xbc770db8	-0.015078954
210	0xbc98a71e	-0.018634375
211	0xbd9206b4	-0.07130185
212	0xbd9f4921	-0.0777762
213	0xbdd1d5fe	-0.10245894
214	0x3d42ca3f	0.04755616
215	0xbd701b28	-0.05861965
216	0xbd18f0ff	-0.037339207
217	0xbd9a0fef	-0.0752257
218	0x3b1ec3b6	0.002422554
219	0x3da7689b	0.08174249
220	0x3ca2a0f7	0.019852145
221	0xbc30e5c0	-0.010796964
222	0x3d1cd24e	0.0382865
223	0x3d8816b7	0.066449575
224	0x3d5c7e8c	0.053831622
225	0xbd932080	-0.07183933
226	0xbb683f3e	-0.0035438086
227	0xbd969e8b	-0.073544584
228	0xbdb7cf82	-0.08975126
229	0x3d9cf2a8	0.076634705
230	0xbd88b9c7	-0.06676059
231	0xbd442241	-0.04788423
232	0x3cc9e1aa	0.024643738
233	0x3dd719fa	0.105030015
234	0xbddcaa2e	-0.10774647
235	0xbcf875ad	-0.03032955
236	0xbd23678a	-0.039893664
237	0x3d8c7d73	0.06859865
238	0x3d38540a	0.04500202
239	0x3d84900b	0.064727865
240	0x3d977aef	0.073964946
241	0xbcad72ed	-0.021172965
242	0x3d96193d	0.073290326
243	0xbc9c1a87	-0.019055618
244	0x3ba40594	0.005005548
245	0xbd0a7bda	-0.03380952
246	0x3d032bd7	0.03202423
247	0x3cc22aed	0.02370211
248	0xbc9853a8	-0.018594578
249	0x3dc45e5f	0.09588312
250	0xbc6f81db	-0.014618362
251	0x3c281c2d	0.010260624
252	0x3d97417f	0.07385539
253	0x3cec7b77	0.028867466
254	0xbd168d03	-0.036755573
255	0xbd2b2624	-0.04178442

GNN2.bias f4 [96]
0	0xbcf09022	-0.029365603
1	0xbbba34ee	-0.0056825792
2	0xbc3b6582	-0.011437776
3	0x3d30b134	0.043137744
4	0x3c51eb25	0.0128124105
5	0x3c5d2b7c	0.013499137
6	0x3ba9ab52	0.0051778937
7	0xbb4ee092	-0.003156696
8	0xbb97bc85	-0.0046306276
9	0xbc8b3c4c	-0.016996525
10	0x3c87f28b	0.016595146
11	0x3c0fd9fb	0.008779998
12	0xbca9a8bd	-0.020710343
13	0x3c2b7a6e	0.010466201
14	0x3d382bf6	0.0449638
15	0xbc782acc	-0.015146922
16	0xbd27b5aa	-0.040944733
17	0xbc4e7a76	-0.012602439
18	0xbd41b449	-0.047291074
19	0x3c15a468	0.009133436
20	0x3cec0722	0.028811995
21	0xbb1af4d6	-0.0023644469
22	0x3cecbb4d	0.028897906
23	0x3b4a5d99	0.0030878542
24	0x3c9d590b	0.019207498
25	0x3ae3125d	0.0017324198
26	0x3a88c1fa	0.0010433786
27	0xbd21975b	-0.039450984
28	0xbcb2110c	-0.021736644
29	0x3c6dd169	0.014515259
30	0x3bb2adca	0.005452846
31	0xbd0cbd42	-0.034360178
32	0xbba9c0f4	-0.0051804725
33	0xbbda5f98	-0.0066642277
34	0x3cf61d08	0.03004314
35	0x3a4ec623	0.0007887801
36	0xbc9ad872	-0.018902037
37	0xbcb2e002	-0.02183533
38	0x3c78dc3e	0.015189229
39	0xbc0fe419	-0.00878241
40	0xbc121cea	-0.008918026
41	0xbcb064bf	-0.021532414
42	0xbc920396	-0.017823976
43	0xbc307c76	-0.010771861
44	0x3cd5b8ba	0.026089061
45	0x3b56a921	0.0032754617
46	0x3c73c568	0.014878608
47	0xbcb9005e	-0.022583183
48	0xbbc87734	-0.0061177257
49	0x3cfe6bef	0.031057326
50	0xbb7638f5	-0.003757057
51	0x3ca78f44	0.020454057
52	0x3d50753a	0.050893046
53	0xbd334c2e	-0.043773822
54	0x3c34b2aa	0.011028925
55	0xbcc2de11	-0.02378753
56	0x3cd34143	0.025787955
57	0xbc957948	-0.018246308
58	0x3c0e61de	0.008690326
59	0xbd2d7703	-0.042349827
60	0x3c589dfb	0.013221259
61	0xbbc628ea	-0.006047358
62	0xbc089cb0	-0.008338138
63	0xbd150533	-0.03638191
64	0xbc0e1ec5	-0.008674328
65	0xba869273	-0.0010267034
66	0x3bd11572	0.0063807303
67	0x3d12c178	0.035829037
68	0x3d23d3ca	0.0399969
69	0x3b4a17b3	0.003083688
70	0x3cbf0740	0.023318887
71	0x3cc64cd8	0.024206564
72	0xbcb39f06	-0.021926414
73	0xbcbbc5cc	-0.022921465
74	0xbbcae69d	-0.006192042
75	0xbadbd16c	-0.0016770787
76	0xbb127c38	-0.0022351872
77	0xbc4b0b50	-0.012392834
78	0x38929d22	6.991091e-05
79	0xbca61d77	-0.020277722
80	0xbbb30fc8	-0.0054645278
81	0x3cf303c8	0.029664889
82	0x3cda1a25	0.026623795
83	0x3bfd3331	0.0077270498
84	0xbc9743eb	-0.018465003
85	0x3d0781c5	0.033082742
86	0x3d3d83fe	0.046268456
87	0x3d20a392	0.039218493
88	0xbc5efe98	-0.013610505
89	0xbd13b8de	-0.036064975
90	0xba29888a	-0.0006467184
91	0xbc4ef2f2	-0.012631165
92	0x3c19919c	0.009373095
93	0x3cae726b	0.021294793
94	0xbcaa7156	-0.020805996
95	0x3d097a77	0.033564057

GNN3.Theta1 f4 [288, 2]
0	0x3e8f900b	0.28039584
1	0x3e716472	0.23573473
2	0xbf32abc7	-0.6979336
3	0x3f29ec03	0.6637575
4	0x3edbfb3b	0.4296511
5	0xbf2f1e49	-0.68405586
6	0xbedcbaf2	-0.43111378
7	0x3eb0ac61	0.34506515
8	0xbdea8702	-0.11451532
9	0xbee3f0b6	-0.44519585
10	0x3e2506f8	0.1611594
11	0xbf1cb70a	-0.61216795
12	0x3f065f9f	0.52489656
13	0x3f001956	0.5003866
14	0x3eaaa2c2	0.333273
15	0x3e7c327a	0.2462863
16	0xbef3d226	-0.47621268
17	0xbe1dca1e	-0.15409133
18	0x3e9d0207	0.3066561
19	0x3e39cb60	0.18143988
20	0x3f09ee5d	0.5387934
21	0x3e2cfd44	0.16893488
22	0xbf1b06e5	-0.60557395
23	0xbee18efc	-0.440544
24	0x3ed8fc06	0.4237978
25	0x3ee4c0ab	0.44678244
26	0x3dd4351d	0.10361693
27	0x3dee6088	0.116395056
28	0x3eae110e	0.33997387
29	0xbf2d921b	-0.67801064
30	0xbf19d5de	-0.6009196
31	0xbe90f707	-0.28313467
32	0xbe86947b	-0.26285157
33	0xbcac3db1	-0.02102551
34	0x3ec312a5	0.38100162
35	0xbe050a36	-0.12992176
36	0xbb6d64a2	-0.0036223312
37	0xbf0736c3	-0.52817935
38	0xbe9ff4e2	-0.31241518
39	0x3f10b893	0.5653164
40	0x3f0b521c	0.54422164
41	0xbe2ae350	-0.16688275
42	0x3e6a567c	0.22884554
43	0x3f0a4cab	0.54023236
44	0x3ef54e72	0.47911412
45	0xbd5d572e	-0.05403822
46	0xbeff98e7	-0.49921343
47	0xbe802f7d	-0.2503623
48	0x3e9f99ae	0.31171936
49	0xbe96e1f4	-0.29469264
50	0x3e95b6cd	0.29241028
51	0xbef733ba	-0.48281652
52	0x3e75ed93	0.24016409
53	0x3ef05f71	0.46947816
54	0xbe088662	-0.13332513
55	0x3f1daaa4	0.615885
56	0x3ed32b53	0.4124399
57	0xbd8ac1ee	-0.067752704
58	0xbe30dda7	-0.17272054
59	0xbcf567bb	-0.02995669
60	0xbea48e1b	-0.32139668
61	0xbd827af8	-0.06371111
62	0xbf13e8e0	-0.57777214
63	0x3e8fcba6	0.2808506
64	0x3e225d97	0.15856014
65	0xbf023f3f	-0.50877756
66	0xbd97bdf9	-0.07409281
67	0x3e4bcee4	0.19903141
68	0xbeb845f7	-0.3599088
69	0x3e731613	0.2373889
70	0xbed9b2e7	-0.42519304
71	0xbc2a52e2	-0.010395737
72	0xbd52a4e2	-0.051426776
73	0xbedc8219	-0.43068007
74	0xbd8d63f7	-0.069038324
75	0xbe801d89	-0.25022534
76	0xbdaa9f0f	-0.08331119
77	0x3e2a87c0	0.16653347
78	0xbdf0ea0c	-0.11763391
79	0xbdf60c0c	-0.120140165
80	0x3f0e9c2a	0.5570704
81	0x3f014c48	0.5050702
82	0xbebf4837	-0.37359783
83	0x3d580bba	0.05274556
84	0x3e63965c	0.22225326
85	0x3de356b5	0.111005224
86	0x3c5fb223	0.013653311
87	0xbe4f4580	-0.20241356
88	0x3db2f5a9	0.08738262
89	0xbeaeadba	-0.34116918
90	0xbdb3f0d0	-0.08786166
91	0xbe654cc1	-0.2239256
92	0x3e99b96d	0.3002428
93	0x3ea6eadb	0.32601056
94	0xbf0c3195	-0.54763156
95	0xbef4ee4e	-0.47838062
96	0x3de56d7e	0.112025246
97	0x3e814c3f	0.25253484
98	0xbf135838	-0.57556486
99	0x3dcdff8f	0.100585096
100	0xbea4541f	-0.3209543
101	0xbf109446	-0.5647625
102	0x3f222d07	0.63349956
103	0xbedd296b	-0.43195662
104	0xbea1ce0b	-0.3160251
105	0x3f331f85	0.6996997
106	0xbecdb81f	-0.40179536
107	0xbe8b5175	-0.27210584
108	0xbed6f798	-0.41985774
109	0xbea8c05b	-0.32959256
110	0x3db536bd	0.08848331
111	0x3ecfc6d2	0.40581375
112	0x3e71e7b9	0.23623551
113	0xbe2b0bb2	-0.1670368
114	0x3ddcb9bc	0.107776135
115	0xbed62c56	-0.418307
116	0x3ee6bb9d	0.45065013
117	0xbed05b6a	-0.40694743
118	0x3e7913fe	0.24324033
119	0xbee4de96	-0.4470107
120	0xbe6c999e	-0.23105475
121	0xbf22c5de	-0.6358317
122	0x3e2aa34c	0.16663855
123	0x3eb6090c	0.35553777
124	0xbedb7466	-0.42862242
125	0x3e87078c	0.26372945
126	0xbdc10583	-0.094248794
127	0x3e24bb4d	0.16087075
128	0xbed454e5	-0.4147102
129	0xbf032d81	-0.5124131
130	0xbd0ccab9	-0.03437302
131	0x3e9669a9	0.29377487
132	0xbf18ad27	-0.5963921
133	0xbec91245	-0.3927175
134	0xbee64cad	-0.44980374
135	0xbd584af6	-0.052805863
136	0xbed77d61	-0.42087844
137	0xbea03483	-0.31290063
138	0xbe6c8ea3	-0.23101287
139	0xbeec48e9	-0.46149376
140	0xbea45f1b	-0.3210381
141	0xbe97ef06	-0.29674548
142	0xbdc5f5c2	-0.09666015
143	0x3f1561cd	0.5835236
144	0xbd6408e2	-0.055672534
145	0x3f0a1bc1	0.539486
146	0x3d140819	0.036140535
147	0x3e8adf59	0.27123526
148	0x3e649866	0.2232376
149	0xbdce85f5	-0.10084144
150	0x3f202f97	0.62572616
151	0xbeba2b89	-0.3636134
152	0xbe6b105c	-0.2295546
153	0x3e2ecbe8	0.17069972
154	0x3ca10a6c	0.01965829
155	0xbe65039b	-0.22364657
156	0x3eac8cd1	0.33701184
157	0xbf273611	-0.65316874
158	0x3f178867	0.5919251
159	0x3e291ec0	0.16515636
160	0xbe2286d8	-0.15871751
161	0x3f1f4215	0.6221021
162	0xbe166a09	-0.14688887
163	0xbf2e6873	-0.68128127
164	0xbec5f6a1	-0.38664725
165	0x3f135c5a	0.5756279
166	0xbe84c36f	-0.25930354
167	0x3e527891	0.20553805
168	0xbe637395	-0.2221206
169	0x3eb65f55	0.35619608
170	0xbea1cb11	-0.3160024
171	0x3f021a49	0.5082136
172	0x3f1b5e1a	0.6069046
173	0xbd5c37eb	-0.053764265
174	0xbeecd556	-0.46256512
175	0x3e1b9023	0.15191703
176	0xbe86da23	-0.263383
177	0xbef27cc7	-0.47360823
178	0xbdd17d9f	-0.102290384
179	0xbd83c275	-0.06433574
180	0x3e2baf1c	0.16766018
181	0xbd987686	-0.074444816
182	0x3e29830f	0.16553901
183	0xbdb5bde7	-0.088741116
184	0xbf2909cf	-0.6603059
185	0x3d3398e2	0.043846972
186	0x3e95bc10	0.29245043
187	0x3f0aa7a6	0.5416206
188	0xbf04af63	-0.5183012
189	0xbe9fe0ef	-0.31226298
190	0xbea8fdb3	-0.33006057
191	0xbe466c2f	-0.19377206
192	0xbe8a90cd	-0.270636
193	0x3f1da1de	0.61575115
194	0xbeed20bc	-0.46314037
195	0xbf023415	-0.5086072
196	0xbc8c8dc5	-0.017157445
197	0x3e16eeaf	0.14739488
198	0x3f118af4	0.5685265
199	0x3dadd539	0.084879346
200	0x3f0a9427	0.5413231
201	0x3defe0a3	0.11712768
202	0xbf38b8d0	-0.72157
203	0x3dfce384	0.12348083
204	0x3d2223d3	0.039584946
205	0xbdb2c8ca	-0.08729704
206	0x3e1d807c	0.15381044
207	0xbeabdcdf	-0.3356695
208	0x3f10cdc8	0.56564
209	0xbece5f35	-0.40307012
210	0x3f1eccd9	0.6203132
211	0x3edb2de0	0.42808437
212	0x3ee26fd0	0.4422593
213	0xbe8bb085	-0.2728311
214	0xbf2fa637	-0.68613
215	0x3ed179da	0.40913278
216	0xbf027f6c	-0.5097568
217	0xbef77091	-0.4832807
218	0x3c71571e	0.014730243
219	0xbeedf505	-0.46475998
220	0x3e46f576	0.19429573
221	0x3f22ac0c	0.6354377
222	0xbdba0cdf	-0.09084486
223	0xbe8e1f54	-0.27758276
224	0xbea2c3d6	-0.31790036
225	0x3e2113ad	0.15730162
226	0x3e2ea28b	0.17054193
227	0x3eec954f	0.46207663
228	0xbf1dfdb4	-0.61715245
229	0x3e0d8a22	0.13822225
230	0xbec6960f	-0.3878636
231	0x3ea80dc0	0.3282299
232	0xbdf86002	-0.12127687
233	0x3f0fc9c6	0.56167257
234	0xbe0df9a2	-0.13864759
235	0xbf348119	-0.7050949
236	0x3c50afff	0.012737273
237	0x3f23f26a	0.6404177
238	0xbe947a6a	-0.28999645
239	0x3db5ec55	0.088829674
240	0xbe4a0d7d	-0.19731708
241	0xbe99ad36	-0.30014962
242	0x3eaf526d	0.34242573
243	0xbe7543c7	-0.23951636
244	0xbee10270	-0.43947172
245	0x3f257d7e	0.6464461
246	0xbf19f9e8	-0.6014695
247	0xbe22061a	-0.1582264
248	0x3f248c2c	0.64276385
249	0xbdf9272e	-0.12165676
250	0x3e59a996	0.21256098
251	0x3f044f86	0.51683843
252	0xbc2a55b1	-0.010396407
253	0xbe56bfa9	-0.2097155
254	0xbdfe2d0e	-0.12410937
255	0x3e397a1b	0.18112986

GNN3.bias f4 [2]
0	0xbef864f0	-0.4851451
1	0x3d5e7893	0.054314207
