trained_models/iS_GNN_Trained_ep100_bs64_lr5em04_z96_k3e+00_ramps_20.pth (torch, 309895 bytes, 6 tensors)

GNN1.Theta1 f4 [112, 96]
00000000: d1d9 fa3c c772 493d b0e1 6e3c 9086 da3d
00000010: 2b93 83bc 6fed 2a3d 73bb 28bd 8d04 823d
00000020: b196 7f3d 062e 8bbd 5b76 a43d c3e8 053d
00000030: ba48 b03d a190 e93c b196 aa3c ce4a bcba
00000040: df3e 933d 8475 f9bb d1f6 a3bc 7277 ff3c
00000050: 292a 2cbc fd48 1c3d dc8a afbc 3365 3d3d
00000060: 3d3c 40bd 122d 55bd 90ea 27bc c90c d6bc
00000070: a360 783b 6b35 b1bd ce00 873d 212d 08bd
00000080: 9d90 6b3d 6427 013c df93 27bd a9d0 863d
00000090: 81e1 123d b5e6 a43d d4c0 d53c dc3c d1bc
000000a0: 3d62 893c 50e2 4cbc 8a48 9f3c b2af 8a3d
000000b0: ba6b 463d 2df1 743b 1080 0c3d 64db 4a3d
000000c0: 8fd7 3f3d 1996 5fbd a5f6 90bd 197b 2dbd
000000d0: f84a 4fbd 072c 9c3d 3f51 073d f6d6 583d
000000e0: 26cd 473d 42de 3fbc c669 563d 25d5 41bd
000000f0: 5323 5b3b 2992 26bd 40d0 223d 4948 d9bc
00000100: 98ad ffbc f3f8 603b 1b3d 6d3d af76 02bd
00000110: fcd4 78bd 3725 26bd 2410 953d a073 b2bb
00000120: f572 ad3d 415c abbd 3cfb 84bd 7011 2cbd
00000130: 00b4 9cbd c650 1a3d 157a 0d3c bbf3 a33d
00000140: 1b0b 31bd 49cb 71bd 4187 eb3c 6581 98bb
00000150: 52df 5b3d 764f 1dbd 2cec 4a3d a37b 55bd
00000160: 8ed1 4ebd d185 123d 2ccf ad3c 363b 7d3b
00000170: 4578 7e3d c9aa a03d 8f1f 4fbd 7c4f 71bd
00000180: eb5b 3c3d 73d8 89bd 71b2 013b ac74 aabd
00000190: 9904 41bd 63bf 583d 14f2 3cbc 28e1 92bd
000001a0: 5220 9cbc 0c63 87bd c1c2 c2bd c420 38bd
000001b0: 0d95 9fbd d95d 56bd ed66 a43d ecc9 063d
000001c0: 85ec 053d 85c1 fcbd 007a 2fbd 187a e3bc
000001d0: 1e08 4e3d 1ff8 19bd 2351 01bd 32af b1bd
000001e0: fe1c f73c 526c 3fbd b6c4 273c 0508 fcbc
000001f0: fa7b 96bd 8d26 4dbd 9b26 4ebd dee3 f1bc
00000200: 8e65 913d 2121 fabc e148 963d e102 123d
00000210: cd86 83bd 1ad3 9f3d da26 22bc 1d80 0ebd
00000220: 8ea4 b7bd f361 b9bd 42ad 133c 507b 40bd
00000230: 8582 033d c6b4 05bd b962 623d 24ee 21bd
00000240: 26ae c3bc 26ac e63c 9aa4 a23d a43e 9f3d
00000250: 6c50 f03d 2511 b2bd 8a1d 053d 7d83 01bd
00000260: c554 383c a64d b2bd ddaa 923d fdec 5abd
00000270: f661 683d 0256 803d 6aa9 3d3d 3d86 42bd
00000280: 0b2e f13c b0f4 483d 9fcd 4bbc 8a58 92bd
00000290: 92fe 1d3d 5f51 2f3c 6a1d 81bd cc3c 563d
000002a0: 885a 3e3c 7552 71bd aa60 a8bc 9786 093d
000002b0: aa03 223d ae3d d6bc dd85 abbd 9b2c 17bd
000002c0: 31b1 8cbd abb6 173d 7bec 573d 33ea 87bd
000002d0: 34a4 e43c fc7f 213d 92f7 7c3c 1538 07bc
000002e0: 460b 5d3d f02c 743d c35d 143d 81ae 6c3c
000002f0: 072a b8bc 9ce1 bf3c fc5c 883a 8132 2bbd
00000300: 4f3c 943c ee63 753d ef7d da3c be6d baba
00000310: 9f83 a83c a434 0b3d 3372 7e3c 6060 ed3c
00000320: 1f76 d2bd 61d1 1cbd f0ba 9f3d 9748 3f3d
00000330: e394 bb3b fdf1 56bd 7a2c 94bd 10ef 9dbd
00000340: f1ca 93bc 5995 bcba 3ef5 ac3d 0097 633d
00000350: b005 77bd 9df9 c9bb 2a90 96bc be4f 8b3d
00000360: 8a77 1b3d 363f 2cbd 4e90 683d b0c6 363b
00000370: 70d7 88bd 2985 9d3d f485 2abd efa4 c73c
00000380: 4cb2 d7bd 99bb 643d 086b 553d b35e 2d3d
00000390: 3670 33bd 04fe a2bd 06f5 7cbd cfe4 9f3d
000003a0: a555 643d 8075 b73d 1b42 233d 92e5 dfb9
000003b0: 3816 3abb e9bc c1bc 3be8 cbbd 052b 5bbd
000003c0: e9b1 073d 9774 3fbd ad3b a6b9 ac0d 86bd
000003d0: d403 163b 7d68 9bbd 7c9c 54bd ae14 473d
000003e0: 8e37 13ba 9fa7 513d 1d88 31bd b7c7 6cbd
000003f0: a2a1 8fbb b382 dabc 6fce 34bc 9255 bbbd
0.030621441 0.049181726 0.014580175 0.10670197 -0.016061386 0.04173034 -0.04119439 0.06348524
0.06239957 -0.06795888 0.08030387 0.032692682 0.086076215 0.028511347 0.020823808 -0.0014365555
0.07189726 -0.007612886 -0.020015152 0.031184886 -0.010508099 0.038155545 -0.021428518 0.04623909
-0.046932448 -0.052044936 -0.010248795 -0.026129143 0.0037899397 -0.08652767 0.0659195 -0.033246163
0.05751096 0.007882927 -0.040912505 0.065827675 0.03585959 0.080518164 0.026092924 -0.025541715
0.016770476 -0.012505129 0.019443769 0.067717925 0.04844258 0.0037375197 0.034301817 0.049525633
0.046836432 -0.054586504 -0.07078294 -0.042353723 -0.050608605 0.07625585 0.033036467 0.052939378
0.04877963 -0.011710705 0.052346967 -0.04732241 0.0033437803 -0.040666733 0.039749384 -0.026523726
-0.031210706 0.0034328073 0.057919603 -0.031851467 -0.060749993 -0.040562835 0.07278469 -0.0054459125
0.08469192 -0.083672054 -0.06493232 -0.042008817 -0.0765152 0.037674688 0.008635064 0.08005472
-0.04322348 -0.05903176 0.028751018 -0.004654097 0.05367977 -0.038405858 0.049541637 -0.052119862
-0.050492816 0.03577215 0.021216951 0.0038640029 0.062126417 0.07845075 -0.050567206 -0.058913693
0.045986097 -0.067307375 0.0019790197 -0.08323035 -0.047123525 0.052916896 -0.011532325 -0.071718514
-0.01905838 -0.066106886 -0.095098026 -0.044953123 -0.07792101 -0.052335594 0.08027444 0.03290741
0.032696266 -0.123415984 -0.042840958 -0.02776818 0.05030071 -0.037590142 -0.03157152 -0.08675994
0.030165192 -0.04673416 0.010239771 -0.030765543 -0.073478654 -0.050085593 -0.050329786 -0.0295276
0.07099448 -0.030533375 0.07338119 0.035647277 -0.064221956 0.07803936 -0.009896958 -0.034790147
-0.08966933 -0.090518855 0.009013476 -0.0469926 0.032106895 -0.032643102 0.05526993 -0.03953375
-0.023886751 0.028158259 0.079415515 0.077756196 0.11734089 -0.08694676 0.032498874 -0.031619538
0.011250679 -0.087062165 0.07161496 -0.053448666 0.056734048 0.06266405 0.046304144 -0.0474913
0.0294409 0.049061477 -0.012439161 -0.07145794 0.038572855 0.010700553 -0.063044384 0.052304074
0.011618264 -0.058916528 -0.020553906 0.03357562 0.039554276 -0.026152458 -0.08375142 -0.036907773
-0.06869734 0.03703944 0.05271576 -0.06636467 0.02791033 0.039428696 0.015439885 -0.008253117
0.05396583 0.05961317 0.03622223 0.014445902 -0.022480978 0.023423009 0.0010403688 -0.04179621
0.018095164 0.059909754 0.026671378 -0.001422338 0.020570574 0.03398575 0.015530157 0.02897662
-0.10276436 -0.038285617 0.077993274 0.046700086 0.005724536 -0.05247687 -0.07235046 -0.07711613
-0.018041106 -0.0014387771 0.08445214 0.055563927 -0.06030816 -0.0061637894 -0.01837929 0.06802319
0.0379558 -0.04205247 0.056778245 0.0027889423 -0.066817164 0.07691414 -0.041631654 0.024370639
-0.10532054 0.05584297 0.052104026 0.04232664 -0.043808185 -0.07958606 -0.06175711 0.07807314
0.05574574 0.08957958 0.039857965 -0.00042704918 -0.002839459 -0.02364965 -0.09956404 -0.053507823
0.033128653 -0.046742048 -0.0003170645 -0.065455765 0.0022890465 -0.07588289 -0.051907048 0.048603706
-0.0005615883 0.051185247 -0.0433427 -0.05780765 -0.004383282 -0.02667365 -0.011035546 -0.091471806

GNN1.bias f4 [96]
00000000: b5a7 2a3c e8d5 ad3d b1a5 a23c 5573 c0bb
00000010: 9b59 e0bc 799c d13b 40e0 bbbd b97c c7bd
00000020: f7a2 b0bb 4e24 6dbd 6c24 afbd bf85 05bc
00000030: 8263 3e3d 206d 583d f554 f4bc 8ee0 07bd
00000040: 1331 a83d f9db e23c 7717 7c3d ed4b e9bc
00000050: 77ef 8ebd 584d dcbc 2977 1f3b 7e7d c4bc
00000060: 17db 8cbd 55d3 ce3d a622 aabd c7cf 8ab9
00000070: fa35 253d 2f53 8cbc 4307 c63c 8637 6ebb
00000080: 90b3 90bd 23bf 91bd 1f49 01bd 9252 91bd
00000090: 6295 2c3d 644a de3d c0b8 85bd e2d4 a53c
000000a0: b213 2b3d d6a4 0a3d f4c8 2abd 15e5 6ebd
000000b0: 45b5 c63d 211d 983d b06a b03d f816 8a3d
000000c0: 8c21 54bc 7820 6b3d 47cc 57bb f0fc 613c
000000d0: 7151 57bd 1dec 9e3d daad 0dbd 76eb f33c
000000e0: 5e37 c3bd a4d3 253d 4d55 86bd d80e 09ba
000000f0: c8e1 0ebc 03ea 303d 5d0a 0c3c 5bf2 693c
00000100: 5e71 4ebd c1bb b0bd a996 2e3d 7fc2 24bd
00000110: 99b4 89bd 0b31 25bd ce75 abbd e496 cb3c
00000120: a415 9a3c 24e6 c73d 0739 ccbc 7056 81bd
00000130: 7380 d1bb d37a 4fbc d63c b63d edfc 1e3c
00000140: 027c 06bb cac4 08bd 1196 4a3d ccab 2abd
00000150: 3ac5 163d da49 a83d 56a8 8ebd 604e bebd
00000160: 0820 71bd 0f51 573d 1253 04bd 9f3f a13c
00000170: 97dd ca3c f6b3 453c 6732 26bd 1b3c 8a3c
0.010415961 0.08488065 0.019854398 -0.0058731236 -0.027386477 0.006396827 -0.09173632 -0.09740586
-0.0053905207 -0.05789595 -0.08551869 -0.008149563 0.046481617 0.052838445 -0.029825667 -0.033173136
0.08212485 0.027692782 0.061545815 -0.028478587 -0.06979268 -0.02689235 0.00243325 -0.02398562
-0.068777256 0.10098902 -0.0830739 -0.00026476217 0.04033468 -0.017129509 0.024173385 -0.0036349013
-0.07065499 -0.071165346 -0.031563874 -0.07095827 0.04213465 0.10854033 -0.06529379 0.020243112
0.04176683 0.033848606 -0.04169555 -0.05832394 0.09702543 0.07427431 0.08614099 0.06742662
-0.012947451 0.05740401 -0.0032928155 0.013793215 -0.052567903 0.07759879 -0.034589626 0.029775362
-0.09532045 0.04048504 -0.065592386 -0.0005228347 -0.008720823 0.04319192 0.008547393 0.014278973
-0.050401084 -0.08629561 0.04262415 -0.04022455 -0.067238994 -0.040329974 -0.08372079 0.024852224
0.018809147 0.09760693 -0.024929537 -0.06315315 -0.006393486 -0.012663561 0.08898322 0.009703857
-0.0020520692 -0.033390798 0.04945952 -0.041667745 0.036809184 0.08217211 -0.06965701 -0.092922926
-0.058868438 0.052567538 -0.032305785 0.019683657 0.024763865 0.012066832 -0.04057541 0.016874364

GNN2.Theta1 f4 [672, 96]
00000000: 3cd7 673d dbe5 463d 9c49 163d 86ce 93bd
00000010: 7855 3f3d e8d3 3fbd 9157 7d3d a41f 513d
00000020: a832 61bc bf8c 783d c374 3ebd 7321 5e3c
00000030: b1fa 60bc d9ba 523a 2630 3c3d 58f7 b93d
00000040: 109f 34bd ace4 c63d 6958 dabc 8eb1 c93d
00000050: e35d e23c bd81 283a 42b2 24bd 1101 63bd
00000060: 3636 bbbd aa8e 59bd b55e 71bc a6dc b03d
00000070: 372d 603d 3128 bc3c ec46 b7bd 82d0 943d
00000080: 593b 933d 9a19 2cbd 3355 473d 5591 9bbd
00000090: 9b6a 37bd 1066 efbc 4e10 afbd c9e8 22bc
000000a0: 6a1e 343c a121 9c3c f67a cf3d 3efe 303d
000000b0: 8f20 a7bd 6faa 0fbd bedb 673d b841 c0bd
000000c0: c7c4 41bc f3fc be3c 6daf 80bd 2a02 9e3d
000000d0: 7044 8cbd fe73 6bbd b541 9fbd 303c 83bc
000000e0: 75f2 cc3c 9f8e cf3c 0062 67bd 1c58 be3d
000000f0: 1565 4abd 6b49 a33d c197 ce3c 2292 01bd
00000100: 4b4f 903d 4170 e13c deca b2bd 6537 353d
00000110: ebc9 c33d 37fa 94bd 2aeb d5bc e98f a3bd
00000120: 326a 9f3d fcba 283d 04cb 9d3d 64a9 e13c
00000130: a874 29bc 0841 15bc 03be 7fbd ddc3 8f3d
00000140: f6b3 29bd 7641 9a39 c9a6 1b3a 2667 073d
00000150: ce35 82bd be59 edbb d76e 273d d440 7fbd
00000160: 2605 30bd d820 3cbd a6dd 99bd 0a3a d43d
00000170: 09df c53d 840a 7f3d 0642 9cbd 5456 3abb
00000180: 6008 c83b eb55 293d 398c 153d 90e3 56bd
00000190: a005 933b 1eb2 b3bd 2933 253d 337a 973d
000001a0: 4722 f2bc 9bb8 88bd 702d 8fbb f333 423d
000001b0: 1a15 a5bd 0fcd 293d 4081 a43d f23b b6bd
000001c0: 1035 6b3d 0a22 2e3d 1650 7cbd a812 b03d
000001d0: 7493 3cbd 5f29 8d3d df43 afbd 9a9d a53d
000001e0: d394 39bc b39a b6bd 7f38 3b3d e7f1 d3bb
000001f0: b643 f23c 79fc 563d 2096 a53c 0ce7 053d
00000200: da52 abbd 4447 aebd c6fc 28bd 0b27 2ebd
00000210: 8ad9 b3bd 29bd 913c 8bb9 7cba 9046 a5bc
00000220: 5855 86bc 1e5c 1d3d 7bfd e2bc d925 0ebc
00000230: 19dc 1b3b 985d 443d fe16 4bbc 5069 313d
00000240: 1a23 3cbd 592f 853d 5ba7 b03c 04d8 163c
00000250: 9802 383d 12e3 a4bd 55e9 393d fae1 a83d
00000260: 9c2a 503d 500d 763d 9e1e b6bd d19c bb3d
00000270: 4091 e93c feeb c9bd c408 ac3d f0a5 a63d
00000280: f6d7 b2bc ee85 c03d 8a4e a23b 4b00 a03d
00000290: b1d0 babd a809 b3bd e1b4 ce3c 753e 523b
000002a0: 2e09 9abd 84d3 8ebd f15e 783d 3de2 683d
000002b0: b259 92bd e0a6 32bd 37ae 783c 3c57 b43b
000002c0: b2a1 98bd bca5 883d 1682 97bd aedc 973d
000002d0: d838 35bd 8a62 b9bd ed60 b53c cab8 12bd
000002e0: 22fe 8d3d 3b12 f3bc 621c 9e3c 9a23 a73d
000002f0: 5166 69bd 3669 29bd b70c 933d be30 ad3d
00000300: d974 3d3c a386 983d f9cb 993d 2136 8e3d
00000310: 9070 ebba 1069 bf3d d1c7 35bd 971c 8f3c
00000320: 8fde b8bc 6b55 863c 119e 603d 64fb 923d
00000330: 5c00 193a 286f 863d 5c1f 9c3d 7164 523d
00000340: 824d e7bc 264a 5f3d 89e2 993d 00cf aa3d
00000350: 6d9d d93c 0415 873d 5915 a2bd bb8e a83c
00000360: c5c7 99bd 15e9 503d 6309 ecbb bdbe a1bc
00000370: 6760 8a3d 6ccf 19bc 5ee9 533d 4fce 5b3d
00000380: d135 43bd 01b5 a8bd 2944 743c 6b51 4dbd
00000390: 9a07 4dbd a2bd 493d fb61 f53c 4028 8fbc
000003a0: 6820 50bd 1584 aebd b862 e5bc e754 e9bb
000003b0: d597 44bd 2019 bdbd 215b cdbd d546 b2bd
000003c0: ab36 5cbd 6aad 843c b1bc 32bd bebd 7f3d
000003d0: 679c 483d a6e6 5bbd 4296 d93c b7df 37bd
000003e0: efda 953d 150f 933d 3e22 1c3d 9eb3 47bd
000003f0: f35c ae3c cdc6 79bd 3e92 173c 5e0a d23d
0.056601748 0.04855905 0.036691293 -0.072171256 0.04671237 -0.04683295 0.061851088 0.051055565
-0.013744988 0.0606811 -0.04649807 0.01355778 -0.0137316445 0.0008038707 0.045944355 0.0908038
-0.044097006 0.097115844 -0.026653485 0.09848319 0.02763266 0.0006428024 -0.040209062 -0.05542094
-0.09141199 -0.05311457 -0.014732053 0.08635835 0.05473062 0.022968384 -0.08949074 0.07266332
0.07189054 -0.042016603 0.048665237 -0.07596079 -0.0447794 -0.029223472 -0.08548032 -0.009943196
0.010993579 0.019059004 0.10130875 0.043211214 -0.08160507 -0.035074648 0.056606047 -0.09387535
-0.0118267005 0.023313975 -0.0628346 0.077152565 -0.06848991 -0.057483666 -0.077762045 -0.01601991
0.025017956 0.025336562 -0.056489944 0.09294149 -0.049412806 0.07972988 0.025218846 -0.031633504
0.07046374 0.027519347 -0.087301 0.04424228 0.09559997 -0.07274287 -0.026113112 -0.07986433
0.07783927 0.041193947 0.07704738 0.027546592 -0.010342754 -0.009109743 -0.06243707 0.0701978
-0.04143139 0.0002942194 0.00059376337 0.033057354 -0.06357919 -0.007243364 0.04087719 -0.062317684
-0.04297366 -0.04592976 -0.07512979 0.103626326 0.09661681 0.062265888 -0.076297805 -0.0028432803
0.006104514 0.041341703 0.03651068 -0.052463114 0.0044867545 -0.087742075 0.040331993 0.073963545
-0.02955736 -0.06675836 -0.0043694302 0.047412824 -0.080606654 0.041455325 0.08032465 -0.088981524
0.05742365 0.04251293 -0.061599813 0.085973084 -0.04603906 0.068926565 -0.08557867 0.08086701
-0.011326986 -0.08916225 0.045708176 -0.006468046 0.029573303 0.05248687 0.020213187 0.032691047
-0.08365412 -0.085096866 -0.04125669 -0.042517703 -0.08781727 0.017790394 -0.0009640685 -0.020175248
-0.016398117 0.038417928 -0.02770876 -0.008676016 0.0023782311 0.04794082 -0.0123956185 0.043313324
-0.045931913 0.065031715 0.021564176 0.009206776 0.04492435 -0.08051123 0.04538854 0.082462266
0.050821885 0.06007129 -0.088925585 0.0916077 0.028511643 -0.09859465 0.084001094 0.08137119
-0.021831494 0.09400545 0.0049532102 0.07812556 -0.09121836 -0.08742076 0.025232734 0.0032080684
-0.07521282 -0.06973937 0.06063742 0.056856383 -0.07146014 -0.043616176 0.015178255 0.005503563
-0.07452716 0.06672236 -0.07397859 0.07415138 -0.044243664 -0.09051998 0.022140944 -0.03582076
0.069332376 -0.029671779 0.019300643 0.08161087 -0.056982342 -0.041360103 0.071801595 0.084565625
0.011563503 0.07447555 0.07509608 0.06943918 -0.0017962623 0.09346211 -0.044380013 0.017469687
-0.022567062 0.016398152 0.054838244 0.07176855 0.00058365404 0.0656417 0.07623169 0.05136532
-0.0282352 0.054514073 0.07513911 0.08340263 0.026564324 0.06595805 -0.07914228 0.020575872
-0.07508806 0.051003534 -0.0072032674 -0.019744271 0.067566685 -0.009387832 0.05173623 0.053663548
-0.047658745 -0.08237649 0.014908829 -0.050126474 -0.050056078 0.049253114 0.029953947 -0.017475247
-0.050812155 -0.085212864 -0.028001174 -0.007120717 -0.04799636 -0.09233308 -0.10027147 -0.087049164
-0.053763073 0.016195972 -0.04363698 0.06243681 0.048977282 -0.05368676 0.026560906 -0.044891085
0.07317149 0.07180611 0.038118593 -0.04875528 0.021284556 -0.060980607 0.009251175 0.10255884

GNN2.bias f4 [96]
00000000: 8a6e 993d 9e00 1d3d c3b4 01bc 7aa9 253d
00000010: 9cd2 83bc 2e81 efbb c087 c33c 790d 11bc
00000020: 7c9b 713d a98e 69bd 1e6b 07bc 080d 80bd
00000030: 9f0f 263d 4d94 153c 0bd1 37bd 6c9d 6cbd
00000040: 184f 1ebc be42 12bd 2d61 5c3d 876f 743c
00000050: 71e3 03bd 8843 823d 3eab 483c fc5d b43c
00000060: ea30 343c 6581 623d c067 723d d4ac 423d
00000070: 878a 37bd 9a5b ac3d c8b5 263d 4c10 2c3c
00000080: f4a2 82bb ae64 c13d 868c 99bd 64e3 3f3d
00000090: 98ce 2dbd b408 cdbc 68a2 6d3c e730 5b3d
000000a0: 5251 5ebc 95c4 4abd 9913 163d 0359 5f3d
000000b0: a37b 81bd 18d1 64bd a767 b6bb 9409 813c
000000c0: 3763 72bd fa0e a9bd 42bb 713a f32b ac3c
000000d0: 2ee8 043d cb2a 21bd 2cf4 4fbd 086f 60bc
000000e0: f5b4 6d3c 2fff ae3c cd29 073b 2949 f4bb
000000f0: afbd cc3c 9527 833d 6fc1 62bd 1072 35bc
00000100: 21d3 803d 37c7 54bd 979a 37bd e111 663d
00000110: 9584 a63d 4979 983d 2bfb a7bd 5772 8fbd
00000120: 7598 89bd ec69 eebc f80e 803d d716 b73d
00000130: dae6 afbd 66c6 433d b4ce 283d 159d dc3a
00000140: a3c2 2d3d 127a 7cbd eba0 4b3d f5e4 a73d
00000150: 677f 27bc a8be 0d3d ba4d c5bb ad48 143d
00000160: d2fd 983d 77df 1c3d 2df2 4ebd 3095 85bd
00000170: 831e 463d b79f 8a3d c219 83bd 384a ab3c
0.07491787 0.038330667 -0.007916632 0.04044483 -0.016091637 -0.0073091006 0.023868442 -0.00885331
0.058986172 -0.057020817 -0.008265285 -0.062524855 0.04054224 0.009129596 -0.044877093 -0.057767317
-0.009662412 -0.03570818 0.05380361 0.014919168 -0.032199327 0.06360537 0.012247859 0.022017471
0.01099799 0.05529918 0.059180975 0.047528103 -0.044809844 0.08415909 0.040700704 0.010501932
-0.0039867107 0.09443031 -0.07497506 0.046847716 -0.04243335 -0.025028564 0.014504053 0.053513434
-0.013569193 -0.04950388 0.036639784 0.054528248 -0.0632241 -0.05586347 -0.0055665555 0.015751638
-0.05917665 -0.0825481 0.0009221324 0.02101705 0.032447986 -0.03934745 -0.05076997 -0.013698347
0.014508476 0.021361915 0.002062428 -0.0074550104 0.024992792 0.06404034 -0.055360254 -0.011074558
0.0629027 -0.0519478 -0.044825163 0.056169394 0.08130757 0.07445008 -0.08202203 -0.070042305
-0.06718532 -0.029103242 0.06252855 0.08939903 -0.08588953 0.04779663 0.041212752 0.0016831482
0.04242195 -0.061639853 0.04971401 0.08197967 -0.010223246 0.034605652 -0.0060212286 0.03620212
0.074702874 0.03829905 -0.050523926 -0.06522596 0.048368942 0.067687444 -0.06401397 0.020909414

GNN3.Theta1 f4 [672, 2]
00000000: 5611 053f d088 f73e 7cfb 04bf 5ce6 d03e
00000010: 4924 c73e 642f 9d3e 3e0b 0b3e d1f0 e03d
00000020: 2e13 01bf c523 bbbe 4a2d fc3e a162 80be
00000030: a3a0 40be 0557 11bf 42b5 a63d e0fa 3bbe
00000040: 3811 18bf abc2 2ebe a666 d2bd 692a ccbc
00000050: 704f c5bd d710 d33e 8840 3a3f d3c1 fbbe
00000060: 7a27 dcbe fee3 d43e 8c91 a7be 32b3 043e
00000070: d705 11bf ad09 11bf 63b1 23bf 941f 813d
00000080: 45cc 21be 38ea f53d 276a b2bd 1f3b 803e
00000090: 6a83 8b3d c395 1dbd 84e6 c73e 25e4 63bd
000000a0: 529e 6e3c 161a b93e b771 833d a796 84be
000000b0: ad85 943e 3466 b53e 1d8d 27bf f549 e13e
000000c0: 025c 9f3e 90ec 223f 850f d23e e8f0 debd
000000d0: ecf4 f53e c09c 7abe d90c 1bbf b10c ee3e
000000e0: 946c 38bf d2ce 08be f326 9f3e b7ab fdbe
000000f0: a087 dc3e 0fe8 243f f976 223f a9ed 28bf
00000100: 1685 f63e 23a2 b5be f094 49be 534f 2a3f
00000110: a924 0ebf 87d7 ac3e 923a 373e 2a95 94be
00000120: ab5d 9fbd 25e5 6d3e d190 0bbf 5b04 193e
00000130: 88f4 f53e e05a d1be f581 0e3f de6a 58bd
00000140: 4b55 933d 9982 843c 7e41 cc3e bbe8 f23e
00000150: bb38 3fbe c7a7 ca3d ce98 eabb e855 f93e
00000160: 0eb0 3cbe f611 16bf 63e5 bbbd 5933 03bf
00000170: d659 ce3e 4c4e edbe c54d 723e a256 9cbe
00000180: e143 10be 7da6 01bf b49e b8be cef4 06bf
00000190: b919 073f ba88 fe3d 2451 babe 8054 023f
000001a0: 894c 8e3d eacb 003f 0cdb a9be c598 a7bc
000001b0: c4f0 ac3d b9ce 18bf 4df1 98be 9679 debe
000001c0: 4e6c b13e 0229 b1bd b6bd 8d3c c193 913e
000001d0: 773f d1be 1e31 2b3f 2226 35be bcd2 51be
000001e0: 8a64 da3e 857f 01bd 3c75 a63d 2b1c 1cbd
000001f0: 4903 2fbd 67a2 2fbc 0bd6 223f fd9b 923e
00000200: 2fef 563e 2ad7 03be 4fd1 0a3e 7b93 493d
00000210: d3f8 8b3e d173 053f 5f1b 79be 15de 033f
00000220: 36b3 d6be f479 243f 7505 a8be 1e84 163d
00000230: b82d b73d bc36 163f 73ec db3e 3a80 8d3e
00000240: 9bb1 7a3e e041 a0be b972 3f3e e778 2fbe
00000250: a636 7f3e 569d b5bd 3f18 ca3e 107c 9b3e
00000260: fce0 d1be 8111 81be b90c 273e 54f2 cbbe
00000270: fabb ffbe 0de4 633e 4536 fa3e 81d3 c3be
00000280: abc7 2fbe 2a9f 50be 04a3 1a3f bcf1 a73e
00000290: 0c26 35bf e821 27bf 01a9 053f 0b17 ed3e
000002a0: 23e8 cabe 2d8a 02bf 34da 86be eb67 cebe
000002b0: 1b50 1d3f b285 0abf bbb9 c83e b55a 253e
000002c0: 46bf 5dbd 8c8c 98bd 6a63 083e 4cea 1ebf
000002d0: edc2 80be ee95 9fbd b46a 083f 9eb1 e93e
000002e0: 949a 0ebf 9d5b 7a3e 3dd2 a5be 4107 d4be
000002f0: 8479 f63e 4719 db3e efba 01bf 76e4 0c3f
00000300: 40ae 953e 615e 0bbf 32cf 60be ce11 003d
00000310: 6527 39bf e4dd 96be d733 f1bc 6f1a bcbe
00000320: 7fa0 1c3e 43a9 233f d68b 86be 26b0 003f
00000330: 26bc 1e3f 0ea1 05bf bc98 723e b3e0 823e
00000340: 68c0 b63e dd42 163e 3aae 073e 0ead eb3c
00000350: e1a1 123f 0652 1d3f c272 d13d 6f24 a53e
00000360: dc09 533c 23c9 2cbe a5f3 31bf c379 31bf
00000370: 963b 5f3e 3c6e ae3e 83c9 28bf 6533 28bf
00000380: ed59 a4bc f047 06bf 7ae7 f2be 875f 233f
00000390: f5c2 cdbe 0427 273f 6a1d bcbd 2d32 083f
000003a0: 83fb ef3d e134 e73e 72fc dbbe 7df4 50be
000003b0: 154d 713d 7c55 17be d3cf 2e3f bf80 1d3f
000003c0: 6c01 a2bd fedd 083d 7709 fcbe 6ec6 253f
000003d0: e43b 973e d372 d83e 6ea2 25bf 79f9 dd3e
000003e0: 3c16 223f 7547 0b3f 4e19 2ebf a690 00bf
000003f0: 3d9a 1b3e 4798 ffbe 9caa 203e 57fe 3cbe
0.5197958 0.48346567 -0.51946235 0.4080075 0.3889487 0.3070022 0.13578507 0.10983432
-0.5041989 -0.36550727 0.49253303 -0.25075248 -0.18811278 -0.56773406 0.08140041 -0.1835742
-0.59401274 -0.17066447 -0.10273485 -0.024922566 -0.09634292 0.41223785 0.72754717 -0.49171314
-0.42998868 0.41580194 -0.3272823 0.12958983 -0.56649536 -0.5665539 -0.63942546 0.06304851
-0.15800579 0.12007564 -0.08711653 0.25045106 0.068121746 -0.038472902 0.39043057 -0.055637497
0.014564114 0.36152714 0.06418174 -0.2589619 0.29008237 0.35429537 -0.65449697 0.44001737
0.31124884 0.63642216 0.41027465 -0.10885793 0.48038423 -0.24473858 -0.6056648 0.46494058
-0.7204068 -0.13360146 0.31084403 -0.4954507 0.43072224 0.64416593 0.6346279 -0.6598764
0.48148412 -0.35475263 -0.19685721 0.6652729 -0.5552469 0.33758184 0.17893437 -0.29020053
-0.077815376 0.23231943 -0.5451785 0.14943068 0.48038125 -0.40889645 0.5566705 -0.05283629
0.07194003 0.016175555 0.39893717 0.47443184 -0.18673985 0.09895282 -0.007159329 0.48698354
-0.18426535 -0.58621156 -0.091746114 -0.51250225 0.40302914 -0.46348798 0.23662479 -0.30534846
-0.14088394 -0.50644666 -0.3605858 -0.5271729 0.52773625 0.12428422 -0.3639003 0.50910187
0.06948192 0.5031115 -0.33174932 -0.020458588 0.0844436 -0.59690434 -0.29871598 -0.43452138
0.34652942 -0.086504 0.017302375 0.2843304 -0.40868732 0.6687182 -0.17690328 -0.20490545
0.4265483 -0.031615753 0.081278294 -0.0381128 -0.042727742 -0.010719872 0.63607854 0.28634635
0.20989679 -0.12875047 0.13556407 0.049212914 0.27338275 0.52129847 -0.24326847 0.51510745
-0.41933602 0.64248586 -0.32816663 0.03674709 0.08944267 0.5867727 0.42953834 0.27636892
0.24481814 -0.3130026 0.18696107 -0.17135964 0.2492319 -0.088679 0.39471623 0.3036809
-0.40991962 -0.25208667 0.16313447 -0.3983332 -0.49948102 0.22254963 0.4886953 -0.38247302
-0.17166011 -0.20373216 0.6040499 0.32801616 -0.7076118 -0.6528611 0.52211004 0.46306643
-0.3963023 -0.5099209 -0.2633835 -0.40313658 0.61450356 -0.5411025 0.392042 0.16147883
-0.05413749 -0.07448682 0.13319173 -0.6207626 -0.25148717 -0.07792269 0.53287816 0.45643324
-0.5570462 0.2444901 -0.32386962 -0.41411784 0.48139584 0.42792723 -0.50675863 0.55036104
0.29234505 -0.54440886 -0.21954039 0.03126698 -0.72325736 -0.29466164 -0.029443664 -0.36738917
0.152956 0.6393015 -0.2627856 0.5026878 0.6200584 -0.52198875 0.23691076 0.25562057
0.3569367 0.14673944 0.13250056 0.028769042 0.5727826 0.6145328 0.102269664 0.3225436
0.012880769 -0.16873603 -0.695124 -0.6932642 0.21800074 0.34068477 -0.6593248 -0.6570342
-0.020062411 -0.5245352 -0.47442228 0.6381764 -0.40187803 0.6529391 -0.09185298 0.5320156
0.11717894 0.4515753 -0.42966038 -0.20405765 0.0589114 -0.14778703 0.68285865 0.61524576
-0.079104275 0.033414833 -0.4922597 0.64755905 0.2953788 0.42275104 -0.64700973 0.43354395
0.63315177 0.5440591 -0.6800736 -0.50220716 0.15195556 -0.49920866 0.15690082 -0.18456398

GNN3.bias f4 [2]
00000000: 91af 01bc bfdf f03e
-0.007915393 0.47045705
