trained_models/iS_GNN_Trained_ep_150_bs64_lr5em04_z96_k_diff_1_kNN_12_ramps_30_b_cap_90.pth (torch, 137631 bytes, 6 tensors)

GNN1.Theta1 f4 [54, 96]
0.069450594 0.07351329 -0.018245053 0.09962424 -0.024621164 0.009656046 -0.031530418 0.060411587
0.09205718 -0.05908645 0.09995456 0.014001523 0.071725614 0.027226726 0.032846488 -0.011747203
0.08040698 0.022252904 -0.050629135 0.024664434 -0.041363325 -0.0018518871 -0.047306206 0.058721133
-0.07528049 -0.048463076 -0.030470408 -0.049091857 0.007307012 -0.09048604 0.0803859 -0.07796898
0.08973848 0.014361426 -0.029149644 0.052456085 0.0019369902 0.067250915 0.008345527 -0.043665543
0.016512606 -0.011643858 0.04399455 0.07277845 0.046380047 -0.038555708 0.05353249 0.02853748
0.05101294 -0.054391973 -0.08839816 -0.024329474 -0.08898779 0.0857069 0.025059665 0.030655788
0.026254592 0.00063605065 0.06945387 -0.08290197 0.01255057 -0.062787876 0.034561995 -0.04452999
0.017336788 -0.0168448 0.05588489 -0.06215048 -0.062522136 -0.050775133 0.08091176 0.015363658
0.073013656 -0.07643628 -0.09303154 -0.07299903 -0.07165666 0.038539015 0.022537062 0.088937484
-0.048489906 -0.07108428 0.053758446 -0.031630725 0.05236641 -0.012543914 0.047906455 -0.07992504
-0.0610655 0.02613787 0.025433566 -0.007496137 0.054946642 0.08117711 -0.059859876 -0.054039218
0.07428925 -0.0505603 -0.03358192 -0.09884321 -0.05593227 0.010068604 0.00023135926 -0.07488152
0.008094347 -0.05691984 -0.07482911 -0.059143085 -0.08152666 -0.06131363 0.091359 0.024785256
0.024756173 -0.09308958 -0.07746438 -0.03698461 0.013412208 -0.09334277 -0.05341062 -0.06147499
0.008948466 -0.04214566 -0.010814984 -0.04978537 -0.07419408 -0.05535414 -0.044415824 -0.07209527
0.08643482 -0.02091223 0.0793663 0.037822247 -0.09362047 0.060395114 -0.020509504 -0.045899175
-0.09505341 -0.08774231 0.036248304 -0.042133756 0.031740196 -0.07255236 0.08051597 -0.06618855
-0.01167977 0.029586365 0.06030247 0.09168467 0.08291704 -0.07476432 0.012984793 -0.055203438
-0.012047965 -0.06844806 0.0714711 -0.08041556 0.057057187 0.050645698 0.04541714 -0.061407927
0.07921806 0.0144456085 -0.0029472979 -0.083206154 0.03986906 0.0056846007 -0.046253115 0.07119454
-0.0011368514 -0.051557187 -0.03548604 0.010899625 0.052279714 -0.019410172 -0.06210154 -0.012463901
-0.073728345 0.031767424 0.08321708 -0.091761075 0.0078925565 0.05819791 -0.0019295595 -0.030440025
0.051203337 0.04941042 0.04283123 -0.00014536313 -0.022743803 0.023319537 -0.014158928 -0.03692078
0.046073645 0.07159082 -0.0075031384 -0.02293994 0.004004965 -0.02152083 0.038239717 0.027805107
-0.08699829 -0.024867909 0.0977095 0.03681751 0.0027230307 -0.05786063 -0.07310527 -0.08591555
-0.03996362 0.036568876 0.054644316 0.044109143 -0.09276456 -0.064912476 -0.025541943 0.09835609
0.023429671 -0.030599123 0.038482103 -0.01949863 -0.07019942 0.078682825 -0.05588804 -0.011999631
-0.100672945 0.06765059 0.068878174 0.043217875 -0.07835988 -0.11096455 -0.07532028 0.06933157
0.038665846 0.09960947 0.060514532 0.005992166 -0.008994362 -0.06641257 -0.08270183 -0.08673313
0.04772396 -0.041840505 -0.01292753 -0.049448337 -0.028655512 -0.06567188 -0.07938984 0.022551237
-0.031195996 0.07095169 -0.05423546 -0.080376446 -0.015497777 -0.034697287 -0.01897359 -0.103391156
00000000: 1d3c 8e3d 238e 963d a676 95bc cb07 cc3d
00000010: 53b2 c9bc 6434 1e3c 0a26 01bd 2472 773d
00000020: 7a88 bc3d a204 72bd fab4 cc3d a566 653c
00000030: e1e4 923d 950a df3c 0a8a 063d 5777 40bc
00000040: 6aac a43d b94b b63c 7f60 4fbd 110d ca3c
00000050: 976c 29bd 05bb f2ba 27c4 41bd 9285 703d
00000060: a82c 9abd 3881 46bd 149d f9bc 8b14 49bd
00000070: a96f ef3b bf50 b9bd 5da1 a43d 33ae 9fbd
00000080: cfc8 b73d 304c 6b3c 3ccb eebc 31dc 563d
00000090: 9be2 fd3a d9ba 893d adbb 083c a4da 32bd
000000a0: 7245 873c e1c5 3ebc a133 343d de0c 953d
000000b0: 01f9 3d3d 97ec 1dbd e244 5b3d 6fc7 e93c
000000c0: f2f2 503d 1eca 5ebd 180a b5bd 9b4e c7bc
000000d0: 3b3f b6bd 1987 af3d ed49 cd3c d921 fb3c
000000e0: df13 d73c a3bc 263a d53d 8e3d 82c8 a9bd
000000f0: e8a0 4d3c ee96 80bd e190 0d3d 1465 36bd
00000100: e105 8e3c 1bfe 89bc 8ee7 643d 8091 7ebd
00000110: 9b0b 80bd 96f9 4fbd 11b5 a53d dab7 7b3c
00000120: 2f88 953d a08a 9cbd 5287 bebd 8480 95bd
00000130: bac0 92bd 16db 1d3d a59f b83c db24 b63d
00000140: 5a9d 46bd a394 91bd d131 5c3d 388f 01bd
00000150: 297e 563d fd84 4dbc 8f39 443d bdaf a3bd
00000160: d11f 7abd 161f d63c 0e5a d03c 28a2 f5bb
00000170: bb0f 613d 2f40 a63d a12f 75bd 3a58 5dbd
00000180: f624 983d 5118 4fbd 328d 09bd 4f6e cabd
00000190: 3c19 65bd c9f6 243c 0799 7239 7b5b 99bd
000001a0: 279e 043c c724 69bd 0140 99bd 0540 72bd
000001b0: 73f7 a6bd 0024 7bbd 6d1a bb3d 730a cb3c
000001c0: 75cd ca3c c0a5 bebd a5a5 9ebd 2d7d 17bd
000001d0: e1be 5b3c 7f2a bfbd 18c5 5abd 33cd 7bbd
000001e0: 969c 123c eda0 2cbd 5531 31bc beeb 4bbd
000001f0: 11f3 97bd 06bb 62bd 5eed 35bd afa6 93bd
00000200: bd04 b13d 2050 abbc cc8a a23d 80eb 1a3d
00000210: 17bc bfbd de60 773d 8c03 a8bc c600 3cbd
00000220: 5dab c2bd 3db2 b3bd 1a79 143d 7294 2cbd
00000230: 0202 023d 5596 94bd 8fe5 a43d dd8d 87bd
00000240: 825c 3fbc 1b5f f23c b9ff 763d 2cc5 bb3d
00000250: 69d0 a93d 091e 99bd 2bbe 543c 001d 62bd
00000260: d464 45bc 7f2e 8cbd 715f 923d eab0 a4bd
00000270: ccb4 693d dd71 4f3d 5307 3a3d e186 7bbd
00000280: 143d a23d 46ad 6c3c 7427 41bb fd67 aabd
00000290: bd4d 233d e345 ba3b e873 3dbd 71ce 913d
000002a0: 6702 95ba a12d 53bd cf59 11bd 5794 323c
000002b0: 4123 563d 1502 9fbc 2f5e 7ebd 6435 4cbc
000002c0: e3fe 96bd 8f1e 023d b76d aa3d 3bed bbbd
000002d0: c84f 013c ef60 6e3d 46e9 fcba 5c5d f9bc
000002e0: 97ba 513d 9562 4a3d cd6f 2f3d 9e6c 18b9
000002f0: 3651 babc 9d08 bf3c d9fa 67bc 3e3a 17bd
00000300: b8b7 3c3d 359e 923d e3dc f5bb 8bec bbbc
00000310: 153c 833b 744c b0bc 40a1 1c3d 89c7 e33c
00000320: 292c b2bd c9b7 cbbc eb1b c83d f5cd 163d
00000330: e074 323b 45ff 6cbd 37b8 95bd 7ef4 afbd
00000340: e5b0 23bd 3fc9 153d b8d2 5f3d caab 343d
00000350: 58fb bdbd d5f0 84bd 563d d1bc eb6e c93d
00000360: 95ef bf3c 03ab fabc 699f 1d3d 97bb 9fbc
00000370: b7c4 8fbd 7624 a13d dcea 64bd 1a9a 44bc
00000380: 9e2d cebd 648c 8a3d 0010 8d3d 3a05 313d
00000390: 257b a0bd 6241 e3bd 8541 9abd b6fd 8d3d
000003a0: 1460 1e3d 0d00 cc3d 16de 773d ef59 c43b
000003b0: 175d 13bc 5003 88bd 945f a9bd 24a1 b1bd
000003c0: 337a 433d f360 2bbd fecd 53bc 578a 4abd
000003d0: f7be eabc fb7e 86bd 2497 a2bd 5fbd b83c
000003e0: bf8e ffbc 1f4f 913d 0026 5ebd 689c a4bd
000003f0: 63ea 7dbc be1e 0ebd 816e 9bbc bebe d3bd

GNN1.bias f4 [96]
0.00096027396 -0.0358729 -0.06210843 0.050059747 0.026115289 0.004800748 -0.003522232 0.011050288
0.010121519 0.05372741 -0.049173623 0.028902363 0.061274312 0.069176406 -0.047190815 0.065590054
-0.062173262 0.047284834 0.047196224 0.010698789 0.04365837 -0.08639841 -0.035446193 -0.044923432
-0.07971816 -0.0063699586 0.08766228 0.006078851 0.06614066 -0.08940197 0.05186432 0.06798775
0.09368975 -0.03878998 -0.06403975 -0.04319476 0.0806184 0.009298199 0.084345415 -0.05349002
-0.07000034 0.038529526 0.03365567 -0.067068666 0.11197495 -0.020096725 -0.078882836 0.03254937
-0.064838745 -0.04469239 -0.04517803 0.04741553 0.048963916 0.0708222 -0.03301794 -0.0092669595
0.08608881 -0.04006659 -0.029053817 0.004431004 -0.08408718 -0.06371466 0.09682075 0.02102324
-0.0023473646 0.038032755 0.05778451 0.054577604 0.09109765 0.044505768 0.06771675 0.08530812
-0.020764308 0.029293695 -0.03950177 -0.065551326 0.08874702 -0.044118226 -0.05187917 -0.09085224
-0.0462258 0.017200772 0.043056283 -0.077889286 0.0072680507 -0.07459924 0.009463703 0.04477855
-0.025599113 -0.02750857 0.06588532 -0.04292994 0.0004806426 -0.07782133 0.06836082 0.044536624
00000000: e5ba 7b3a 76ef 12bd 6965 7ebd 730b 4d3d
00000010: bbef d53c 984f 9d3b 3fd5 66bb 440c 353c
00000020: bad4 253c 4611 5c3d 486a 49bd a6c4 ec3c
00000030: c6fa 7a3d 5cac 8d3d 284b 41bd 1454 863d
00000040: 64a9 7ebd bead 413d d450 413d f949 2f3c
00000050: 1ed3 323d a6f1 b0bd 0730 11bd a201 38bd
00000060: 4643 a3bd 16bb d0bb 4888 b33d 1931 c73b
00000070: c174 873d 6118 b7bd ae6f 543d 293d 8b3d
00000080: 69e0 bf3d 3ee2 1ebd 4627 83bd fdec 30bd
00000090: 421b a53d 7957 183c 4abd ac3d 5a18 5bbd
000000a0: 575c 8fbd 23d1 1d3d 87da 093d 4c5b 89bd
000000b0: 1f53 e53d e3a1 a4bc 538d a1bd 7d52 053d
000000c0: 2dca 84bd 5e0f 37bd 990c 39bd c936 423d
000000d0: 638e 483d 3b0b 913d d23d 07bd 72d4 17bc
000000e0: 544f b03d dd1c 24bd 4502 eebc f531 913b
000000f0: e635 acbd d57c 82bd f549 c63d ee38 ac3c
00000100: 3ed6 19bb 3cc8 1b3d 73af 6c3d c48c 5f3d
00000110: 6891 ba3d ae4b 363d 14af 8a3d 06b6 ae3d
00000120: e919 aabc 55f9 ef3c 9ccc 21bd c63f 86bd
00000130: ffc0 b53d 50b5 34bd 417f 54bd bd10 babd
00000140: 4457 3dbd a2e8 8c3c c95b 303d 6b84 9fbd
00000150: d428 ee3b 7dc7 98bd a60d 1b3c b669 373d
00000160: 3bb5 d1bc a759 e1bc e2ee 863d 4ed7 2fbd
00000170: c2fe fb39 ca60 9fbd c200 8c3d 096c 363d

GNN2.Theta1 f4 [288, 96]
-0.049057465 0.06986414 0.09536634 0.040585365 -0.08037475 -0.0235895 0.09389717 0.0650826
-0.033437684 0.076031365 -0.063517004 0.022902798 0.093699194 0.022345688 -0.07752522 0.020891886
0.056952327 0.06731822 -0.058165528 -0.01817288 -0.0015408676 -0.016880265 -0.016769364 -0.04667012
0.017329272 0.05400568 -0.029612958 0.07727416 -0.009046196 0.029363135 0.028789233 -0.020751428
-0.010390539 -0.024534827 0.035549685 -0.046983503 -0.058099493 -0.08627113 -0.04848623 0.027097756
0.0846882 -0.09954661 -0.03136799 0.06648219 -0.04872274 0.06578596 -0.0102874655 -0.08594539
0.011888603 -0.056813657 0.020904392 -0.083186805 0.0910337 -0.038352687 0.06009288 -0.062040832
-0.07794495 0.045005035 0.06200793 -0.0060772873 -0.0884758 -0.04321027 -0.07745418 0.034709826
0.019294314 0.066667005 0.09684292 -0.0515108 0.07204622 0.058129992 0.01580409 -0.09268831
-0.069771096 0.035073955 0.06536743 0.051260114 0.0015851043 -0.06392244 -0.08773414 -0.059465025
0.0015028212 0.018540096 0.064339824 -0.06992149 0.057518344 0.08693223 -0.093335986 -0.06164056
-0.040896602 0.024565881 0.08998048 0.016274583 0.064902365 0.07142969 0.08884148 -0.092182666
-0.078914866 -0.011172894 -0.0051643215 0.008072172 0.080624625 0.08621082 -0.025299765 -0.058693696
0.006150717 0.017952887 0.06562825 0.0318929 0.036756054 0.034141254 0.077426895 0.052671235
-0.011523261 -0.0747548 0.07492895 -0.006512705 -0.07257591 -0.017192563 0.076753214 -0.055046055
-0.024506098 0.039275702 0.062229916 -0.016029188 -0.084246226 -0.042645965 -0.030711057 0.024712872
-0.074164346 0.076382 0.024773516 -0.060671307 0.04843424 0.016439252 0.10066273 -0.008132037
-0.001246383 -0.09641453 -0.079328574 0.0024122044 0.09118005 -0.06342781 0.007032301 -0.059369016
-0.08351302 -0.03395854 -0.0664775 -0.07708061 -0.034181163 -0.007877852 0.04391787 0.04813149
0.0047290092 -0.017187325 -0.02355516 -0.08639041 0.067743026 0.07836151 -0.09766527 -0.09469605
-0.09539492 -0.021271674 -0.0043090703 -0.06997845 0.0470457 -0.003124355 -0.049213946 -0.09143925
0.07825349 0.09125269 0.0023430304 -0.04983617 0.0560322 0.060994826 -0.012865333 0.09703583
-0.07528845 -0.0084178 0.07401672 -0.061253633 -0.02716207 -0.039554324 -0.044898424 0.08621561
0.052651804 -0.08762817 -0.06216485 -0.004855302 -0.033905767 -0.06246651 -0.09445895 0.07706077
0.044908844 0.025114201 -0.027760563 -0.099462725 -0.011506281 0.032787938 -0.025058694 0.068826646
0.02120967 -2.5250807e-05 0.043020457 0.04882046 -0.06990639 0.031672258 -0.09132475 -0.029499263
-0.03457443 0.07439152 -0.09219829 0.038069423 -0.092458315 0.04406173 0.026651442 -0.048293464
0.015481207 0.10280106 0.050975587 -0.09388244 -0.03738625 0.092598125 0.018024143 0.026161598
0.0024170303 -0.049430937 -0.02883236 0.019624576 0.06952566 -0.017477332 -0.02590468 0.013347411
-0.037255727 0.09111255 0.08175131 0.006343011 -0.061434075 0.028251376 0.07360323 0.044590153
0.038370866 -0.05045323 -0.09869107 -0.031013481 0.00040783986 0.09674631 0.014414352 -0.017502733
-0.01957702 -0.0133910375 -0.0567541 -0.045286603 0.01575629 0.055928506 0.082856625 0.04205818
00000000: 7bf0 48bd ee14 8f3d 6d4f c33d d73c 263d
00000010: 849b a4bd c43e c1bc 294d c03d 074a 853d
00000020: f4f5 08bd 55b6 9b3d 3415 82bd a69e bb3c
00000030: 5de5 bf3d 4e0e b73c 8bc5 9ebd 7625 ab3c
00000040: d846 693d 23de 893d fa3e 6ebd 4bdf 94bc
00000050: f0f6 c9ba 7b48 8abc e85f 89bc 2b29 3fbd
00000060: 1ef6 8d3c 0f35 5d3d e096 f2bc ea41 9e3d
00000070: 7f36 14bc f58a f03c 66d7 eb3c e6fe a9bc
00000080: 143d 2abc 43fd c8bc 8c9c 113d c671 40bd
00000090: bcf9 6dbd ebae b0bd 7f99 46bd 1dfc dd3c
000000a0: 0271 ad3d 18df cbbd b97b 00bd d027 883d
000000b0: 7f91 47bd caba 863d c28c 28bc 2304 b0bd
000000c0: 6ac8 423c 70b5 68bd b03f ab3c d85d aabd
000000d0: e06f ba3d b517 1dbd f423 763d 871e 7ebd
000000e0: 9aa1 9fbd 3357 383d 07fc 7d3d fb23 c7bb
000000f0: cd32 b5bd 41fd 30bd 4ca0 9ebd e42b 0e3d
00000100: 1c0f 9e3c b688 883d 9555 c63d fdfc 52bd
00000110: f88c 933d b719 6e3d 9477 813c 5ed3 bdbd
00000120: 26e4 8ebd b5a9 0f3d 5cdf 853d 20f6 513d
00000130: 46c3 cf3a c5e9 82bd f5ad b3bd 9991 73bd
00000140: 50fa c43a 66e1 973c 99c4 833d 0033 8fbd
00000150: 5b98 6b3d 8609 b23d f026 bfbd d07a 7cbd
00000160: 3283 27bd 633e c93c b047 b83d 4652 853c
00000170: 88eb 843d bb49 923d 86f2 b53d 44ca bcbd
00000180: 1e9e a1bd 840e 37bc 7839 a9bb 2541 043c
00000190: 861e a53d 4c8f b03d 7441 cfbc cd68 70bd
000001a0: f48b c93b ef11 933c 1b68 863d 21a2 023d
000001b0: 848d 163d b3d7 0b3d fe91 9e3d cbbd 573d
000001c0: 0fcc 3cbc 0b19 99bd 5974 993d 8768 d5bb
000001d0: aea2 94bd 6bd7 8cbc ca30 9d3d f977 61bd
000001e0: 03c1 c8bc 8fdf 203d cce4 7e3d a54f 83bc
000001f0: 4989 acbd 89ad 2ebd c195 fbbc a672 ca3c
00000200: 7ae3 97bd 2b6e 9c3d d4f1 ca3c 7a82 78bd
00000210: fb62 463d 9cab 863c 4328 ce3d 3c3c 05bc
00000220: ac5d a3ba fb74 c5bd 0577 a2bd 1316 1e3b
00000230: 9bbc ba3d 71e6 81bd 376f e63b ed2c 73bd
00000240: e008 abbd 1c18 0bbd 5b25 88bd 70dc 9dbd
00000250: 8c01 0cbd 1b12 01bc 39e3 333d 8625 453d
00000260: cef5 9a3b 6fcc 8cbc c0f6 c0bc 75ed b0bd
00000270: dbbc 8a3d 007c a03d bb04 c8bd 01f0 c1bd
00000280: 695e c3bd ef41 aebc 1a33 8dbb dd50 8fbd
00000290: feb2 403d fbc1 4cbb 9094 49bd 8044 bbbd
000002a0: 5e43 a03d b1e2 ba3d 878d 193b 0321 4cbd
000002b0: 0582 653d b6d5 793d 1ec9 52bc b9ba c63d
000002c0: d530 9abd d0ea 09bc 1496 973d 17e5 7abd
000002d0: fd82 debc b703 22bd 69e7 37bd cf91 b03d
000002e0: 6ba9 573d 6676 b3bd 92a0 7ebd 3a19 9fbb
000002f0: c6e0 0abd e2dc 7fbd b273 c1bd 09d2 9d3d
00000300: 56f2 373d 4cbc cd3c 1f6a e3bc 1db3 cbbd
00000310: d784 3cbc a54c 063d e447 cdbc fcf4 8c3d
00000320: e7bf ad3c b2d1 d3b7 3836 303d f6f7 473d
00000330: 152b 8fbd c5ba 013d 7808 bbbd 70a8 f1bc
00000340: eb9d 0dbd 955a 983d 75d2 bcbd afee 1b3d
00000350: c95a bdbd 137a 343d 2054 da3c 5ecf 45bd
00000360: e3a4 7d3c 5d89 d23d c7cb 503d 7045 c0bd
00000370: 5322 19bd 16a4 bd3d 5ea7 933c d950 d63c
00000380: 0a67 1e3b 1878 4abd d731 ecbc b8c3 a03c
00000390: 7863 8e3d 9f2c 8fbc 0d36 d4bc 19af 5a3c
000003a0: 7699 18bd 3799 ba3d 3b6d a73d 08d9 cf3b
000003b0: 4ca2 7bbd 6e6f e73c 4abd 963d 2aa4 363d
000003c0: c52a 1d3d 0ca8 4ebd 8b1e cabd fc0f febc
000003d0: 57d3 d539 ee22 c63d 2d2a 6c3c e461 8fbc
000003e0: fd5f a0bc 1566 5bbc fd76 68bd 727e 39bd
000003f0: 5613 813c 4a15 653d bcb0 a93d 3345 2c3d

GNN2.bias f4 [96]
-0.014845754 -0.0722642 0.011252518 0.08571417 -0.03639346 0.037465688 -0.02677457 -0.024997571
0.05649795 -0.09256507 0.06570595 0.07005639 0.035093307 0.007241971 -0.046649136 -0.061561037
0.08535722 0.04043001 0.041631125 -0.06307292 0.057006203 -0.04598015 0.07705475 0.086937696
-0.069341935 -0.0849953 -0.081453584 -0.027580485 0.020110624 -0.0895805 0.08237239 -0.082058035
-0.028133715 0.026086 -0.040709823 -0.0038176936 -0.08256284 -0.083132155 0.0012034549 -0.02467611
0.06447258 -0.05570174 0.0546334 0.076537915 -0.028553009 -0.011652244 0.038960204 -0.052434962
0.02912089 -0.026192073 -0.00571618 -0.072359085 0.0745065 -0.07964407 -0.010591062 0.042124476
-0.0683272 0.012235813 0.08891123 0.036476012 0.07177131 -0.05943911 0.0530217 0.0106377555
0.014517935 -0.038031567 -0.025408596 0.049224757 0.07188994 -0.07057321 0.0848388 0.09646416
-0.034601945 0.025140278 0.063817084 -0.088762656 0.02920894 0.101321734 -0.028315594 -0.060736734
-0.06096378 0.059704907 -0.0043327394 0.003917531 0.012671378 0.039982192 0.062018305 0.006450789
-0.0789606 0.06634492 0.0651812 0.020179853 -0.04175755 -0.014657577 0.031027157 0.07840391
00000000: 9b3b 73bc 41ff 93bd 7b5c 383c e98a af3d
00000010: 4f11 15bd 9f75 193d 5856 dbbc b5c7 ccbc
00000020: 656a 673d c192 bdbd d790 863d b979 8f3d
00000030: 00be 0f3d 0e4e ed3b 2a13 3fbd 6d27 7cbd
00000040: c4cf ae3d f099 253d 6685 2a3d 602c 81bd
00000050: 567f 693d af55 3cbd e1ce 9d3d 640c b23d
00000060: 2503 8ebd 0412 aebd 23d1 a6bd 78f0 e1bc
00000070: 09bf a43c fb75 b7bd dbb2 a83d 0b0e a8bd
00000080: ad78 e6bc 4fb2 d53c 58bf 26bd 4532 7abb
00000090: b516 a9bd 3141 aabd 3fbd 9d3a 8e25 cabc
000000a0: 330a 843d 8227 64bd 46c7 5f3d e9bf 9c3d
000000b0: 00e8 e9bc 0ee9 3ebc bc94 1f3d 0bc6 56bd
000000c0: ef8e ee3c c290 d6bc cb4e bbbb 0031 94bd
000000d0: dd96 983d 6e1c a3bd 2286 2dbc b78a 2c3d
000000e0: 22ef 8bbd b878 483c 1717 b63d df67 153d
000000f0: d6fc 923d 6d76 73bd 482d 593d fb49 2e3c
00000100: a2dc 6d3c fdc6 1bbd b025 d0bc e69f 493d
00000110: 083b 933d b088 90bd f7bf ad3d 008f c53d
00000120: c5ba 0dbd fcf2 cd3c 88b2 823d 32c9 b5bd
00000130: 9647 ef3c c581 cf3d 1bf6 e7bc 15c7 78bd
00000140: 28b5 79bd 228d 743d a7f9 8dbb a25e 803b
00000150: 9d9b 4f3c 5ec4 233d e806 7e3d 2461 d33b
00000160: 18b6 a1bd d8df 873d b97d 853d 3850 a53c
00000170: f709 2bbd 5526 70bc aa2c fe3c 3b92 a03d

GNN3.Theta1 f4 [288, 2]
-0.6031018 0.105692685 0.09005388 0.15449701 -0.14757036 -0.07281474 -0.6608944 -0.078497715
-0.57104224 0.5808514 0.30267382 0.23596486 -0.3508891 -0.28042868 0.094617404 -0.10883189
0.0034936813 0.08389814 -0.031935606 -0.5605706 0.63845646 -0.25087216 0.05992116 -0.41318607
0.5876247 -0.33055642 0.35360968 0.26553792 -0.157205 0.15598808 -0.4866251 -0.61639714
0.4142249 0.46104097 -0.55269474 -0.21920434 -0.6644619 -0.56338763 0.096569456 -0.1520272
0.6592158 0.54546577 -0.40868792 0.54295117 0.42035714 0.59700024 -0.1851421 -0.06112875
-0.36936188 -0.3444732 0.6537636 0.5205632 -0.696553 0.34830186 -0.24853648 -0.56562406
0.32874462 0.10291879 -0.19439264 0.6907182 -0.44804725 0.42367095 0.43069556 -0.34641993
0.38105062 -0.34718397 -0.36162823 0.5103958 0.55799264 -0.44681203 0.6474138 -0.64736485
0.274155 -0.58898675 -0.15620041 -0.5611338 0.55439806 -0.38316402 -0.61956733 -0.32756218
0.45268938 0.25023818 0.29097328 0.5025341 -0.15771723 0.41152787 -0.6311177 -0.53920275
0.40315822 -0.48222718 0.17129374 0.18856956 0.3827864 0.49541524 0.15058537 -0.08240203
-0.57021624 -0.34138292 -0.1344279 0.31151187 -0.38831073 -0.17331481 -0.0105423 -0.04372245
-0.49287954 0.3766097 0.09397792 0.5655337 -0.49609256 0.0065300884 0.24385504 0.3373654
-0.51322687 -0.32322812 0.0050434144 -0.4062786 -0.55392176 0.13106754 0.41920286 -0.64390683
-0.20879434 -0.67500955 0.13896233 0.26015648 -0.6310178 0.20546268 -0.21558332 -0.10978636
-0.50986814 -0.059846073 0.34921464 -0.3652805 -0.2330227 -0.40174237 -0.31604177 0.60339534
0.4917072 -0.3068204 0.6706433 0.25348976 0.20220734 -0.5504317 -0.20224628 0.61517036
0.45036837 0.34785074 -0.35575506 -0.19043899 0.27688 0.22412525 -0.18083459 -0.34279275
-0.5360303 -0.54762477 -0.25773394 0.38864926 -0.3067828 0.23331465 -0.45975363 -0.015605969
-0.38596156 -0.31994858 0.3926295 0.16204682 0.5925043 0.15554535 -0.013685999 0.5487741
-0.46157277 0.38961044 0.030317659 -0.037329122 -0.4063124 -0.019939665 -0.438874 0.39436376
-0.45632514 -0.083629996 0.6834042 -0.07103195 -0.5327016 0.2015429 0.2164132 -0.32696155
-0.5689924 -0.682025 -0.35868952 0.06053306 -0.6135933 -0.5480076 0.2379907 -0.5265319
-0.035324983 0.1628274 0.5867947 -0.031693853 0.1337185 0.51566786 0.19011179 0.5835547
-0.09811628 0.6514115 -0.43208835 0.44550782 0.07961447 -0.03625547 0.6493302 0.33456528
0.08123003 -0.17238276 0.5836647 0.06550858 0.14596906 -0.025913358 -0.28185785 -0.3561167
0.36050805 0.11522897 0.090790674 0.022936815 -0.2804737 -0.03983064 -0.37921116 0.10707912
0.29908675 -0.6394664 0.58269227 -0.17280641 0.5579546 0.55413896 0.30625734 0.6061461
-0.6204597 -0.66867685 0.07081583 -0.32622552 -0.31159228 -0.053217206 -0.43926352 -0.0029622936
-0.35354158 0.2062597 0.12556176 -0.44338864 -0.28697076 -0.014983352 0.37170574 0.58544457
0.23608978 -0.027353644 -0.05070967 0.6036277 -0.42789313 -0.38768268 0.116610914 -0.4399084
00000000: e164 1abf 6875 d83d 2b6e b83d 7734 1e3e
00000010: af1c 17be e51f 95bd 6030 29bf 69c3 a0bd
00000020: d32f 12bf adb2 143f 10f8 9a3e c6a0 713e
00000030: bca7 b3be 5994 8fbe c5c6 c13d 41e3 debd
00000040: 3ff6 643b cad2 ab3d e9ce 02bd 8e81 0fbf
00000050: e271 233f 5172 80be e46f 753d 208d d3be
00000060: 936e 163f b13e a9be 540c b53e 96f4 873e
00000070: 59fa 20be 57bb 1f3e ed26 f9be 34cc 1dbf
00000080: 4915 d43e 900d ec3e 677d 0dbf 1a77 60be
00000090: 2d1a 2abf 2c3a 10bf 35c6 c53d 05ad 1bbe
000000a0: 5ec2 283f a5a3 0b3f 8b3f d1be d9fe 0a3f
000000b0: 0d39 d73e 02d5 183f e495 3dbe 2462 7abd
000000c0: 001d bdbe cb5e b0be 0d5d 273f a143 053f
000000d0: 4c51 32bf 9f54 b23e 5980 7ebe bdcc 10bf
000000e0: 3751 a83e 16c7 d23d dd0e 47be e8d2 303f
000000f0: 7366 e5be 66eb d83e 2184 dc3e f45d b1be
00000100: 1119 c33e 19c2 b1be 5627 b9be 4da9 023f
00000110: 9bd8 0e3f 8cc4 e4be e9bc 253f b4b9 25bf
00000120: 0b5e 8c3e d6c7 16bf 00f3 1fbe 77a6 0fbf
00000130: 08ed 0d3f 132e c4be f79b 1ebf 3bb6 a7be
00000140: e7c6 e73e 381f 803e 73fa 943e 13a6 003f
00000150: a080 21be c8b3 d23e ee90 21bf 3109 0abf
00000160: c16a ce3e 7be6 f6be a067 2f3e 6118 413e
00000170: 94fc c33e 11a7 fd3e 0d33 1a3e 65c2 a8bd
00000180: b1f9 11bf bec9 aebe 78a7 09be 7c7e 9f3e
00000190: aad0 c6be 7079 31be 9cb9 2cbc 5016 33bd
000001a0: b55a fcbe fdd2 c03e 7f77 c03d d1c6 103f
000001b0: d8ff fdbe 5afa d53b 23b5 793e 28bb ac3e
000001c0: d662 03bf 287e a5be 3a43 a53b c003 d0be
000001d0: d1cd 0dbf 9236 063e c2a1 d63e 14d7 24bf
000001e0: 2fce 55be 6dcd 2cbf 244c 0e3e 3b33 853e
000001f0: 628a 21bf cf64 523e e0c1 5cbe acd7 e0bd
00000200: b886 02bf 2821 75bd 43cc b23e 0c06 bbbe
00000210: 819d 6ebe 2db1 cdbe 3ad0 a1be 1e78 1a3f
00000220: 0cc1 fb3e 9017 9dbe 48af 2b3f 69c9 813e
00000230: 710f 4f3e 18e9 0cbf a619 4fbe ce7b 1d3f
00000240: af96 e63e 7e19 b23e 8725 b6be 7002 43be
00000250: 37c3 8d3e 1781 653e b42c 39be 8882 afbe
00000260: 4839 09bf 2331 0cbf b4f5 83be 09fd c63e
00000270: a312 9dbe 09ea 6e3e d464 ebbe 2eb0 7fbc
00000280: c19c c5be 4dd0 a3be bc06 c93e 9aef 253e
00000290: 5dae 173f 4847 1f3e 3e3b 60bc 767c 0c3f
000002a0: 4453 ecbe 057b c73e bd5c f83c 6ce6 18bd
000002b0: 2e08 d0be 8258 a3bc 18b4 e0be 0cea c93e
000002c0: 73a3 e9be 3446 abbd 94f3 2e3f 3379 91bd
000002d0: 225f 08bf 4361 4e3e 6c9b 5d3e 8167 a7be
000002e0: 7ca9 11bf 3199 2ebf 27a6 b7be 84f1 773d
000002f0: 7314 1dbf 3a4a 0cbf d6b3 733e cbca 06bf
00000300: eeb0 10bd 3abc 263e 2d38 163f 6ad1 01bd
00000310: 81ed 083e cf02 043f aaac 423e d763 153f
00000320: 30f1 c8bd e7c2 263f af3a ddbe 9a19 e43e
00000330: e90c a33d 9e80 14bd 813a 263f 244c ab3e
00000340: ee5b a63d 1b85 30be 0d6b 153f 5d29 863d
00000350: ea78 153e 4048 d4bc ac4f 90be ee54 b6be
00000360: 8394 b83e 2bfd eb3d 76f0 b93d fde5 bb3c
00000370: 409a 8fbe 7425 23bd f727 c2be 4c4c db3d
00000380: e621 993e 12b4 23bf 522b 153f 2af4 30be
00000390: 1dd6 0e3f 0ddc 0d3f c3cd 9c3e 642c 1b3f
000003a0: 72d6 1ebf 682e 2bbf e407 913d 0807 a7be
000003b0: 0689 9fbe 49fa 59bd 26e7 e0be 0a23 42bb
000003c0: 6703 b5be be35 533e 4393 003e d603 e3be
000003d0: d5ed 92be bc7c 75bc 3750 be3e b2df 153f
000003e0: 85c1 713e c014 e0bc f1b4 4fbd 5887 1a3f
000003f0: cf14 dbbe 587e c6be b4d1 ee3d ac3b e1be

GNN3.bias f4 [2]
-0.083914764 0.24238628
00000000: 81db abbd 1c34 783e
