trained_models/iS_GNN_Trained_ep100_bs64_lr5em04_z96_k2e+00_ramps_23.pth (torch, 222343 bytes, 6 tensors)

GNN1.Theta1 f4 [80, 96]
0	0x3cca885e	0.024723228
1	0x3d83c342	0.06433727
2	0xbaa2f1fa	-0.0012431734
3	0x3dc212b2	0.09476222
4	0x3bc0a035	0.005878473
5	0x3c9203f8	0.017824158
6	0xbd25d9dc	-0.04049097
7	0x3d4067ab	0.046973865
8	0x3db4259a	0.087962344
9	0xbd141332	-0.03615112
10	0x3dbb0523	0.09131839
11	0x3cce97e7	0.025218917
12	0x3d758616	0.059942327
13	0x3bfc3cf1	0.0076976945
14	0x3c141fd5	0.0090407925
15	0xbb9f1375	-0.0048546144
16	0x3d7437dc	0.059623584
17	0x3d04c01a	0.032409765
18	0xbcd7d256	-0.026345413
19	0x3cf5dcba	0.030012477
20	0xbcf82c74	-0.030294634
21	0xbc70367c	-0.014661428
22	0xbd30cd55	-0.04316457
23	0x3d528fa3	0.051406514
24	0xbd07b294	-0.03312929
25	0xbd285f30	-0.041106403
26	0xbd1e53cf	-0.038654145
27	0xbd1662a8	-0.03671518
28	0x3a913f80	0.0011081547
29	0xbda702af	-0.08154809
30	0x3d9e0a05	0.07716755
31	0xbd667e13	-0.056272577
32	0x3d396015	0.045257647
33	0x3c646ed1	0.013942436
34	0xbd5c74d0	-0.05382234
35	0x3d184eda	0.037184574
36	0x3d396a28	0.045267254
37	0x3d84397b	0.06456276
38	0x3caf7db6	0.021422248
39	0xbc53196d	-0.01288448
40	0x3d6ac59a	0.057317354
41	0xbaf2b369	-0.0018516603
42	0x3c123443	0.008923593
43	0x3d975daf	0.073909156
44	0x3d7c18c8	0.06154707
45	0x3c0de903	0.008661511
46	0x3cc1788e	0.023617055
47	0x3d1f5c7a	0.038906552
48	0x3c8052a1	0.0156644
49	0xbd711b96	-0.0588642
50	0xbd969d63	-0.07354238
51	0xbd3add38	-0.045621127
52	0xbd990ff5	-0.07473747
53	0x3db7523d	0.089512326
54	0x3cc83315	0.02443842
55	0x3d67a876	0.05655714
56	0x3d5485c2	0.051885374
57	0x3d0e57cd	0.034751702
58	0x3d49814a	0.049195565
59	0xbd04932f	-0.032366928
60	0x3c83c526	0.016085219
61	0xbd7bd5b4	-0.0614831
62	0xbbd34e8d	-0.006448573
63	0xbce2d39d	-0.027688796
64	0x3bdfc6bb	0.0068291104
65	0xbd34c2d2	-0.044131108
66	0x3da13c18	0.0787279
67	0xbcbb6f14	-0.022880115
68	0xbd88da51	-0.066822655
69	0xbd3ae7f9	-0.045631383
70	0x3daae4c6	0.08344416
71	0xbc3c47bb	-0.011491711
72	0x3da4db10	0.08049595
73	0xbce9bb04	-0.028531559
74	0xbd2a51da	-0.041581966
75	0xbd9ae193	-0.07562556
76	0xbd9791ad	-0.07400832
77	0x3d1d3cb1	0.038387958
78	0x3d146325	0.036227364
79	0x3d81a19e	0.06329654
80	0xbbd47eb7	-0.006484832
81	0xbd5bdf03	-0.053679477
82	0x3c9105c6	0.017702948
83	0xbc825960	-0.015911758
84	0x3d2bfd8b	0.041989844
85	0xbcf39258	-0.029732868
86	0x3d7c9f8f	0.061675604
87	0xbd1848b8	-0.037178725
88	0xbd1e1021	-0.0385896
89	0x3c44ba1e	0.012007264
90	0x3b82896a	0.003983666
91	0xbae46396	-0.0017424698
92	0x3d0a026b	0.033693712
93	0x3d596698	0.053076357
94	0xbd803366	-0.062598035
95	0xbd48d8f0	-0.049035013
96	0x3d1b1c1a	0.037868597
97	0xbd8e6438	-0.06952709
98	0xbbc49583	-0.0059992685
99	0xbd9f5402	-0.07779695
100	0xbcdf3ca6	-0.0272506
101	0x3d0e858e	0.034795336
102	0xbb89c234	-0.004204059
103	0xbd931f61	-0.071837194
104	0x3c0b1ff5	0.008491506
105	0xbd2856a8	-0.041098267
106	0xbdc2c1b6	-0.09509604
107	0xbd00a4a6	-0.03140702
108	0xbdaa0a23	-0.08302715
109	0xbd491717	-0.049094286
110	0x3d944829	0.07240326
111	0x3d2e14bb	0.04250024
112	0x3cc61cd2	0.024183664
113	0xbdc984db	-0.09839793
114	0xbd62f0ed	-0.055405546
115	0xbd2a8cbe	-0.04163813
116	0x3d3bef7e	0.045882694
117	0xbd919e1d	-0.07110236
118	0xbd09d7d3	-0.03365309
119	0xbda65745	-0.08122114
120	0x3d22a12c	0.039704487
121	0xbcda11b1	-0.026619764
122	0xbc913c35	-0.017728904
123	0xbd197574	-0.037465528
124	0xbd9a99ba	-0.07548852
125	0xbd7a5360	-0.06111467
126	0xbd37acf0	-0.04484266
127	0xbd311350	-0.04323131
128	0x3d976345	0.07391981
129	0xbceb0db5	-0.02869306
130	0x3d815966	0.063158795
131	0x3beca893	0.007222244
132	0xbd33d3fd	-0.04390334
133	0x3d9cfffa	0.07666011
134	0x3c461c76	0.012091747
135	0xbd03146d	-0.0320019
136	0xbda039a8	-0.07823497
137	0xbda8be80	-0.0823946
138	0xbb6ab5e2	-0.0035813977
139	0xbceef5a8	-0.029169872
140	0x3d3e1b1d	0.046412576
141	0xbd073f91	-0.033019606
142	0x3d537036	0.051620685
143	0xbd253e71	-0.040342752
144	0xbd1bd9ae	-0.038049392
145	0x3cad07ea	0.021121938
146	0x3da18611	0.07886899
147	0x3d9aa05a	0.07550116
148	0x3dcd5b30	0.10027158
149	0xbd825393	-0.06363597
150	0x3d207bf3	0.039180707
151	0xbcf52c2d	-0.029928291
152	0x3cb41d63	0.021986669
153	0xbd59f559	-0.053212497
154	0x3d7a8969	0.0611662
155	0xbd45fecb	-0.048338693
156	0x3d5095e6	0.050924204
157	0x3d3e5709	0.046469722
158	0x3cbca441	0.023027541
159	0xbd54798b	-0.051873725
160	0x3d3c6bbc	0.04600118
161	0x3cf4795c	0.029843025
162	0x3c3f7827	0.011686361
163	0xbd5365bf	-0.051610705
164	0x3d25a2e2	0.04043854
165	0x3c085efa	0.008323425
166	0xbd8186fc	-0.06324574
167	0x3d5b887d	0.053596962
168	0x3c8625c1	0.016375424
169	0xbd22472c	-0.039618656
170	0xbc2145f4	-0.009843338
171	0x3c02a874	0.007974733
172	0x3d44fae6	0.048090838
173	0xbcee3548	-0.02907814
174	0xbd7f72ee	-0.062365465
175	0xbca04a21	-0.019566597
176	0xbd345bf6	-0.044033013
177	0x3d2408de	0.04004752
178	0x3d283955	0.0410703
179	0xbd946dda	-0.07247515
180	0x3c0cff9e	0.008605866
181	0x3cfd1ccf	0.030897526
182	0x3c3e25a5	0.011605655
183	0x3b5135a5	0.0031922844
184	0x3d461566	0.04836025
185	0x3d3a9fe6	0.045562647
186	0x3cb53540	0.022120118
187	0x3c13a002	0.009010317
188	0xbd0d0025	-0.034423966
189	0x3cbe22c8	0.023209944
190	0x3c234db0	0.009967253
191	0xbd1c9a01	-0.038232807
192	0x3d196bfc	0.037456498
193	0x3d4a8d83	0.049451362
194	0x3c98243f	0.018571971
195	0x3c646611	0.01394035
196	0x3c3c1dfc	0.011481758
197	0x3c630065	0.0138550745
198	0x3cec237e	0.028825518
199	0x3d401e4c	0.046903893
200	0xbdac7879	-0.08421416
201	0xbd0e5b55	-0.03475507
202	0x3d7ea52a	0.06216923
203	0x3d8e7582	0.069560066
204	0x3cfb733a	0.030694593
205	0xbcd15189	-0.025551574
206	0xbd54d33c	-0.05195926
207	0xbd605fc8	-0.054778844
208	0xbc6d55e6	-0.014485812
209	0x3c530e55	0.012881835
210	0x3d4a5f82	0.04940749
211	0x3cea448a	0.028597135
212	0xbd62af1f	-0.05534279
213	0xbc76ec37	-0.015070966
214	0x3c2866eb	0.010278444
215	0x3daaad70	0.08333862
216	0x3cdd2c42	0.026998643
217	0xbc9f21ca	-0.019425292
218	0x3d0cb02d	0.0343477
219	0xbc162833	-0.009164858
220	0xbd8b4bd2	-0.06801571
221	0x3d414e04	0.047193542
222	0xbd44ac47	-0.04801586
223	0x3ab32783	0.0013668392
224	0xbd98bbe0	-0.07457709
225	0x3d6128a4	0.0549704
226	0x3d80eb46	0.06294875
227	0x3cd5e80d	0.026111627
228	0xbd0a5973	-0.03377671
229	0xbd921a40	-0.07133913
230	0xbce7c302	-0.02829123
231	0x3d77afd6	0.060470425
232	0x3cab9863	0.020946687
233	0x3da896bf	0.082318775
234	0x3d2a1bdf	0.041530486
235	0x3d090bab	0.033458393
236	0x3c16aa16	0.009195825
237	0xbd35bcea	-0.044369616
238	0xbdb56160	-0.088564634
239	0xbd6f883a	-0.058479525
240	0x3d422d26	0.04740634
241	0xbd732b8d	-0.059367705
242	0xbb8d8611	-0.0043189605
243	0xbd88e2d1	-0.06683887
244	0xbbf20813	-0.0073862164
245	0xbd24ef38	-0.0402672
246	0xbd0d2d72	-0.03446717
247	0x3d2647e0	0.04059589
248	0x3b8ec956	0.004357497
249	0x3d3e0161	0.046388034
250	0xbd48d209	-0.04902843
251	0xbd99a00d	-0.075012304
252	0xbd296cd3	-0.04136355
253	0xbd27f74e	-0.041007333
254	0xbbdfbebf	-0.0068281586
255	0xbdce3dd9	-0.1007039

GNN1.bias f4 [96]
0	0xbda73e44	-0.08166173
1	0xbdb2ddc7	-0.08733707
2	0xbd101220	-0.035173535
3	0x3d756747	0.059912946
4	0x3d52932d	0.05140989
5	0x3d1a0e29	0.03761116
6	0xbcbfc8ed	-0.023411239
7	0x3d87be1b	0.066280566
8	0xbd267d65	-0.04064693
9	0x3b09003f	0.0020904688
10	0xbdaa5487	-0.083169036
11	0x3b4e08d6	0.0031438372
12	0x3cba7818	0.022762343
13	0xbda6ee0c	-0.081508726
14	0x3d9b402c	0.07580599
15	0xbc816939	-0.015797244
16	0x3db8935c	0.090124816
17	0xbd1cd7e0	-0.038291812
18	0xbb9f479e	-0.0048608324
19	0xbce74ea4	-0.028235741
20	0x3dc227a0	0.09480214
21	0xbd0a5c8f	-0.033779677
22	0x3d339cef	0.043850835
23	0xbd86fec2	-0.0659156
24	0x3d5bab9a	0.05363045
25	0xbd83ede9	-0.06441862
26	0xbd30b368	-0.043139845
27	0xbd230aeb	-0.039805334
28	0xbd05c1eb	-0.032655638
29	0x3b84751d	0.0040422813
30	0x3c98d16a	0.018654544
31	0x3d7c6d53	0.061627697
32	0x3d254dd4	0.040357426
33	0xbd3cca16	-0.04609116
34	0x3dc4d189	0.09610278
35	0x3c18e76f	0.009332522
36	0xbd82546b	-0.06363758
37	0x3d17ab91	0.037028853
38	0xbd0da0eb	-0.03457729
39	0x3dd1d1ec	0.102451175
40	0x3c84a647	0.016192568
41	0x3d5a7575	0.053334672
42	0x3d02fdb5	0.031980235
43	0xbd5499ba	-0.051904418
44	0x3d027c95	0.031857092
45	0xbd44f560	-0.04808557
46	0xbcee6414	-0.029100455
47	0xbd370880	-0.04468584
48	0xbd94a161	-0.07257343
49	0x3d16fdf0	0.036863267
50	0x3d9584c3	0.07300713
51	0xbdaf8cac	-0.08571753
52	0x3d333911	0.043755595
53	0xbdab0cd8	-0.08352059
54	0xbde0fc58	-0.10985631
55	0x3cf3f8fe	0.029781815
56	0xbce2b311	-0.027673276
57	0xbd49a36b	-0.049228113
58	0x3da08cbd	0.07839344
59	0x3cac924c	0.021065854
60	0xbd8b2541	-0.06794215
61	0x3d4ed518	0.05049619
62	0x3c4c6fb5	0.012477805
63	0xbc26ede8	-0.010188557
64	0xbda79765	-0.08183173
65	0xbc1f125c	-0.009708967
66	0x3d0b060e	0.03394132
67	0xbd4a4e80	-0.04939127
68	0x3d8040c5	0.06262354
69	0xbdc44192	-0.09582819
70	0xbd1f9887	-0.03896382
71	0xbd2c2f9a	-0.042037584
72	0xbdac8b82	-0.084250465
73	0x3d4a13da	0.04933534
74	0xbd427861	-0.047478084
75	0x3d8ce426	0.06879453
76	0xbb19e7c3	-0.0023484088
77	0x3b87b1c9	0.0041410667
78	0xbd220045	-0.03955104
79	0xbcb7a41a	-0.022417117
80	0x3d1e712b	0.038682144
81	0x3dcce1d7	0.10004013
82	0xbd7757e7	-0.060386565
83	0xbd46eb9f	-0.04856455
84	0xbcbd644d	-0.023119116
85	0xbd49576e	-0.049155645
86	0xbcd264ba	-0.025682796
87	0xbdb34057	-0.08752506
88	0x3d748487	0.0596967
89	0x3da67304	0.08127406
90	0xbd8eda8c	-0.06975278
91	0x3dea5859	0.11442632
92	0x3d0fffe7	0.035156157
93	0xbd435c0e	-0.047695212
94	0x3d0c0be4	0.034191027
95	0xbd9f97b7	-0.07792609

GNN2.Theta1 f4 [480, 96]
0	0xbd80f71c	-0.062971324
1	0xbd8c2ab0	-0.068440795
2	0xbd0bf5f6	-0.034170114
3	0xbc28e5d9	-0.010308706
4	0x3cb3db3e	0.021955129
5	0x3ccb6eba	0.024833072
6	0xbd85fd43	-0.065424465
7	0xbdb8a017	-0.0901491
8	0xbc3d10eb	-0.011539678
9	0x3db0c2c8	0.086309016
10	0x3d27ca66	0.040964507
11	0x3da683d1	0.08130611
12	0xbd3de628	-0.046362072
13	0x3cabe87c	0.02098488
14	0xbdc210ed	-0.094758846
15	0x3d4abbb0	0.0494954
16	0xbba1b14c	-0.0049344655
17	0xba7d4630	-0.0009661643
18	0xbd622b25	-0.055216927
19	0xbd967d11	-0.07348073
20	0xbd09dbd1	-0.0336569
21	0xba9dbe86	-0.001203493
22	0xbd26452d	-0.040593315
23	0x3c9f2259	0.019425558
24	0xbbe77573	-0.0070635616
25	0x3c3195f5	0.010838975
26	0xbdb3d995	-0.08781735
27	0x3d35fb03	0.044428837
28	0xbd5a9029	-0.053360138
29	0xbd903fbf	-0.070434086
30	0xbd1dbd78	-0.03851077
31	0xbdb2f33a	-0.08737798
32	0xbd9a3c06	-0.0753098
33	0x3d96253a	0.07331319
34	0x3d853f16	0.06506173
35	0xbd96969d	-0.07352946
36	0x3d032832	0.032020755
37	0xbd341400	-0.043964386
38	0x3dbf2102	0.093324676
39	0x3d8445b9	0.06458611
40	0x3d2b36d9	0.041800354
41	0xbd9e37f3	-0.07725515
42	0xbd48bec7	-0.049010064
43	0xbcea810d	-0.02862599
44	0xbdcd1aa4	-0.10014847
45	0xbd5ea2c3	-0.05435444
46	0x3ce8e2d8	0.02842848
47	0xbd976799	-0.073928066
48	0x3c8e6f26	0.017386984
49	0xbc2105ee	-0.009828074
50	0x3c1e05cc	0.009644937
51	0xbd0df923	-0.034661423
52	0xbd4a71d5	-0.049424965
53	0xbdae347a	-0.08506103
54	0xbd8e14e8	-0.06937581
55	0x3d3e87c9	0.046516214
56	0xbc09ef64	-0.008418892
57	0x3dcc277e	0.0996847
58	0xbbc2470f	-0.005928881
59	0xbb414ef2	-0.0029496518
60	0x3d51147b	0.051044922
61	0xbdb209d4	-0.08693281
62	0xbd86fb24	-0.0659087
63	0x3d29386e	0.04131358
64	0xbcf56f33	-0.02996025
65	0x3d8bc241	0.0682416
66	0xbb946754	-0.0045289192
67	0x3d8d50e6	0.06900196
68	0x3ba75955	0.0051070848
69	0x3b7a08f5	0.0038152311
70	0xbd995bc1	-0.07488204
71	0xbd34135c	-0.043963775
72	0xb8df1756	-0.00010637815
73	0x3d590d36	0.052991115
74	0x3caf4c8b	0.021398803
75	0xbc840bc4	-0.016118892
76	0x3c72bafb	0.014815087
77	0x3d9850f9	0.07437319
78	0x3d539f9a	0.05166588
79	0x3cad4b8d	0.02115419
80	0xbd711099	-0.05885372
81	0xbd12cb33	-0.035838317
82	0x3d4d9562	0.05019129
83	0x3dd56f6b	0.10421642
84	0xbd5305d6	-0.051519237
85	0x3d1e52b3	0.038653087
86	0xbcbc4569	-0.022982316
87	0x3d9c291c	0.076250285
88	0xbc2d5074	-0.010578264
89	0xbdae9828	-0.08525115
90	0xbdd8b0c9	-0.10580594
91	0x3a3f0f04	0.0007288309
92	0x3c42c0ae	0.011886759
93	0xbd6cc0db	-0.05780111
94	0x3dad7302	0.084692016
95	0x3d293575	0.041310746
96	0x3d629aa6	0.055323265
97	0x3d3cae47	0.04606464
98	0xbda1cf61	-0.079008825
99	0xbc29804c	-0.01034553
100	0x3d5ac5c9	0.05341128
101	0x3d6b81c1	0.05749679
102	0xbd7d691a	-0.06186781
103	0xbd86c302	-0.065801635
104	0x3d9e31ed	0.07724366
105	0xbdaaff96	-0.083495304
106	0x3daaea35	0.08345453
107	0xbcdef2f0	-0.027215451
108	0x3c063041	0.008190216
109	0x3d2758eb	0.040856283
110	0x3cdcd15b	0.026955297
111	0xbd93365f	-0.07188105
112	0x3cf40623	0.029788082
113	0xbda84b2e	-0.082174644
114	0xbd5eb9c9	-0.054376397
115	0x3aa31f49	0.0012445237
116	0xbc8deeba	-0.017325748
117	0x3da83e11	0.08214963
118	0xbd3e0507	-0.046391513
119	0x3d8a40ad	0.06750617
120	0x3d7b141e	0.061298482
121	0x3d16fc7f	0.036861893
122	0x3daa234c	0.083075136
123	0xbd5f994d	-0.05458956
124	0xbdba9788	-0.091109335
125	0x3c21f615	0.009885331
126	0x3d570551	0.052495304
127	0x3d757934	0.05993004
128	0x3be4a5be	0.006977766
129	0x3dc50109	0.09619338
130	0x3ca42702	0.020038132
131	0x3d2cc00a	0.04217533
132	0xbd1bb72e	-0.03801649
133	0x3d30a2fa	0.043124177
134	0xbd13b388	-0.036059886
135	0xbda6d264	-0.081455976
136	0xbd76d160	-0.06025827
137	0xbd4a033c	-0.04931949
138	0xbc38aecc	-0.011272144
139	0xbd542845	-0.051796217
140	0x3daed544	0.08536771
141	0x3d3be83f	0.045875784
142	0xbda52940	-0.080645084
143	0x3c4bdb6e	0.012442453
144	0x3dace8f2	0.08442868
145	0xbc1476c8	-0.009061523
146	0x3cd7932b	0.026315292
147	0x3cc78d4f	0.024359373
148	0xbd0314d6	-0.032002293
149	0xbd63323c	-0.05546783
150	0xbd0a57f5	-0.03377529
151	0xbd463463	-0.048389804
152	0x3da47160	0.08029437
153	0xbdaedf57	-0.085386924
154	0x3a194d88	0.000584804
155	0xbd06528e	-0.032793574
156	0xbca44189	-0.02005078
157	0xb9b1172b	-0.00033777332
158	0xbd1a79eb	-0.037713926
159	0x3c15af05	0.009135966
160	0x3c8b99ad	0.017041052
161	0xbd96ed11	-0.073694356
162	0x3d93e919	0.07222194
163	0x3dad6313	0.084661625
164	0xbd2e3a3e	-0.042536013
165	0x3c619feb	0.013771038
166	0xbcf3cef0	-0.029761761
167	0x3d782853	0.06058533
168	0xbbf1c5ec	-0.0073783305
169	0xbdbd4462	-0.092415586
170	0x3cdc31b6	0.026879173
171	0x3dba7a4a	0.09105356
172	0x3c747a60	0.014921755
173	0xbd2b34e8	-0.041798502
174	0xbc9781e4	-0.018494554
175	0x3d481618	0.048849195
176	0x3dd5d3f7	0.1044082
177	0xbcaf012d	-0.021362865
178	0x3d1f08f1	0.038826887
179	0x3d8b2921	0.06794954
180	0x3dae3ebe	0.08508061
181	0x3d88580a	0.06657417
182	0xbd9eb757	-0.07749813
183	0xbd93e3d9	-0.07221193
184	0xbdad1802	-0.08451845
185	0x3d84bb09	0.064809866
186	0xbd6668d1	-0.056252304
187	0x3d734130	0.05938834
188	0xbd0ad034	-0.033889964
189	0xbd2c6f73	-0.042098474
190	0x3da07b60	0.07836032
191	0xbcce929c	-0.025216393
192	0xbd5deca0	-0.05418074
193	0xbcd56da5	-0.02605326
194	0xbd4ce6a7	-0.050024655
195	0xbdc3e057	-0.09564274
196	0xbc686395	-0.014183898
197	0x3b8c1b7c	0.0042757373
198	0xbd07c079	-0.03314254
199	0x3d89bf26	0.06725912
200	0xbccdf7e2	-0.025142614
201	0xbcc1ddad	-0.023665274
202	0x3db20ab1	0.086934455
203	0x3bed155f	0.0072352136
204	0xbcd58226	-0.026063036
205	0x3c682c87	0.014170772
206	0xbdadb6ae	-0.08482109
207	0x3db7e1d5	0.08978621
208	0x3cb629a8	0.02223666
209	0x3d1f7577	0.038930383
210	0xbda6f502	-0.081522
211	0x3dcb3597	0.09922331
212	0xbda812a2	-0.08206679
213	0xbcea2039	-0.028579818
214	0xbd7e9d29	-0.0621616
215	0xbd6dfcfb	-0.05810259
216	0x3d151185	0.03639366
217	0xbdc1a409	-0.09455115
218	0xbdbc0461	-0.09180523
219	0x3d067a1c	0.032831296
220	0x3d036e3a	0.032087542
221	0x3b83f907	0.004027489
222	0xbd165aba	-0.036707617
223	0xbc92392a	-0.017849524
224	0xbc278d3c	-0.010226544
225	0xbc9c28c2	-0.019062404
226	0xbd97d590	-0.07413781
227	0x3d9828d1	0.0742966
228	0x3d07a852	0.033119507
229	0xbd6532a5	-0.0559565
230	0xbc63cb73	-0.013903487
231	0xbd9bdf90	-0.076110005
232	0xbd487720	-0.04894173
233	0x3dc6c658	0.097058
234	0x3d1caf20	0.03825295
235	0x3d045e05	0.032316227
236	0xbca718fb	-0.020397654
237	0xbcd39a74	-0.025830485
238	0x3ca156cd	0.01969471
239	0xbd91e2df	-0.0712335
240	0xbdc828bd	-0.09773395
241	0x3d8db36f	0.0691899
242	0x39dfb0e0	0.00042665657
243	0x3d778856	0.060432754
244	0x3d96512b	0.073397
245	0x3d54a89b	0.051918607
246	0xbca95871	-0.020672055
247	0xbcaaf885	-0.020870456
248	0xbb98f112	-0.0046674097
249	0xba0ff765	-0.0005491882
250	0xbc4056fb	-0.011739488
251	0xbd9a2840	-0.07527208
252	0xbd815cc7	-0.06316524
253	0x3da74238	0.08166927
254	0x3c2c3f34	0.010513116
255	0xbd62a946	-0.055337213

GNN2.bias f4 [96]
0	0x3d4f2b07	0.050578143
1	0x3c5853ca	0.013203571
2	0x3d06d621	0.032919053
3	0x3d141efa	0.036162354
4	0x3d61fbd7	0.055171814
5	0xbd701e2b	-0.05862252
6	0x3d3151bf	0.04329085
7	0x3c71cb01	0.014757873
8	0x3d5e26bd	0.054236162
9	0xbd3760f6	-0.044770204
10	0xbba53ef5	-0.0050429055
11	0xbd832cb9	-0.064050145
12	0x3d46021e	0.048341863
13	0x3ccdbdf4	0.02511499
14	0x3c676ecc	0.014125537
15	0x3d1dd914	0.0385371
16	0xbca3382f	-0.019924251
17	0x3d02c078	0.031921834
18	0xbca305c8	-0.019900218
19	0x3d85c292	0.06531252
20	0x3b5e5d3d	0.0033930086
21	0x3d3f5469	0.04671136
22	0xbd058d8b	-0.03260569
23	0x3d514c60	0.051098228
24	0x3d1505eb	0.036382597
25	0x3c8d2181	0.01722789
26	0x3d8f36f9	0.06992907
27	0x3d2c3b37	0.04204866
28	0xbc766485	-0.015038614
29	0x3cf3ec91	0.02977589
30	0xbd0bcbde	-0.03412997
31	0xbbde4492	-0.0067830766
32	0x3c81206b	0.015762528
33	0xbd3b7253	-0.045763325
34	0x3d236758	0.03989348
35	0x381446c2	3.5351848e-05
36	0x3ce0728f	0.027398376
37	0x3d403798	0.04692802
38	0x3d088535	0.03333016
39	0x3c4b24ba	0.012398893
40	0x3c893706	0.01674987
41	0x3d3b3666	0.045706175
42	0xbc5508ed	-0.013002616
43	0xbc819725	-0.015819142
44	0xbd28f5ee	-0.04125016
45	0x3d45b91e	0.048272245
46	0xbbfa4d9d	-0.0076386468
47	0xbcdabe8a	-0.026702184
48	0x3d70c678	0.058783025
49	0xbbf1b484	-0.0073762555
50	0x3cde83fb	0.027162543
51	0x3b102ac2	0.0021998142
52	0x3cb6c2fd	0.022309775
53	0x3d7f30fb	0.06230257
54	0x3cdd0fe6	0.02698512
55	0xbc5da01b	-0.013526942
56	0xbc6240c6	-0.0138093885
57	0x3d5449c7	0.051828172
58	0x3d56d22c	0.05244653
59	0x3d67d5d2	0.0566004
60	0x3d6083f6	0.054813348
61	0x3aab8860	0.0013086908
62	0x3d5d11de	0.053972118
63	0xbbc625e2	-0.0060469965
64	0x3c083e44	0.0083156265
65	0xbd324245	-0.04352023
66	0x3d39eea1	0.04539359
67	0xbd1e9291	-0.038713995
68	0x3b40b461	0.002940439
69	0x3bcd8f66	0.006273198
70	0x3d6e42cc	0.05816917
71	0xba968501	-0.001148373
72	0xbb8b5a2d	-0.004252693
73	0xbcfcf79e	-0.030879792
74	0x3cd09005	0.025459299
75	0x3c21d1d0	0.009876683
76	0x3d791539	0.060811255
77	0x3c3db8dd	0.011579719
78	0x3c425c34	0.011862803
79	0xbcb26f9b	-0.021781733
80	0x3d724032	0.059143253
81	0xbc77e660	-0.015130609
82	0xbd1f59b9	-0.038903926
83	0x3d35e6a7	0.04440942
84	0xbca249d3	-0.019810593
85	0x3c89b3b1	0.016809316
86	0x3c10ccd1	0.008837895
87	0xbcd5f23a	-0.02611648
88	0x3be4008d	0.0069580735
89	0x3b8574cc	0.004072761
90	0xbd01ca39	-0.031686995
91	0x3d675464	0.056476966
92	0x3ae18d52	0.0017208254
93	0xbc13c668	-0.009019472
94	0x3d1b4c06	0.0379143
95	0x3d0dd3a3	0.03462566

GNN3.Theta1 f4 [480, 2]
0	0x3f06900b	0.5256354
1	0x3ec610fd	0.38684836
2	0x3f21ced5	0.63206226
3	0x3f09b266	0.5378784
4	0x3e6acd7c	0.22929949
5	0x3e8f7bee	0.28024238
6	0x3f080b0a	0.53141844
7	0xbef7fc57	-0.48434708
8	0x3d6db048	0.058029443
9	0x3dce053d	0.10059593
10	0x3eb34320	0.3501215
11	0x3e850cc3	0.259863
12	0xbdda55e0	-0.106609106
13	0x3e1515e4	0.14559132
14	0x3e81c7b5	0.25347677
15	0xbe814b9b	-0.25252995
16	0x3ec446d6	0.38335294
17	0xbe35b7f5	-0.17745955
18	0xbd225148	-0.039628297
19	0xbf028f74	-0.5100014
20	0x3ccd5c0e	0.02506831
21	0x3f18c48c	0.59674907
22	0xbe4319a8	-0.19052756
23	0xbf048c0c	-0.51776195
24	0x3f29f7be	0.6639365
25	0x3e6d9a09	0.23203291
26	0x3e756f22	0.23968175
27	0x3ece437b	0.4028586
28	0xbec1017e	-0.3769645
29	0x3ee93530	0.4554839
30	0x3ebef8f1	0.37299302
31	0xbe3efd5e	-0.1865134
32	0x3e03717a	0.12836257
33	0x3ef9d0a9	0.48792008
34	0xbb74baba	-0.0037342743
35	0xbe3b999d	-0.18320318
36	0x3efb2e23	0.49058637
37	0x3f1b30c0	0.6062126
38	0xbf0b0b18	-0.543138
39	0xbcb49d87	-0.022047771
40	0x3ed034c2	0.4066525
41	0x3edf42c5	0.4360563
42	0x3f1d7699	0.6150909
43	0x3e371ba9	0.17881645
44	0xbc3d6de2	-0.011561843
45	0xbde84ede	-0.11343168
46	0x3edbd8cf	0.4293885
47	0x3efda5e8	0.4954064
48	0xbe88750a	-0.26651794
49	0xbe38f1af	-0.18060945
50	0x3eb5984b	0.35467753
51	0xbe9ddaab	-0.30830893
52	0xbebe16a5	-0.3712665
53	0xbe74e349	-0.23914827
54	0xbe97a7d4	-0.2962023
55	0xbd886523	-0.06659915
56	0xbf06f33d	-0.527149
57	0x3e85c629	0.26127747
58	0x3f0c4469	0.54791886
59	0x3ea49138	0.32142043
60	0x3f202cea	0.62568533
61	0xbf2857c8	-0.65758944
62	0x3f1a1262	0.601843
63	0xbe4a6a12	-0.19767025
64	0x3da2ae72	0.07943429
65	0xbed9d846	-0.42547816
66	0x3f077313	0.52909964
67	0x3f02467e	0.5088881
68	0xbeb229b4	-0.34797442
69	0xbf1602cc	-0.5859802
70	0x3f147e31	0.5800505
71	0xbf0cc4f4	-0.54988027
72	0x3e3f3319	0.18671836
73	0xbe15ff93	-0.14648275
74	0xbd50dfd9	-0.050994728
75	0x3f3274cd	0.69709474
76	0xbeed334f	-0.46328208
77	0xbd9b7254	-0.07590166
78	0xbe92afb5	-0.2864968
79	0x3ce6b895	0.028164187
80	0x3f2c6bbd	0.67351896
81	0x3e177362	0.14790109
82	0xbf2f6733	-0.68516845
83	0x3f1afbfa	0.60540736
84	0xbf2f9cf2	-0.68598855
85	0xbf234308	-0.63774157
86	0x3efe141a	0.4962471
87	0xbf231451	-0.63702875
88	0x3e968dcf	0.29405066
89	0x3dbb808b	0.09155377
90	0xbc99fad5	-0.018796364
91	0x3f12a966	0.5728973
92	0xbf04bcfe	-0.5185088
93	0x3f1d6fcf	0.6149873
94	0xbc72d6c0	-0.014821708
95	0x3e2d28a5	0.16910036
96	0x3f1cff7e	0.6132735
97	0xbb29bfb7	-0.0025901624
98	0x3e74c5e5	0.23903616
99	0xbe44d4d1	-0.19221808
100	0xbeb779fa	-0.35835248
101	0x3e94c865	0.2905914
102	0xbf26804c	-0.65039515
103	0xbe0d82e2	-0.13819459
104	0x3f035872	0.5130683
105	0x3d087b22	0.033320554
106	0x3f0ace62	0.54221165
107	0xbf117ac1	-0.5682793
108	0x3d79832c	0.06091611
109	0x3ea423f3	0.32058677
110	0xbf0eeb3a	-0.5582768
111	0x3e864c31	0.26230004
112	0x3eaca27a	0.3371771
113	0xbf01e74e	-0.5074357
114	0xbd4059dd	-0.0469607
115	0xbebcf0e4	-0.36902535
116	0xbe9afd2f	-0.3027129
117	0xbf0f31c8	-0.55935335
118	0xbedcacbc	-0.43100536
119	0x3dd4add8	0.103847206
120	0xbe8c5174	-0.27405894
121	0x3e1836da	0.14864674
122	0xbe9eb751	-0.30999234
123	0x3ef783f1	0.4834285
124	0x3ef3ab43	0.475916
125	0x3e45bd7a	0.19310561
126	0x3da4855e	0.0803325
127	0xbe8dfa5f	-0.2773008
128	0x3f02dc47	0.51117367
129	0x3dfc0dcc	0.12307319
130	0x3e4d5a0c	0.20053881
131	0xbf17f685	-0.59360534
132	0xbea03749	-0.3129218
133	0xbd5e38ef	-0.054253515
134	0x3eca4e69	0.39512947
135	0x3e066ae0	0.13126707
136	0x3e40a26d	0.1881196
137	0x3ee86632	0.4539047
138	0xbf104d0d	-0.5636757
139	0xbf00bbe8	-0.5028672
140	0xbdaf5355	-0.08560816
141	0x3efc7eb8	0.4931543
142	0x3ee72bc2	0.45150572
143	0x3e853569	0.2601731
144	0xbef97dd5	-0.48728815
145	0xbf0a70f7	-0.5407862
146	0x3e65e08d	0.2244894
147	0x3d928c20	0.07155633
148	0xbee3cc08	-0.444916
149	0x3f03520f	0.51297086
150	0xbdfd1159	-0.123568244
151	0xbd9d147e	-0.07669924
152	0x3dc7dd86	0.09759049
153	0x3f23a605	0.639252
154	0xbf27eda0	-0.6559696
155	0xbf1e0ab6	-0.61735094
156	0x3e5e1c2c	0.21690434
157	0xbe2022d3	-0.15638284
158	0xbe970789	-0.29497936
159	0xbd3ddcd6	-0.046353184
160	0x3d990f9d	0.07473681
161	0x3ec9f209	0.3944247
162	0x3eb11a5d	0.34590426
163	0x3e99c6fe	0.30034631
164	0xbdb0c7c9	-0.08631856
165	0xbe09ef86	-0.13470277
166	0xbf1e5fdf	-0.6186504
167	0xbefb7594	-0.49113142
168	0x3e3d04d8	0.18458879
169	0x3f217c96	0.6308073
170	0x3dfa6958	0.12227124
171	0xbead22b1	-0.3381553
172	0x3d3714df	0.04469764
173	0xbeb8cc23	-0.36093244
174	0xbec71fcd	-0.3889145
175	0xbe108854	-0.14114505
176	0x3e699cbc	0.22813696
177	0x3e261fe3	0.16223101
178	0x3d2af892	0.04174096
179	0xbf1a810b	-0.60353154
180	0xbef1934a	-0.47182685
181	0xbea78724	-0.32720292
182	0x3e0f32c5	0.13984211
183	0xbee8b034	-0.45446932
184	0xbf07159d	-0.52767354
185	0x3f2406c5	0.6407283
186	0x3d2e897d	0.042611588
187	0x3e5e6a95	0.21720345
188	0x3eb11340	0.34585
189	0xbf0b7280	-0.5447159
190	0xbd09fa4e	-0.033685975
191	0x3e9d526d	0.30726948
192	0x3e6be64a	0.23037067
193	0x3c8fabf7	0.017538054
194	0xbd4082ad	-0.046999622
195	0xbe980960	-0.29694653
196	0x3e0c1817	0.13681065
197	0xba44408e	-0.0007486426
198	0x3eb682f4	0.35646784
199	0xbdb00c3f	-0.08596086
200	0x3f1b8f43	0.60765475
201	0x3ed32a80	0.41243362
202	0xbe473cac	-0.19456738
203	0xbf2bd70c	-0.6712501
204	0x3ef30427	0.47464105
205	0x3f25fb52	0.6483661
206	0xbea26d35	-0.31723943
207	0xbee5fd70	-0.4491992
208	0x3e2c6f0f	0.1683924
209	0xbe2acf98	-0.16680753
210	0xbb4ac006	-0.0030937209
211	0x3e1738d3	0.1476777
212	0x3efd1065	0.4942657
213	0xbf22ab3d	-0.6354254
214	0x3eea28c8	0.4573424
215	0xbf1f0137	-0.6211123
216	0xbde2f738	-0.110823095
217	0x3ee435d3	0.44572315
218	0x3e205ca3	0.15660338
219	0xbf10345c	-0.56329894
220	0xbe674fa3	-0.22588973
221	0x3e8a8793	0.2705656
222	0x3d676dcb	0.05650119
223	0x3f000310	0.50004673
224	0x3f1d0bc2	0.61346066
225	0xbeea6fa1	-0.4578829
226	0x3e5413b3	0.2071064
227	0x3f093221	0.53592116
228	0x3f06b64c	0.5262191
229	0x3efca812	0.49346977
230	0xbef10b6c	-0.47079027
231	0xbcd49805	-0.025951395
232	0xbe63a8b1	-0.2223232
233	0x3f10d574	0.56575704
234	0x3f146f18	0.57982016
235	0xbeef62e8	-0.46755147
236	0x3f0bccb0	0.54609203
237	0x3e407829	0.18795837
238	0xbeb48ed7	-0.35265228
239	0xbf12e2f0	-0.5737753
240	0x3e8ba03c	0.27270687
241	0xbe6461d1	-0.22302939
242	0x3e34a307	0.17640315
243	0xbef92e6f	-0.4866824
244	0xbc4bc86a	-0.012437919
245	0xbe94eb27	-0.29085657
246	0x3ed1ab8b	0.4095119
247	0x3f130f7f	0.5744552
248	0xbdfbd765	-0.122969426
249	0x3eff4352	0.4985605
250	0xbe1052d9	-0.14094104
251	0x3efbe380	0.49197006
252	0x3d6398b9	0.05556557
253	0xbe78db9f	-0.24302529
254	0xbed19ba1	-0.40939048
255	0xbea7e6eb	-0.32793364

GNN3.bias f4 [2]
0	0xbf0ed164	-0.55788255
1	0xbf0516fd	-0.519882
