trained_models/iS_GNN_Trained_ep_100_bs64_lr5em04_z96_k_diff_1_kNN_8_ramps_30_b_cap_75.0.pth (torch, 135335 bytes, 6 tensors)

GNN1.Theta1 f4 [48, 96]
0.023160681 0.023888228 -0.0037378853 0.0716566 -0.00285913 0.0082635395 -0.039633483 0.041505378
0.060214564 -0.024849862 0.063497424 0.021177718 0.07789426 0.03998095 0.037467577 0.017020704
0.041871242 0.030013729 -0.022481132 0.007708281 -0.002095611 0.028530873 -0.018591596 0.032669537
-0.046210285 -0.013134825 -0.026310638 0.00084811973 0.030803358 -0.0502233 0.06756578 -0.019830659
0.044143092 0.0144199785 -0.06997484 0.03576052 0.06467318 0.05906168 0.008424497 -0.019946538
0.02847988 -0.01691703 0.019312346 0.041844424 0.032011963 -0.022398245 0.02370999 0.045765106
0.017478956 -0.024446774 -0.061058015 -0.025213392 -0.06763804 0.059418913 0.014634433 0.03353428
0.024086187 -0.020547317 0.034574855 -0.0019664934 -0.0015940007 -0.02682999 0.015261578 0.0033155724
0.0033602642 -0.007277463 0.044203207 -0.0235054 -0.057225637 -0.027374996 0.06106663 0.038167123
0.02620773 -0.04700735 -0.0416513 -0.054715868 -0.04088072 0.030930934 0.018473648 0.059408173
-0.008823992 -0.07130902 -0.0013457969 -0.0017875538 0.035226017 -0.021383315 0.02390965 -0.03291359
-0.052497946 0.010834501 0.015123514 -0.009371489 0.05102693 0.054951876 -0.02232136 -0.03123651
0.033674743 -0.06082588 -0.019754473 -0.08240402 -0.016743725 -0.002084845 0.0068519493 -0.0453836
0.038201842 -0.007910296 -0.1109995 -0.08015916 -0.061707653 -0.005923822 0.10066121 0.04620231
0.008845035 -0.083307296 -0.030731117 -0.030166434 0.03041732 -0.04484146 -0.043572538 -0.09842004
0.01958015 -0.033592492 -0.0056570917 -0.053075224 -0.0049852645 -0.031740062 -0.046306252 -0.04832595
0.077131785 -0.046675894 0.048413727 0.0029770539 -0.020525191 0.07374276 -0.012251867 -0.042134166
-0.09732052 -0.06857906 -0.0016562693 -0.01165375 0.03207401 -0.024892585 0.091537856 -0.038071465
-0.031967904 0.052182812 0.07096345 0.086414106 0.09467826 -0.036354553 0.038699258 -0.055111993
-0.0015397634 -0.07766818 0.07198007 -0.023805533 0.03964938 0.044319976 0.03782822 -0.000624787
0.052614447 0.030772792 -0.008169555 -0.063778184 0.014656495 0.005761035 -0.08462917 0.10561999
-0.025310164 -0.049367774 -0.02512177 0.019399494 0.06373984 0.025694678 -0.09215007 -0.030754995
-0.071350805 0.03288083 0.033820372 -0.039110266 0.030348083 0.02561135 0.016540403 0.03671547
0.04969634 0.038135726 0.048392102 0.012075784 0.0002518669 -0.010323661 0.027224287 -0.038401946
0.0054590935 0.06132522 0.0063243886 -0.0065006986 0.04319349 -0.033674277 0.044860326 0.057303097
-0.05689076 0.024141686 0.061539188 0.015801525 0.022541873 -0.002470817 -0.06380304 -0.064498544
-0.05587479 0.046351183 0.1013775 0.05092727 -0.07575924 -0.01641118 -0.015703835 0.061410945
0.034061387 -0.02204603 0.04364002 -0.022788474 -0.0009906129 0.10229669 -0.057778534 0.011769683
-0.109975986 0.041886985 0.03792552 0.008372739 -0.0052644555 -0.097616926 -0.06706282 0.07309651
0.036398504 0.118772715 0.022609957 0.03647221 -0.008660585 -0.01875273 -0.07167994 -0.058615956
0.027435727 -0.019244041 -0.0022666377 -0.054718908 -0.016894424 -0.027262138 -0.053675335 0.022642773
-0.020687738 0.06173154 -0.05372679 -0.023766417 -0.032905445 -0.041023012 -0.026562486 -0.042607825
00000000: 78bb bd3c 3fb1 c33c 4ff7 74bb b2c0 923d
00000010: 3e60 3bbb cc63 073c b856 22bd 8b01 2a3d
00000020: 8ca3 763d f091 cbbc f00a 823d e57c ad3c
00000030: 0787 9f3d 11c3 233d 9a77 193d 016f 8b3c
00000040: 2e81 2b3d 5adf f53c 5a2a b8bc bf95 fc3b
00000050: 8556 09bb 94b9 e93c 674d 98bc 7ed0 053d
00000060: ff46 3dbd 7333 57bc 6889 d7bc 5a54 5e3a
00000070: 5357 fc3c f2b6 4dbd ed5f 8a3d e873 a2bc
00000080: 63cf 343d c641 6c3c f84e 8fbd 9f79 123d
00000090: 5f73 843d a9ea 713d e706 0a3c ec66 a3bc
000000a0: a34e e93c 9595 8abc ed34 9e3c 0f65 2b3d
000000b0: fa1e 033d 867c b7bc 743b c23c 3174 3b3d
000000c0: 0730 8f3c 9a44 c8bc f817 7abd 518c cebc
000000d0: d085 8abd 3f61 733d 43c5 6f3c 3e5b 093d
000000e0: 6550 c53c d952 a8bc 5d9e 0d3d 49e0 00bb
000000f0: caed d0ba 91ca dbbc b30b 7a3c 134a 593b
00000100: e137 5c3b c977 eebb 6c0e 353d 668e c0bc
00000110: 6e65 6abd 8741 e0bc 0121 7a3d 2155 1c3d
00000120: 98b1 d63c c78a 40bd 8e9a 2abd bf1d 60bd
00000130: 8b72 27bd df62 fd3c 0c56 973c fc55 733d
00000140: 8192 10bc 770a 92bd 7365 b0ba 5a4c eaba
00000150: 2849 103d 102c afbc 2cde c33c 67d0 06bd
00000160: 1608 57bd 3183 313c 9ec8 773c e08a 19bc
00000170: 9d01 513d 3815 613d 49db b6bc b6e3 ffbc
00000180: 87ee 093d 8f24 79bd 22d4 a1bc 70c3 a8bd
00000190: 232a 89bc e5a1 08bb 5186 e03b 27e4 39bd
000001a0: 8979 1c3d 309a 01bc b553 e3bd 7c2a a4bd
000001b0: 2ac1 7cbd 9f1c c2bb 7727 ce3d a23e 3d3d
000001c0: c4ea 103c 049d aabd d3bf fbbc 991f f7bc
000001d0: be2d f93c aeab 37bd 1e79 32bd 7290 c9bd
000001e0: 8d66 a03c 4898 09bd 205f b9bb 6865 59bd
000001f0: 6e5b a3bb de01 02bd a0ab 3dbd 6ef1 45bd
00000200: 45f7 9d3d 392f 3fbd 794d 463d ad1a 433b
00000210: 7224 a8bc 7206 973d 0ebc 48bc e094 2cbd
00000220: fb4f c7bd 2e73 8cbd 2d17 d9ba 5fef 3ebc
00000230: 0a60 033d 89eb cbbc 3378 bb3d d3f0 1bbd
00000240: c7f0 02bd a5bd 553d 4955 913d e1f9 b03d
00000250: ade6 c13d 83e8 14bd 1d83 1e3d 1dbd 61bd
00000260: e3d1 c9ba 7f10 9fbd 496a 933d d203 c3bc
00000270: 6367 223d dd88 353d c3f1 1a3d bfc8 23ba
00000280: 3f82 573d 3917 fc3c 99d9 05bc 239e 82bd
00000290: cc21 703c 10c7 bc3b 0f52 adbd 4b4f d83d
000002a0: 4357 cfbc dd35 4abd 2ccc cdbc b0eb 9e3c
000002b0: 098a 823d a57d d23c 2db9 bcbd e6f1 fbbc
000002c0: 5f20 92bd 0dae 063d 3b87 0a3d 1632 20bd
000002d0: 8b9c f83c e5ce d13c bd7f 873c f662 163d
000002e0: 648e 4b3d 3534 1c3d cc36 463d 82d9 453c
000002f0: 010d 8439 9324 29bc 7805 df3c 5c4b 1dbd
00000300: 32e2 b23b 2730 7b3d d13c cf3b d003 d5bb
00000310: a8eb 303d 0aee 09bd 76bf 373d a7b6 6a3d
00000320: 4906 69bd c9c4 c53c 8410 7c3d 3372 813c
00000330: bca9 b83c 6eed 21bb 2bab 82bd d017 84bd
00000340: f7dc 64bd bdda 3d3d 029f cf3d 1d99 503d
00000350: a927 9bbd bd70 86bc 54a5 80bc 0b8a 7b3d
00000360: f483 0b3d e099 b4bc e1bf 323d e5ae babc
00000370: 74d7 81ba ed80 d13d 2fa9 6cbd a1d5 403c
00000380: 173b e1bd b091 2b3d ca57 1b3d d02d 093c
00000390: 7481 acbb 62eb c7bd 3b58 89bd 9fb3 953d
000003a0: 9916 153d 1c3f f33d 8438 b93c e263 153d
000003b0: 20e5 0dbc 539f 99bc efcc 92bd 4917 70bd
000003c0: e4c0 e03c aea5 9dbc df8b 14bb ef20 60bd
000003d0: 2d66 8abc d954 dfbc abda 5bbd 567d b93c
000003e0: 5579 a9bc 36da 7c3d 9f10 5cbd cab1 c2bc
000003f0: dcc7 06bd bf07 28bd 9299 d9bc 8b85 2ebd

GNN1.bias f4 [96]
0.015630217 -0.039391953 0.028822558 -0.06126192 -0.023867195 0.020594262 0.067159064 0.0101186745
-0.048249282 -0.067256734 -0.015689198 -0.03423438 0.085935526 -0.045439683 0.04296025 0.005846831
-0.023900986 0.0634048 0.005000266 -0.005268132 -0.04134862 -0.020468302 0.024746448 0.06070523
-0.032647748 -0.023725782 -0.0653381 0.06518207 0.061982334 0.04040476 -0.03338206 0.03750893
-0.018526793 0.04982836 0.07263379 -0.08889625 0.03243704 0.03431974 -0.06280889 0.100847684
0.04980552 0.050351832 0.001243835 -0.048865527 -0.019711804 0.051777955 -0.018539514 0.06732581
0.062304087 0.0074939206 -0.06967064 0.057445858 0.08581884 -0.012381472 -0.03346769 -0.006715872
-0.0021139798 -0.05924275 0.05236491 0.057191674 -0.04220967 -0.031138794 -0.022805305 0.07520562
0.027528914 0.023116395 -0.0045866254 0.013601355 0.121587016 0.025496565 -0.045742743 0.06547702
-0.04667613 0.016523967 -0.04019439 -0.0016516903 0.0042485283 -0.02658192 0.06186918 0.07361433
-0.045779414 0.026347736 -0.058928706 -0.012390128 0.043527897 -0.0070388154 0.014502858 -0.03818689
0.08063339 -0.02412524 0.03166164 0.02792944 0.086417064 0.0003417431 0.06618173 0.04624294
00000000: f10a 803c 7559 21bd 491d ec3c c7ed 7abd
00000010: 2385 c3bc 4cb5 a83c b18a 893d ccc8 253c
00000020: 0aa1 45bd e6bd 89bd a286 80bc 5939 0cbd
00000030: f7fe af3d f61e 3abd 16f7 2f3d c696 bf3b
00000040: 00cc c3bc 60da 813d 45d9 a33b 4ba0 acbb
00000050: 2c5d 29bd 24ad a7bc 10b9 ca3c 0ca6 783d
00000060: a5b9 05bd 925c c2bc fbcf 85bd 2d7e 853d
00000070: 30e1 7d3d 767f 253d a0bb 08bd f7a2 193d
00000080: 80c5 97bc d318 4c3d 06c1 943d 3d0f b6bd
00000090: b4dc 043d db92 0c3d f3a1 80bd 3b89 ce3d
000000a0: df00 4c3d b93d 4e3d 2d08 a33a 3827 48bd
000000b0: a67a a1bc 1f15 543d 2ee0 97bc 1de2 893d
000000c0: 9232 7f3d 908f f53b 7baf 8ebd 594c 6b3d
000000d0: cac1 af3d a8db 4abc 6b15 09bd d110 dcbb
000000e0: b28a 0abb 87a8 72bd 967c 563d d141 6a3d
000000f0: 0ce4 2cbd c916 ffbc 31d2 babc 6705 9a3d
00000100: 5184 e13c 985e bd3c 674b 96bb 38d8 5e3c
00000110: 9d02 f93d 2cde d03c be5c 3bbd d118 863d
00000120: 782f 3fbd 455d 873c dfa2 24bd 887d d8ba
00000130: 3d37 8b3b 54c2 d9bc 8a6a 7d3d 1cc3 963d
00000140: 3283 3bbd 35d7 d73c 3a5f 71bd f7ff 4abc
00000150: 4f4a 323d dda5 e6bb 659d 6d3c db69 1cbd
00000160: 1e23 a53d 4ca2 c5bc a3af 013d 48cc e43c
00000170: 6efb b03d fc2b b339 498a 873d 3d69 3d3d

GNN2.Theta1 f4 [288, 96]
0.04756829 -0.0046985685 0.027935293 0.08055615 -0.03181785 -0.031864304 0.09962422 0.033717427
-0.08212434 0.035258792 -0.09752957 -0.058032908 0.039793525 0.044674914 -0.026260287 0.08065369
0.075436756 0.05420211 -0.057604305 -0.022230146 0.010813951 0.06623952 -0.033608805 0.013200759
0.03980497 -0.038930494 -0.039083675 0.100012116 -0.0060787466 0.07201896 -0.110198915 -0.040639266
0.051117748 -0.005259928 0.027833909 -0.08168592 0.090132184 -0.05186 0.011894881 -0.06481802
-0.060074497 -0.08673635 -0.10317385 0.008559571 -0.044331066 0.057144653 -0.014482305 0.07136521
-0.010515575 0.025956897 0.09100288 -0.09855282 -0.038313996 0.074965656 -0.047802173 -0.05612722
-0.0039050148 -0.040476464 0.023943195 -0.049484197 0.025656862 -0.040507983 -0.040314652 -0.034060933
0.010462765 0.056066643 -0.08613681 -0.05884331 -0.098035984 0.03724352 0.060852826 -0.09890072
0.015258402 0.032007277 -0.04628353 0.024123557 0.056764856 0.09328564 0.039708357 -0.019147793
-0.072702326 -0.01538866 0.010978295 0.018529234 0.08204923 -0.100583084 0.010863555 -0.042298377
0.012591994 0.09239673 0.009204104 -0.007882587 -0.02593606 -0.09770299 -0.0828688 0.037141737
-0.07249558 0.04670545 -0.027679097 0.019345753 0.082321145 0.018687453 0.05761023 0.086261645
-0.01593908 0.07746719 -0.08761836 0.09016437 -0.036254693 -0.009411774 0.05124792 -0.00422424
0.061465517 -0.07453353 -0.032803148 0.10361688 -0.06507723 0.049291477 0.07895504 0.056406215
-0.049421858 0.011060242 -0.066748686 -0.061898127 -0.019222518 -0.07212829 0.044262223 0.048731036
-0.050529584 -0.005926105 0.090832174 0.0039147013 0.07141569 0.093853205 -0.020477861 -0.10379736
0.07609517 -0.0490343 0.08695825 -0.0346123 0.017492805 0.014843178 -0.029875724 0.0767499
-0.08006594 -0.032611318 -0.017858692 0.060841005 0.051341336 0.05242247 0.018683875 0.059500486
-0.034355562 -0.021612864 0.003957249 0.029964715 -0.040852606 0.014722544 0.020924967 0.025473433
0.06869388 0.024600074 0.0762125 -0.014380207 -0.09046221 0.052377015 0.027943043 0.08747772
0.02228387 0.011454655 -0.06169452 -0.09149666 0.0015607337 0.08005857 -0.012231233 -0.037457425
0.03519753 -0.028697364 0.047787093 -0.053994466 -0.088940516 -0.06812001 -0.020888802 0.028516548
0.056029886 -0.06641664 -0.016506238 0.051208925 -0.010754973 0.00079839694 0.077451676 -0.031616833
0.042449906 0.071689665 0.03528072 -0.035610948 -0.056807537 -0.06370047 0.0027356043 0.031907827
0.07195176 -0.0025149877 0.08046476 -0.043717615 0.017575687 -0.057823054 0.021417506 0.075389646
0.007983446 -0.022836832 -0.014111369 -0.07123151 -0.073315494 -0.10849431 0.053197484 -0.05526065
-0.026105909 -0.07888976 -0.0032293077 0.080486536 0.02066627 -0.022920808 0.038576923 0.07393628
0.05809818 -0.0653903 -0.00042803146 -0.07360919 -0.085641265 0.077683665 -0.06599171 -0.05637266
0.029841075 0.10514306 -0.10978583 -0.035314854 -0.04104044 0.06372981 0.053712126 0.060788307
0.077868454 -0.015742982 0.073461205 -0.020194741 0.013660587 -0.040295415 0.01804811 0.013280039
-0.01975644 0.09974426 -0.00846038 0.015647672 0.081775956 0.03474041 -0.04422237 -0.044756565
00000000: f8d6 423d 73f6 99bb 8ed8 e43c 9ffa a43d
00000010: 6f53 02bd 2584 02bd c807 cc3d 491b 0a3d
00000020: ce30 a8bd 866b 103d 95bd c7bd eab3 6dbd
00000030: 89fe 223d 0bfd 363d d01f d7bc c32d a53d
00000040: 967e 9a3d 0803 5e3d 7ef2 6bbd ff1b b6bc
00000050: ff2c 313c 96a8 873d 63a9 09bd ff47 583c
00000060: 890a 233d 9575 1fbd 3416 20bd 27d3 cc3d
00000070: 3930 c7bb ad7e 933d f8af e1bd 5c75 26bd
00000080: d860 513d 795b acbb f003 e43c f34a a7bd
00000090: 3997 b83d 276b 54bd bfe2 423c 4fbf 84bd
000000a0: ad10 76bd d4a2 b1bd d04c d3bd 713d 0c3c
000000b0: 7e94 35bd 8310 6a3d 3147 6dbc ec27 923d
000000c0: 8549 2cbc 8fa3 d43c b85f ba3d 10d6 c9bd
000000d0: 23ef 1cbd 9887 993d 36cc 43bd a8e5 65bd
000000e0: 47eb 7fbb a6ca 25bd 8524 c43c f1af 4abd
000000f0: 572e d23c b3eb 25bd fa20 25bd 7a83 0bbd
00000100: 046c 2b3c 23a6 653d 7f68 b0bd af05 71bd
00000110: 17c7 c8bd a98c 183d d040 793d 768c cabd
00000120: 60fe 793c 101a 033d cc93 3dbd c49e c53c
00000130: 4482 683d 8b0c bf3d 3ba5 223d d5db 9cbc
00000140: f5e4 94bd b820 7cbc 4ede 333c 9fca 973c
00000150: 6d09 a83d 81fe cdbd 0dfd 313c 1041 2dbd
00000160: a74e 4e3c 7f3a bd3d cfcc 163c f725 01bc
00000170: dc77 d4bc 8118 c8bd 1eb7 a9bd ef21 183d
00000180: 9078 94bd 374e 3f3d 46bf e2bc fc7a 9e3c
00000190: fd97 a83d 6e16 993c b4f8 6b3d f2a9 b03d
000001a0: ac92 82bc 1ea7 9e3d 4171 b3bd 19a8 b83d
000001b0: cd7f 14bd d733 1abc 57e9 513d 7e6b 8abb
000001c0: 44c3 7b3d 09a5 98bd 985c 06bd 1635 d43d
000001d0: 3647 85bd dce5 493d 2eb3 a13d 340a 673d
000001e0: 936e 4abd 0436 353c 89b3 88bd e488 7dbd
000001f0: 8b78 9dbc ffb7 93bd 4e4c 353d 329a 473d
00000200: 1cf8 4ebd c62f c2bb 3806 ba3d e546 803b
00000210: 6442 923d 1c36 c03d 30c1 a7bc b693 d4bd
00000220: c9d7 9b3d 31d8 48bd 2b17 b23d a1c5 0dbd
00000230: 124d 8f3c cd30 733c efbd f4bc 0d2f 9d3d
00000240: 9df9 a3bd 7293 05bd 644c 92bc 6b34 793d
00000250: 4b4b 523d f2b8 563d ed0e 993c c8b6 733d
00000260: 6bb8 0cbd 760d b1bc d0ab 813b 9078 f53c
00000270: 1055 27bd d336 713c d66a ab3c a9ad d03c
00000280: 61af 8c3d 1886 c93c 4d15 9c3d f69a 6bbc
00000290: 4044 b9bd 4889 563d cfe8 e43c 8527 b33d
000002a0: aa8c b63c 4eac 3b3c 65b3 7cbd 9a62 bbbd
000002b0: 8891 cc3a bff5 a33d 8265 48bc f56c 19bd
000002c0: 492b 103d bc16 ebbc 66bc 433d 4d29 5dbd
000002d0: 7226 b6bd 8182 8bbd fe1e abbc 899b e93c
000002e0: 987f 653d 7305 88bd 1738 87bc 73c0 513d
000002f0: a035 30bc 834b 513a fc9e 9e3d a780 01bd
00000300: f4df 2d3d 08d2 923d 8482 103d c9dc 11bd
00000310: 05af 68bd 6475 82bd d347 333b c8b1 023d
00000320: 725b 933d 7ed2 24bb b5ca a43d 3e11 33bd
00000330: e3fa 8f3c ded7 6cbd c473 af3c e365 9a3d
00000340: 00cd 023c 4f14 bbbc 5f33 67bc d3e1 91bd
00000350: 6f26 96bd 4432 debd 9be5 593d fe58 62bd
00000360: 0fdc d5bc f490 a1bd cba2 53bb 20d6 a43d
00000370: 4f4c a93c 6bc4 bbbc d602 1e3d e86b 973d
00000380: 5bf8 6d3d 59eb 85bd 6969 e0b9 6ac0 96bd
00000390: b064 afbd 9d18 9f3d a926 87bd 05e7 66bd
000003a0: 4575 f43c 3f55 d73d 65d7 e0bd 4fa6 10bd
000003b0: 051a 28bd c684 823d 3f01 5c3d 29fd 783d
000003c0: 7f79 9f3d 6df7 80bc d472 963d 716f a5bc
000003d0: a8d0 5f3c ce0c 25bd a1d9 933c 8594 593c
000003e0: 42d8 a1bc b846 cc3d 689d 0abc 8c2f 803c
000003f0: 277a a73d f64b 0e3d 8422 35bd a952 37bd

GNN2.bias f4 [96]
-0.027501306 -0.017032642 -0.011754367 0.043564737 0.0115574235 0.021090193 0.0063845715 -0.0012905534
-0.0044202018 -0.01829203 0.015123874 0.01618684 -0.027871652 0.007284679 0.047798477 -0.024741685
-0.045399398 -0.001722525 -0.04626415 0.013075585 0.024490427 -0.0052085165 0.034523476 0.0061985087
0.019722352 0.0046435995 -7.99679e-05 -0.046025436 -0.019596202 0.017664567 -0.0007102917 -0.04075795
-0.0014918515 -0.007533992 0.031728406 -0.0010389726 -0.021487067 -0.014894706 0.014900558 -0.014683542
-0.007212334 -0.027431091 -0.022813933 -0.015282235 0.032772955 -0.00018962046 0.014641614 -0.011759192
-0.005210165 0.03603051 -0.009855997 0.023315573 0.05591414 -0.0480869 0.015969956 -0.031157875
0.0329438 -0.016588908 0.007342441 -0.04780566 0.01255633 -0.0019903288 -0.014255625 -0.041464433
-0.009644482 -0.009035963 0.0035454237 0.038034018 0.03771696 0.0051135966 0.032933205 0.03214556
-0.02302117 -0.024020933 -0.011974503 -0.004862453 -0.0045254775 -0.010757904 -0.0074920678 -0.035958476
-0.0011955329 0.034972012 0.029884443 0.0035866518 -0.02562247 0.029948903 0.048707973 0.049507044
-0.01501771 -0.044648435 -0.008779453 -0.017448472 0.00036484454 0.024203343 -0.022736585 0.033172503
00000000: 6b4a e1bc 0a88 8bbc 6395 40bc f070 323d
00000010: 595b 3d3c 57c5 ac3c ab35 d13b c927 a9ba
00000020: 57d7 90bb 2bd9 95bc 20ca 773c 449a 843c
00000030: 1753 e4bc 51b4 ee3b 56c8 433d 13af cabc
00000040: b8f4 39bd 59c6 e1ba 7a7f 3dbd fa3a 563c
00000050: 26a0 c83c 34ac aabb 7d68 0d3d dc1c cb3b
00000060: c590 a13c 5629 983b 70b4 a7b8 2b85 3cbd
00000070: 3788 a0bc 48b5 903c de32 3aba cff1 26bd
00000080: 3b8a c3ba b5df f6bb a5f5 013d 232e 88ba
00000090: a505 b0bc ed08 74bc 7821 743c 3d93 70bc
000000a0: 7155 ecbb 2bb7 e0bc 49e4 babc 5762 7abc
000000b0: ef3c 063d dbd4 46b9 61e3 6f3c a0a9 40bc
000000c0: 08ba aabb ba94 133d 0c7b 21bc 4d00 bf3c
000000d0: 3a06 653d c5f6 44bd 6dd3 823c cd3e ffbc
000000e0: 14f0 063d 76e5 87bc dc98 f03b decf 43bd
000000f0: 11b9 4d3c 2d70 02bb 6d90 69bc 9cd6 29bd
00000100: e403 1ebc 930b 14bc 575a 683b 8fc9 1b3d
00000110: 197d 1a3d f58f a73b f8e4 063d 10ab 033d
00000120: e596 bcbc 8cc7 c4bc b530 44bc 3655 9fbb
00000130: 754a 94bb eb41 30bc 0580 f5bb 3249 13bd
00000140: 6db3 9cba d03e 0f3d 38d0 f43c 080e 6b3b
00000150: 37e6 d1bc 6757 f53c 0382 473d e6c7 4a3d
00000160: d70c 76bc 47e1 36bd b2d7 0fbc 19f0 8ebc
00000170: 9b48 bf39 1746 c63c 1342 babc e4df 073d

GNN3.Theta1 f4 [288, 2]
0.27412903 0.23750287 -0.7041492 0.66492945 0.42343476 -0.6828839 -0.44055462 0.339465
-0.12312202 -0.45056388 0.15255311 -0.61753595 0.5127425 0.51399136 0.32122374 0.26080328
-0.48826194 -0.13957494 0.31442717 0.1816798 0.5477185 0.16807392 -0.5966488 -0.4414044
0.42931056 0.44321474 0.10905403 0.11317854 0.345411 -0.681227 -0.62161905 -0.2959636
-0.28523272 -0.033752177 0.35862046 -0.1426485 0.004561877 -0.5206456 -0.30414256 0.5718702
0.5524959 -0.16033004 0.23369816 0.5335721 0.48559225 -0.06115718 -0.49273556 -0.25748098
0.32094213 -0.2924048 0.3000674 -0.48116863 0.24782076 0.4711265 -0.1399509 0.61942023
0.4065905 -0.060277913 -0.17857069 -0.022481907 -0.3144788 -0.06108969 -0.57228005 0.286561
0.16405377 -0.50306803 -0.08841598 0.20182228 -0.37530142 0.24129932 -0.44058552 -0.006485246
-0.058777336 -0.4225181 -0.075751595 -0.24337578 -0.090024464 0.17338257 -0.118200384 -0.11664998
0.5574177 0.5071636 -0.37324858 0.054839525 0.23802938 0.10480097 0.030532312 -0.21043281
0.10426201 -0.34918845 -0.09474042 -0.23490594 0.29287592 0.3147793 -0.5549984 -0.4896125
0.1073497 0.24551791 -0.58200485 0.09428265 -0.32739586 -0.57106555 0.6372919 -0.43914682
-0.3095073 0.6913327 -0.3952776 -0.2804756 -0.42118043 -0.33231688 0.08535356 0.40405676
0.23310617 -0.16879389 0.13811873 -0.42071894 0.4835761 -0.41042304 0.27616662 -0.4504866
-0.25092795 -0.6354072 0.14774841 0.3539173 -0.44751197 0.26210898 -0.07765288 0.15341352
-0.39720446 -0.52138084 -0.016868854 0.2848045 -0.59602267 -0.38536015 -0.4487615 -0.044164192
-0.4198359 -0.30425972 -0.23420544 -0.4514071 -0.325616 -0.289438 -0.10123789 0.59082794
-0.05086144 0.5390939 0.04015677 0.2722021 0.22725384 -0.099874735 0.62215537 -0.35113722
-0.23153277 0.18261889 0.017679635 -0.21172743 0.33775362 -0.6472731 0.5936865 0.16804196
-0.15695724 0.62498826 -0.15618038 -0.6791676 -0.39812165 0.5753259 -0.270778 0.20523585
-0.21442467 0.36457932 -0.31230456 0.5167557 0.6106062 -0.04522006 -0.46638748 0.15506043
-0.26880008 -0.47371948 -0.107707314 -0.06444618 0.1631688 -0.07015181 0.1601284 -0.08393258
-0.6657174 0.048655406 0.29733074 0.5473318 -0.51376235 -0.30314428 -0.32552296 -0.18465495
-0.27928656 0.6174135 -0.4745386 -0.5048708 -0.028555434 0.15113196 0.5740566 0.08681296
0.54865015 0.11853373 -0.714243 0.12488686 0.0408623 -0.07289602 0.15477532 -0.32371283
0.5666051 -0.39111346 0.62905574 0.42853856 0.45025635 -0.269758 -0.67813456 0.41220677
-0.5158341 -0.4829678 0.005569459 -0.46327224 0.18513459 0.6369272 -0.097925566 -0.28039777
-0.32576597 0.1579113 0.16267641 0.46268582 -0.62153167 0.1317587 -0.39434737 0.3222186
-0.12776056 0.55566 -0.14887317 -0.6968923 0.0018201419 0.648415 -0.3009141 0.096828
-0.20395525 -0.2995603 0.3341554 -0.23984414 -0.44774204 0.64612037 -0.5913705 -0.1455723
0.65224844 -0.110704176 0.22204408 0.52779126 -0.009209125 -0.20910822 -0.12309044 0.17892653
00000000: a45a 8c3e f433 733e 1f43 34bf d138 2a3f
00000010: 71cc d83e 7bd1 2ebf 6090 e1be 5bce ad3e
00000020: 6627 fcbd 4fb0 e6be e236 1c3e d616 1ebf
00000030: 1843 033f f094 033f 7077 a43e 0288 853e
00000040: 78fd f9be bcec 0ebe 99fc a03e 450a 3a3e
00000050: 4837 0c3f 921b 2c3e fabd 18bf c2ff e1be
00000060: 98ce db3e 0bed e23e b857 df3d 26ca e73d
00000070: b6d9 b03e e564 2ebf 6d22 1fbf 8a88 97be
00000080: 060a 92be b93f 0abd 1a9d b73e 7312 12be
00000090: cc7b 953b 0849 05bf 93b8 9bbe 1666 123f
000000a0: 5f70 0d3f 8f2d 24be 924e 6f3e 2e98 083f
000000b0: 8c9f f83e f47f 7abd d647 fcbe 8cd4 83be
000000c0: 8752 a43e 15b6 95be 6fa2 993e bc5b f6be
000000d0: bac4 7d3e 7e37 f13e 4a4f 0fbe 5392 1e3f
000000e0: a12c d03e f9e5 76bd 3cdb 36be fa2b b8bc
000000f0: 5e03 a1be 2f39 7abd f280 12bf 20b8 923e
00000100: b6fd 273e 11c9 00bf 7013 b5bd 80aa 4e3e
00000110: 8227 c0be 2b17 773e 6d94 e1be 3082 d4bb
00000120: 81c0 70bd 4b54 d8be a723 9bbd 8037 79be
00000130: bf5e b8bd 338b 313e 0b13 f2bd 2fe6 eebd
00000140: edb2 0e3f 79d5 013f 701a bfbe 699f 603d
00000150: f9bd 733e e4a1 d63d e61e fa3c b37b 57be
00000160: 5287 d53d d4c8 b2be 4407 c2bd 2f8b 70be
00000170: d5f3 953e c12a a13e 6014 0ebf 7dae fabe
00000180: 29da db3d 0c69 7b3e 45fe 14bf 4317 c13d
00000190: 6ea0 a7be 5a31 12bf 9025 233f dad7 e0be
000001a0: be77 9ebe 2efb 303f d361 cabe 7f9a 8fbe
000001b0: f6a4 d7be 7025 aabe d9cd ae3d 87e0 ce3e
000001c0: 62b3 6e3e 4ed8 2cbe ff6e 0d3e 7968 d7be
000001d0: 4997 f73e f822 d2be b665 8d3e 2ea6 e6be
000001e0: a179 80be 0caa 22bf 5c4b 173e a634 b53e
000001f0: 4a20 e5be 2633 863e 7908 9fbd 6f18 1d3e
00000200: 625e cbbe 3779 05bf 8d30 8abc e5d1 913e
00000210: f194 18bf ed4d c5be 11c4 e5be 83e5 34bd
00000220: bbf4 d6be eec7 9bbe 8dd3 6fbe d51e e7be
00000230: 24b7 a6be 3831 94be d055 cfbd 8040 173f
00000240: 1654 50bd 0f02 0a3f 6d7b 243d 135e 8b3e
00000250: 3bb5 683e 208b ccbd 9345 1f3f 42c8 b3be
00000260: ed16 6dbe 7200 3b3e e2d4 903c 13cf 58be
00000270: 0bee ac3e b1b3 25bf d7fb 173f 3113 2c3e
00000280: 66b9 20be 3bff 1f3f c0ed 1fbe eedd 2dbf
00000290: 9ad6 cbbe 8f48 133f 6aa3 8abe 5929 523e
000002a0: 2492 5bbe 24aa ba3e 62e6 9fbe 1a4a 043f
000002b0: b050 1c3f ab38 39bd 57ca eebe 29c8 1e3e
000002c0: 2aa0 89be 5c8b f2be a795 dcbd 5cfc 83bd
000002d0: b915 273e c1ab 8fbd b3f8 233e d8e4 abbd
000002e0: 756c 2abf e44a 473d bc3b 983e f01d 0c3f
000002f0: ee85 03bf ba35 9bbe f2aa a6be 3016 3dbe
00000300: a6fe 8ebe d00e 1e3f b9f6 f2be 363f 01bf
00000310: 16ed e9bc 56c2 1a3e 60f5 123f feca b13d
00000320: 5674 0c3f d0c1 f23d a1d8 36bf afc4 ff3d
00000330: 3a5f 273d 824a 95bd 6c7d 1e3e b0bd a5be
00000340: 080d 113f 0640 c8be cc09 213f 6869 db3e
00000350: 0088 e63e b81d 8abe 3a9a 2dbf c40c d33e
00000360: b40d 04bf 8e47 f7be 0280 b63b 0532 edbe
00000370: ec93 3d3e a90d 233f 338d c8bd 4c90 8fbe
00000380: ccca a6be 80b3 213e a594 263e 28e5 ec3e
00000390: b31c 1fbf c1eb 063e e6e7 c9be d6f9 a43e
000003a0: aad3 02be bc3f 0e3f 3572 18be 8967 32bf
000003b0: d491 ee3a 87fe 253f 6a11 9abe c24d c63d
000003c0: a5d9 50be f85f 99be 6b16 ab3e b499 75be
000003d0: 723e e5be 2568 253f 0f64 17bf e810 15be
000003e0: c1f9 263f dfb8 e2bd 865f 633e 541d 073f
000003f0: dfe1 16bc 7720 56be d716 fcbd 8438 373e

GNN3.bias f4 [2]
-0.5040802 0.052481852
00000000: 660b 01bf 36f7 563d
