trained_models/iS_GNN_Trained_ep_100_bs64_lr5em04_z96_k_diff_1_kNN_8_ramps_30_b_cap_80.0.pth (torch, 135335 bytes, 6 tensors)

GNN1.Theta1 f4 [48, 96]
00000000: 5707 9c3c a128 e03c 3558 ecba 457b 893d
00000010: 22ec 67bb ff17 f23b 5d4f 19bd ff7d 1c3d
00000020: 8fe5 7e3d 7f69 adbc 142a 713d ee6d 933c
00000030: 9b17 9b3d 8d75 263d 3aa7 183d 73c8 5e3c
00000040: 9af7 1f3d 0464 e53c 5517 9fbc 94e1 083c
00000050: 80db 51bb 7115 ea3c 616d babc 9748 003d
00000060: a731 28bd 71c0 4dbc 48f1 c9bc d5cd 8839
00000070: d5e7 053d 88c5 59bd b8fa 853d d162 b0bc
00000080: 4ecc 2b3d a4aa 213c 2ff9 8cbd d68f 053d
00000090: f4d7 843d 3395 693d fcc5 1e3c 5648 a3bc
000000a0: f67b dc3c a8d0 73bc 414c 9b3c 858a 2b3d
000000b0: f4b6 ee3c e6fc a1bc 5f76 c63c 1644 2d3d
000000c0: b5f4 a23c 4f22 c4bc 43b1 66bd 3e1c bcbc
000000d0: 613f 89bd ad15 7b3d c1c8 6a3c 95ab 053d
000000e0: aea7 c13c a515 a0bc f5c3 0c3d 9779 96bb
000000f0: 85e3 03bc 8f2e debc 9c51 873c 9d56 a83b
00000100: 53f7 ae3a 0d7f d5ba 1941 373d 0c7a bfbc
00000110: 6c68 60bd a9fa c3bc 5028 613d 6c83 223d
00000120: 6e0f bf3c dcdd 3cbd e50f 29bd 2a99 65bd
00000130: 00a7 1fbd a6c3 093d 6d66 8a3c 04ed 723d
00000140: 1510 1dbc fd47 95bd 4f8a 393b 9c30 41bb
00000150: fcb3 f63c a6be e3bc b332 c73c b1c1 00bd
00000160: fab6 50bd 2fa9 2d3c 7757 8b3c 81b8 abbb
00000170: 91ff 593d a512 603d d0d2 adbc 9fec fbbc
00000180: bdb6 023d 6ef4 81bd 54ac 8dbc 97ad a3bd
00000190: 7cfa 86bc 59aa 4abb 0bc7 b43b 54e8 47bd
000001a0: be94 1c3d a69a f9bb 6283 e3bd 73b1 9ebd
000001b0: 4912 7dbd c958 19bc 7bb8 c63d 9dc6 323d
000001c0: ee16 1e3c dd60 a4bd d9d8 16bd 61be 00bd
000001d0: 0c1b 043d 413f 30bd 7b82 20bd 770e c9bd
000001e0: 1cf9 a53c dec1 e0bc 4b0a 94bb e919 49bd
000001f0: c078 d6bb 08de 16bd 7062 38bd f6b0 41bd
00000200: 4d93 9e3d 8e8e 39bd 5d18 413d 398b be3a
00000210: da1b adbc f59b 933d c013 f2bb 1d85 32bd
00000220: aa42 c2bd 459a 93bd c0a6 0fbb 12f2 81bc
00000230: 071b 0d3d 14f4 a8bc 483f b23d e81d 07bd
00000240: d374 06bd e9ed 543d ba52 873d 4016 ad3d
00000250: dae9 bc3d bc19 10bd ce46 253d 72de 60bd
00000260: 74f7 1b3b 62f9 99bd f851 8d3d 65a7 afbc
00000270: 007f 163d f277 313d edb3 113d 8b3f 9d39
00000280: 1a15 4b3d 27b1 093d d95c 17bc b28b 7bbd
00000290: dd1f 673c c5c9 373c 99c5 a3bd e331 ca3d
000002a0: b66f c4bc d004 53bd 0f6f a4bc 87d2 a43c
000002b0: cc39 803d aad3 c43c c94b adbd 071e d3bc
000002c0: 3966 90bd 07f3 f23c 7a26 043d f5ca 24bd
000002d0: 11b6 003d c1b1 c43c 1887 583c f62d 153d
000002e0: debc 543d 531d 213d 2862 393d 63d4 5c3c
000002f0: 1ed9 fcb9 94b5 16bc 3474 fd3c 8d26 10bd
00000300: fc48 723b b46b 703d 72ed 0f3c daa5 83bb
00000310: 6603 323d 780e 0ebd 7347 323d 6ab2 5c3d
00000320: 08eb 68bd 312b c83c 0eb1 7b3d 4456 973c
00000330: cd07 b83c 888b c1bb 271a 8abd d253 89bd
00000340: f691 61bd e552 4a3d 9722 c33d 936a 4b3d
00000350: a965 97bd 7c2f 6fbc 7870 39bc 178e 7c3d
00000360: 394d 0e3d ee2a 82bc 846a 373d bc17 9abc
00000370: 6e26 27bb ee12 c73d f25f 67bd 8dd7 513c
00000380: 0e9f e0bd 3e32 313d b922 163d 9570 e03b
00000390: fc5f c0bb df55 cbbd d4c3 7ebd 8abb 923d
000003a0: 9631 1f3d 0518 ec3d 02d5 b43c b026 043d
000003b0: aff1 cdbb 5350 6dbc dc05 9cbd ad44 5bbd
000003c0: f6b8 d93c 7745 9fbc 4b6e eabb 2fe8 67bd
000003d0: eb58 9ebc 37b7 d5bc fe16 55bd 473a bb3c
000003e0: 5c5d 89bc 3984 833d d340 68bd 5d55 afbc
000003f0: 59b0 12bd a918 2cbd 3615 ecbc 0cbc 2abd
0.019046469 0.027363123 -0.0018031659 0.06712965 -0.003538855 0.0073881145 -0.037429202 0.038206097
0.062230643 -0.021168469 0.05887802 0.017996754 0.07572862 0.04063945 0.037268855 0.0135975955
0.03905449 0.028001793 -0.019420305 0.008354563 -0.0032021701 0.028574677 -0.022757234 0.031319227
-0.041062977 -0.012558089 -0.024651185 0.00026093298 0.032691795 -0.053166896 0.065419614 -0.021531494
0.041942887 0.009867344 -0.068834655 0.032607876 0.06486502 0.057027053 0.009690758 -0.019931953
0.026914578 -0.0148812905 0.01895726 0.04188015 0.029139973 -0.019773912 0.024226366 0.04230126
0.019892076 -0.02394214 -0.056321394 -0.022962686 -0.06701542 0.06129997 0.01433009 0.032634337
0.023639526 -0.01954157 0.034366567 -0.0045921314 -0.00804985 -0.02712181 0.016518407 0.005137278
0.0013348855 -0.0016288474 0.044739816 -0.023373626 -0.054787084 -0.023923235 0.054970086 0.039676115
0.023322787 -0.04611002 -0.041274924 -0.05605427 -0.038977623 0.03363385 0.016894544 0.059308067
-0.009586354 -0.07289121 0.0028311198 -0.0029478436 0.03011512 -0.02780087 0.024316167 -0.03143472
-0.05095575 0.010599419 0.01700948 -0.0052405004 0.053222243 0.05470528 -0.021218687 -0.030752478
0.031912554 -0.063454494 -0.017294087 -0.07992094 -0.016476862 -0.003092429 0.005516892 -0.04880555
0.03822779 -0.0076173125 -0.11109044 -0.077486895 -0.061785016 -0.009359547 0.097031556 0.043646444
0.009649022 -0.08026288 -0.036827896 -0.03143156 0.032252356 -0.043029074 -0.039186936 -0.09817212
0.020260386 -0.027436193 -0.0045178286 -0.049096975 -0.0065451562 -0.03683284 -0.045015752 -0.047287904
0.07742939 -0.045301966 0.047142375 0.0014537341 -0.021131445 0.07207481 -0.0073876083 -0.043583978
-0.094853714 -0.07207159 -0.002191946 -0.015862498 0.034449603 -0.020624198 0.08703476 -0.032987505
-0.032826256 0.0519847 0.06607576 0.084515095 0.09224291 -0.035180792 0.040350728 -0.05489964
0.0023798617 -0.07518269 0.069004 -0.021442125 0.03674221 0.04332728 0.03557198 0.00029992717
0.04958067 0.03361621 -0.009238445 -0.06141252 0.014106718 0.011217539 -0.07996673 0.098727964
-0.02397905 -0.05151826 -0.020072488 0.020119919 0.06261024 0.02402671 -0.084617205 -0.025771154
-0.070507474 0.0296569 0.032263257 -0.040232617 0.031423632 0.02401054 0.013215803 0.036420785
0.05193793 0.039334606 0.045259625 0.013478371 -0.0004822695 -0.009198565 0.030939199 -0.035193015
0.0036969772 0.058696464 0.008784639 -0.004017574 0.043460272 -0.034681767 0.04352517 0.053881086
-0.05686477 0.024434658 0.06144815 0.018473752 0.022464657 -0.005906526 -0.067432694 -0.067054406
-0.05507084 0.04939546 0.09528082 0.049662184 -0.07392437 -0.0145987235 -0.011318319 0.061658945
0.034741614 -0.015889611 0.044779316 -0.018810146 -0.0025505084 0.097204074 -0.056487985 0.012807739
-0.10967837 0.043260805 0.036654208 0.0068493583 -0.005870817 -0.09928488 -0.062198475 0.071646765
0.03886565 0.11528019 0.022074226 0.032263458 -0.0062849144 -0.014484483 -0.07618305 -0.05353229
0.026577454 -0.019442303 -0.007154261 -0.056617912 -0.019329509 -0.02608834 -0.05202388 0.022854937
-0.01676815 0.06421704 -0.056702446 -0.02140301 -0.03581271 -0.042015705 -0.028818708 -0.04168324

GNN1.bias f4 [96]
00000000: 2301 813c 18e3 21bd 0c33 ec3c cc7b 7abd
00000010: 487e c3bc 2183 a83c cd90 893d 8b8d 253c
00000020: 2789 45bd 8485 89bd c339 82bc eaca 0cbd
00000030: 49e9 af3d d91b 39bd 9a4a 303d eb3b c73b
00000040: 344d c2bc 2e3e 823d d9d3 a13b 2aec abbb
00000050: cd36 2abd 9ce0 a8bc cb19 cc3c a247 783d
00000060: 1866 08bd 434b bfbc 9832 85bd c999 853d
00000070: d76f 7e3d ed24 253d fe3f 08bd c8f7 193d
00000080: 93a2 97bc c89e 4c3d f724 953d 6237 b6bd
00000090: cdb8 043d 077f 0b3d 0861 80bd ae99 ce3d
000000a0: d6ac 4c3d 4cc2 4d3d 2e9d b43a 3e67 48bd
000000b0: 26ab 9fbc e385 543d 37fa 98bc 8bb7 893d
000000c0: 3b3c 7f3d f331 f53b f985 8ebd 6f29 6b3d
000000d0: b829 b03d 7648 4dbc d04d 09bd af28 d9bb
000000e0: 6354 ffba bd2e 73bd d5e3 563d 2866 6a3d
000000f0: 6492 2dbd 6395 00bd 1984 babc 5a26 9a3d
00000100: b12e e13c a415 bd3c da30 91bb 6cb5 5f3c
00000110: 07d9 f83d e540 d03c 5430 3bbd c95b 853d
00000120: cfa2 3ebd 8e9d 873c a3b2 24bd 9c24 baba
00000130: 107f 883b f59d d9bc 3dd8 7d3d 21e7 963d
00000140: b5b8 3bbd 4ff9 d63c b607 72bd f4e3 4dbc
00000150: 1dfe 323d 1cc8 e5bb 53c0 6d3c f5e5 1bbd
00000160: 51b4 a53d 1862 c4bc c8db 003d c28f e13c
00000170: 0f5d b03d e25c e439 a468 873d befb 3c3d
0.015747612 -0.039523214 0.028832935 -0.06115322 -0.023863927 0.02057034 0.06717072 0.010104547
-0.0482265 -0.06714919 -0.015896684 -0.0343732 0.085894175 -0.045192573 0.043039896 0.006080141
-0.023718454 0.06359516 0.0049385843 -0.005246659 -0.04155617 -0.020614915 0.024914643 0.06061519
-0.03330049 -0.023351317 -0.065037906 0.06523473 0.062118378 0.04031842 -0.033264153 0.03758982
-0.018510139 0.049956113 0.07282441 -0.08897282 0.032402802 0.03405669 -0.06268507 0.10087906
0.049969517 0.050234124 0.0013779753 -0.048926584 -0.01949079 0.051885497 -0.018674 0.06724461
0.0623133 0.007482761 -0.06959147 0.05741256 0.08601707 -0.012529483 -0.033521473 -0.0066271643
-0.0019480105 -0.059370745 0.05246337 0.05722633 -0.042375937 -0.031392466 -0.022768067 0.07526846
0.027488085 0.023081608 -0.0044308724 0.013654094 0.1215077 0.02542157 -0.045700386 0.06511647
-0.046541985 0.01655462 -0.040209424 -0.0014201584 0.0041655377 -0.026564578 0.0619738 0.07368303
-0.045830447 0.026241926 -0.059089385 -0.012566555 0.043699373 -0.0070123803 0.014511186 -0.0380611
0.08091033 -0.023972556 0.0314596 0.02753437 0.086114995 0.00043556752 0.066117555 0.046138518

GNN2.Theta1 f4 [288, 96]
00000000: 765b 433d eb5e b1bb 4e4d e63c 0a44 a53d
00000010: d9f7 02bd cfe2 02bd 498f cd3d b85e 083d
00000020: f8ad a5bd 9992 103d 44ca c8bd d7bd 6fbd
00000030: a283 263d 973b 363d 98a4 dbbc 50c5 a63d
00000040: 8ec1 963d 8c8a 6a3d 7b50 66bd 27b8 b6bc
00000050: 8231 3f3c b388 853d d46d 0bbd 04c1 633c
00000060: 97b9 1b3d 16eb 1abd dc55 19bd 44bd cb3d
00000070: 8bf6 babb 1209 913d 0c68 e0bd 660f 27bd
00000080: f701 4e3d 8b88 8fbb 4215 e23c 4552 a7bd
00000090: 9f14 b73d 0894 52bd dcaa 473c 8d5e 82bd
000000a0: 361e 73bd 8f74 aebd 5de1 d0bd 9938 193c
000000b0: 0b65 34bd 0057 6b3d 5e9b 5ebc 55d3 933d
000000c0: 29dd 37bc 4f19 d23c 89d4 b83d e53d c9bd
000000d0: 59c3 1cbd 27fd 943d 0cfb 46bd c936 6bbd
000000e0: 72bb 77bb 9e2b 24bd c48d cd3c 81b9 49bd
000000f0: d009 c83c cd39 26bd 4517 23bd 59da 0cbd
00000100: 0588 243c 5e35 633d 4a3a b0bd fc8f 6dbd
00000110: 3c22 c9bd fa24 153d 7df0 7c3d 7b5f cdbd
00000120: de8f 7d3c d827 063d 600e 3bbd b1d8 be3c
00000130: a9e8 693d 7a4e bc3d 2960 1f3d bbfe aebc
00000140: d1bc 92bd 48e2 83bc 6c61 253c f64d 9d3c
00000150: 49cd a63d 6156 cbbd 6f27 333c 3ef1 2cbd
00000160: 8bc5 4b3c 3f5c bc3d 4c9d 1d3c 0590 f5bb
00000170: 1c5d d6bc ad81 c8bd 4b09 a9bd 2eb5 173d
00000180: 4e13 92bd c65e 3d3d f6ed debc 8aba 9e3c
00000190: ec73 a83d 3bdd 973c 9567 643d e612 b03d
000001a0: b396 82bc e9be 9f3d 3d69 b4bd 9460 b83d
000001b0: 16cb 11bd e155 24bc c59a 513d ac17 80bb
000001c0: 16cd 783d dbdd 94bd 94fd 05bd aec8 d33d
000001d0: 28a3 84bd 82b9 493d da8e a03d 260c 6a3d
000001e0: 48cf 50bd c7ee 413c 18b1 87bd a99c 7fbd
000001f0: 06cc 97bc 5f23 94bd b879 373d c0bf 493d
00000200: 0dea 4dbd b3b5 98bb dd79 b83d b77e 933b
00000210: 1607 903d 4863 c03d 3fd9 a4bc a709 d4bd
00000220: 9011 9c3d 51c9 47bd 5045 b43d a36f 0ebd
00000230: 9d99 8f3c 2eab 713c 4c25 eabc 62c8 9f3d
00000240: d0d1 a3bd 2768 05bd e994 92bc 5326 783d
00000250: 8e4d 4e3d b736 523d a228 9a3c e925 733d
00000260: 22f3 0cbd 6ce6 b3bc ea4f 8b3b f6d7 f63c
00000270: 637a 2bbd 5ca3 703c 498d ad3c a77c d43c
00000280: f6ef 8b3d 4f87 c63c f4da 9a3d a5ef 6fbc
00000290: 5066 b9bd 35d1 553d 5c13 eb3c 7d01 b33d
000002a0: bd94 b43c 37bd 403c 7d18 7abd ea7d babd
000002b0: 85d8 f93a 27ac a23d 62be 3fbc 03bc 16bd
000002c0: aca7 0d3d 43d4 f1bc 541f 403d b1bd 5cbd
000002d0: dbfd b6bd d715 8bbd 0cb0 adbc b52e eb3c
000002e0: 917e 643d da19 87bd d81c 8abc b76b 553d
000002f0: 53e5 33bc f467 38b8 6fee 9e3d 7626 06bd
00000300: 02aa 323d 4bda 913d fd6a 123d 0abd 11bd
00000310: 1cf7 68bd ddc3 82bd f1d1 683a 6683 013d
00000320: 735a 933d 3bd8 01bb b8d2 a33d 02a0 33bd
00000330: 1164 953c 6660 6fbd d1d6 ae3c 140b 9b3d
00000340: 46e7 ed3b 70f8 abbc 86b7 65bc 3b4e 92bd
00000350: 6282 95bd 3348 debd e29c 573d 0957 5fbd
00000360: 709d e2bc c9f9 9fbd 5d53 33bb 54cc a33d
00000370: d1f8 ae3c d471 bdbc 4030 203d be7e 983d
00000380: 5d06 6f3d d153 83bd 4b32 9bba d88c 95bd
00000390: fe9f b1bd c945 9f3d 9b6c 86bd f5d2 65bd
000003a0: d05b f53c cadc d73d 3fa9 debd 5350 11bd
000003b0: c8f3 27bd 0a54 823d b84d 613d eb2f 7e3d
000003c0: 4ca1 9f3d eca0 80bc c260 963d 768b a7bc
000003d0: e8d8 4f3c 088f 29bd 57f3 943c e850 573c
000003e0: bf4d a2bc 7390 cb3d 64cb 05bc e08e 813c
000003f0: 8f67 a53d 1a27 0e3d 3e11 34bd 736b 35bd
0.047694646 -0.0054129264 0.028113034 0.08069618 -0.031974647 -0.031954583 0.10037095 0.033293456
-0.080898225 0.035296056 -0.09804204 -0.058530655 0.04065288 0.044490423 -0.026811883 0.08143103
0.073611364 0.057261035 -0.056229096 -0.022304608 0.011669518 0.06520214 -0.034040287 0.013900999
0.03801879 -0.03782185 -0.037435398 0.09948209 -0.0057056597 0.07081808 -0.10957345 -0.04078617
0.050294843 -0.004380291 0.027598027 -0.081699885 0.0893948 -0.051410705 0.012186732 -0.063656904
-0.059354983 -0.085183255 -0.10199235 0.009351873 -0.044041675 0.057456017 -0.013586847 0.07218043
-0.011222162 0.025646834 0.09024913 -0.098262586 -0.038272236 0.072748475 -0.04857926 -0.057425294
-0.0037800935 -0.04008066 0.025092013 -0.049249176 0.024418741 -0.040582467 -0.039817113 -0.03438792
0.010042195 0.055470817 -0.08604868 -0.057998642 -0.09820983 0.036412217 0.061752785 -0.10027977
0.015476195 0.03275284 -0.045668006 0.023296686 0.057106648 0.09194656 0.038910065 -0.0213617
-0.0716492 -0.01609911 0.010094028 0.019202214 0.08144624 -0.09928585 0.010934695 -0.042222254
0.012437235 0.09197282 0.009620022 -0.007493975 -0.026167445 -0.09790359 -0.082537256 0.03703802
-0.07132588 0.04623296 -0.027213078 0.019376058 0.08225235 0.018538108 0.055762846 0.085973546
-0.015941 0.07800085 -0.08809135 0.09002796 -0.03559407 -0.010030241 0.05117299 -0.003909072
0.06074246 -0.07268878 -0.032712534 0.10341011 -0.06476432 0.04924918 0.07839747 0.057140492
-0.05097893 0.011836714 -0.06625575 -0.062405262 -0.018529903 -0.07233309 0.044793814 0.049255133
-0.050272036 -0.004660332 0.090076186 0.0045011896 0.070326015 0.093939364 -0.020123122 -0.103534035
0.07620537 -0.048775975 0.08802283 -0.034774434 0.017529303 0.014750285 -0.028582238 0.07801892
-0.07999003 -0.03257003 -0.017893272 0.060583424 0.05036693 0.05132171 0.018818203 0.059362326
-0.034411557 -0.02196046 0.00425147 0.030132275 -0.041864764 0.014687385 0.021185534 0.025938345
0.06832878 0.024234442 0.07561293 -0.014644538 -0.09052718 0.05220147 0.028695755 0.08740518
0.02204358 0.011763862 -0.06105851 -0.091060475 0.001906172 0.07942992 -0.011703106 -0.036800396
0.034583732 -0.02952016 0.046904877 -0.05389184 -0.08935138 -0.06791275 -0.02120211 0.028708795
0.055784766 -0.06596728 -0.016859457 0.052104678 -0.010979968 -4.3965832e-05 0.07760321 -0.032751523
0.043619163 0.07121714 0.035746563 -0.035580672 -0.056876287 -0.06385014 0.00088813814 0.031619452
0.07194986 -0.0019812721 0.07999176 -0.043853767 0.018236192 -0.058441542 0.021342667 0.07570472
0.007260236 -0.020992488 -0.014020806 -0.071438275 -0.07300259 -0.10853615 0.05263985 -0.054526363
-0.027662963 -0.078113146 -0.002736292 0.07997957 0.02135888 -0.023125567 0.039108515 0.07446049
0.058355678 -0.06412471 -0.001184055 -0.073022544 -0.08673094 0.07776982 -0.065636836 -0.056109387
0.029951006 0.10540159 -0.10872125 -0.035476994 -0.041003972 0.063636854 0.05500576 0.062057417
0.07794437 -0.015701734 0.07342674 -0.020452242 0.012685992 -0.04139617 0.01818244 0.013141848
-0.019812463 0.09939661 -0.008166168 0.015815198 0.08076393 0.03470526 -0.043961756 -0.044291925

GNN2.bias f4 [96]
00000000: 9bcb e2bc fb9e 8abc a192 48bc c823 2e3d
00000010: d214 3e3c 567f ad3c b60c b03b 26d0 09bb
00000020: 6a35 8fbb 1165 96bc 7abf 863c ebe7 8a3c
00000030: f577 ecbc b1e5 fa3b 755b 463d ef74 d0bc
00000040: 374b 3cbd e504 3637 8820 3bbd f678 533c
00000050: f8e4 d23c b98f b7bb eea4 0c3d e749 f23b
00000060: ffa9 a53c a012 833b e080 d9b9 1ac5 3fbd
00000070: d6e9 9dbc 39eb 8f3c 4b15 30ba ffca 28bd
00000080: 5036 44ba 3562 fabb 81fb 033d 9260 92ba
00000090: 4334 b5bc dbcf 80bc 562c 5e3c 939b 6cbc
000000a0: b3e6 d3bb 04a5 e5bc 9c4f bcbc 44ce 81bc
000000b0: 8dc6 083d 5d0f 04ba ec43 6a3c ded9 3cbc
000000c0: 8339 a4bb cd6c 153d d56f 32bc 4ebf c13c
000000d0: 559d 653d 6554 42bd 1682 743c fc8b fcbc
000000e0: c837 093d 0791 8bbc 6bf7 f73b 38f4 45bd
000000f0: 371a 533c cd17 d3ba 02cd 62bc 886a 2bbd
00000100: a7b0 16bc ac3b 17bc 6f72 4c3b 28d9 1b3d
00000110: c112 1d3d f0c2 a93b 0ca3 0b3d d8d6 fe3c
00000120: 5b34 c0bc 9d8d c9bc 3c4f 49bc b5dc b9bb
00000130: b784 91bb 9b3b 3ebc 67dc 03bc 026e 10bd
00000140: 5f64 bbba 167a 113d a790 f53c fb74 743b
00000150: fd67 dbbc b1c1 ea3c cf01 413d 45ca 493d
00000160: 57ee 75bc e7a4 38bd 7219 0ebc 6c49 94bc
00000170: 4f1f 9239 d079 c93c 0e4d bdbc 7ce4 063d
-0.027684977 -0.01692151 -0.01224199 0.042514592 0.011601644 0.021178883 0.005372609 -0.0021028607
-0.004370381 -0.01835874 0.016448725 0.01695629 -0.028865794 0.007656776 0.048427064 -0.025446383
-0.045970168 1.0849185e-05 -0.04568532 0.012907257 0.025743946 -0.00560185 0.034336977 0.0073940638
0.020222662 0.004000023 -0.00041485485 -0.04681883 -0.01927654 0.017568218 -0.000671704 -0.041209217
-0.00074849 -0.0076411017 0.032222275 -0.0011167696 -0.022119647 -0.015724113 0.013560375 -0.014441389
-0.0064667105 -0.028032787 -0.02298718 -0.015845425 0.033392478 -0.00050376897 0.01429842 -0.011526553
-0.0050117387 0.036480714 -0.010890921 0.023650791 0.056058247 -0.047443766 0.014923593 -0.030828469
0.033500463 -0.017036928 0.0075673363 -0.04832861 0.012884668 -0.0016105116 -0.013842823 -0.041849643
-0.009197391 -0.0092305355 0.0031196137 0.038048893 0.038347963 0.005180709 0.03409104 0.031108305
-0.023462465 -0.02460366 -0.012286957 -0.0056720623 -0.0044408697 -0.011610891 -0.0080481535 -0.03526116
-0.0014296881 0.03551682 0.029976202 0.003730117 -0.026782984 0.028656812 0.047120865 0.049265165
-0.015010438 -0.045079138 -0.008673059 -0.018101417 0.00027870617 0.024594218 -0.023108032 0.032932743

GNN3.Theta1 f4 [288, 2]
00000000: 18d4 8c3e 1937 733e 96e3 33bf 864c 2a3f
00000010: 878b d93e c6bd 2ebf d7ba e1be 102d ae3e
00000020: d4c9 fcbd 7c5d e6be 86e5 1b3e 57ed 1dbf
00000030: 4ec4 023f 873b 033f 1d3c a43e 3152 853e
00000040: cb38 fabe 2a58 0fbe 2802 a13e c015 3a3e
00000050: b156 0c3f e031 2c3e 919e 18bf 9cf4 e1be
00000060: 0ec9 db3e caae e23e fb35 df3d 2838 e83d
00000070: 53d1 b03e 2657 2ebf 5d2e 1fbf 0841 97be
00000080: 3162 92be 7fdf 09bd ef44 b73e 59fa 11be
00000090: e121 b13b 7c04 05bf a0a3 9bbe b557 123f
000000a0: dd7a 0d3f 7266 24be 6fe5 6d3e 1076 083f
000000b0: eb8a f83e 9960 77bd 625c fcbe d370 83be
000000c0: b60f a43e de66 95be ef6f 993e e538 f6be
000000d0: b65f 7d3e 445a f13e 7edd 0dbe c0fa 1d3f
000000e0: 2b73 d03e 1797 7bbd 064e 36be 268e c1bc
000000f0: c86b a0be 2acc 74bd ac20 12bf 5516 933e
00000100: 817e 293e f499 00bf ba21 b4bd a2f1 4e3e
00000110: fbd9 bfbe 44e4 773e eb46 e1be e7e0 babb
00000120: 8d6f 70bd 99e0 d7be 105a 9abd be74 78be
00000130: 2495 b7bd fc4d 323e 2238 f2bd ce5c eebd
00000140: 5fb1 0e3f 9fcc 013f a11d bfbe 2512 603d
00000150: 6018 733e a2b5 d83d 32ae f43c 5eb7 56be
00000160: 202b d43d b466 b2be 0ffd c2bd 8ea5 6fbe
00000170: 82d3 953e 1a2e a13e 8224 0ebf 10ab fabe
00000180: f0bd db3d 0e78 7b3e 960d 15bf 0d49 c23d
00000190: 11bf a7be 120b 12bf 0d04 233f eab1 e0be
000001a0: 7add 9dbe 1bd2 303f 8fc7 c9be 9cec 8fbe
000001b0: 1041 d7be e51a aabe 366f ae3d dc7a ce3e
000001c0: 1284 6e3e b0a3 2dbe 24ed 0c3e 8ac8 d6be
000001d0: da93 f73e 8db5 d1be 4562 8d3e c438 e6be
000001e0: 8a72 80be 0185 22bf 6d5e 173e b6dd b43e
000001f0: d016 e5be 36dc 853e 2a84 9cbd 93d4 1d3e
00000200: f380 cabe 198e 05bf 0eb1 78bc 6aa8 913e
00000210: 9f41 18bf 2f22 c5be fe4a e5be 0603 35bd
00000220: c27b d6be 8bcb 9bbe d0f6 6ebe 7a37 e6be
00000230: 0060 a6be 49f9 93be 0ff9 cdbd 985c 173f
00000240: 26aa 4ebd 3bd3 093f 5290 243d 4911 8b3e
00000250: 90ba 683e 5abe cdbd 73e3 1e3f f788 b3be
00000260: d190 6dbe 7c45 3b3e b806 8d3c 0c8a 58be
00000270: d0ab ac3e 9861 25bf e9eb 173f f450 2c3e
00000280: 2bf8 20be b30e 203f 5c73 1fbe ec7b 2dbf
00000290: aa77 cbbe 413f 133f 7e44 8abe 8004 523e
000002a0: 2dbe 5abe 0314 ba3e 11fb 9fbe 1c08 043f
000002b0: 2446 1c3f 455a 3dbd 2963 eebe 6f09 1f3e
000002c0: 6f94 89be d358 f2be 9d66 dcbd 9532 83bd
000002d0: 5b1b 263e 66cf 8cbd 8748 243e ef98 a9bd
000002e0: 8858 2abf 22e3 4b3d 922a 983e 6fa6 0b3f
000002f0: 4940 03bf bc5e 9bbe 981f a6be 0568 3dbe
00000300: 8406 8fbe 13cb 1d3f 6405 f3be ac54 01bf
00000310: a7d7 eabc cd6b 1a3e f3ba 123f 6e61 b03d
00000320: 407b 0c3f 51fc f13d b7d1 36bf 0fff fe3d
00000330: 3d59 213d 05f2 92bd 7c42 1d3e 9b4d a5be
00000340: 3cbe 103f f1cf c7be 03e3 203f 85b0 da3e
00000350: 599e e63e b937 8abe e58e 2dbf 9ef2 d23e
00000360: 3aeb 03bf 7b0d f7be e213 9c3b 209d edbe
00000370: 91c0 3c3e e4d7 223f b798 c6bd 21f3 8ebe
00000380: 8530 a6be cbd8 213e 16c9 273e e8f7 ec3e
00000390: 0af1 1ebf 06e4 053e 35a6 c9be 12e8 a43e
000003a0: 8950 02be 0137 0e3f 8c7a 17be ca1a 32bf
000003b0: 0938 363b 9cc6 253f 8793 99be 328d c43d
000003c0: df1c 51be c2ba 98be 4be0 aa3e 0d51 75be
000003d0: 9274 e5be 4b7a 253f a520 17bf 41f5 15be
000003e0: a9dc 263f c263 e5bd f4eb 623e dac7 063f
000003f0: 1ba0 10bc 51fa 57be d702 fdbd 5b24 353e
0.27505565 0.23751487 -0.70269144 0.66523015 0.42489263 -0.6825832 -0.4408786 0.34018755
-0.12343183 -0.44993198 0.15224275 -0.61690277 0.5108079 0.51262707 0.32077113 0.2603927
-0.48871455 -0.13998476 0.31446958 0.1817236 0.5481978 0.16815901 -0.59616953 -0.44131935
0.4292683 0.44273978 0.10898968 0.11338836 0.34534702 -0.6810173 -0.6218012 -0.29541802
-0.2859054 -0.033660408 0.3579478 -0.14255656 0.00540565 -0.5195997 -0.30398273 0.5716508
0.552656 -0.16054705 0.23232053 0.5330515 0.48543486 -0.060394857 -0.49289232 -0.25672016
0.32043236 -0.29180044 0.2996821 -0.48090282 0.24743542 0.4713918 -0.13854024 0.6171074
0.40712866 -0.061423387 -0.17803201 -0.023627352 -0.3133223 -0.05976502 -0.57081103 0.28727975
0.16552164 -0.50234914 -0.08795495 0.20209363 -0.37470993 0.2420817 -0.4399942 -0.00570308
-0.058700133 -0.42163542 -0.07536709 -0.24263284 -0.08963993 0.17412561 -0.11827113 -0.11638795
0.55739397 0.5070285 -0.37327293 0.054704804 0.23739767 0.10581519 0.029868219 -0.20968387
0.10359788 -0.3484398 -0.09520923 -0.23402998 0.2926293 0.31480485 -0.55524457 -0.48958635
0.10729587 0.24557516 -0.58223855 0.094865896 -0.3276296 -0.5704814 0.63678056 -0.43885738
-0.30833036 0.69070596 -0.39410064 -0.28110206 -0.42041826 -0.33223644 0.085173056 0.4032811
0.23292568 -0.16956973 0.13762337 -0.41949874 0.4835499 -0.40958825 0.27614036 -0.44965184
-0.25087386 -0.634842 0.14782114 0.35325402 -0.44743967 0.2614457 -0.07642396 0.15413122
-0.39551505 -0.5216995 -0.015178932 0.28448802 -0.5947513 -0.38502643 -0.44783777 -0.044192336
-0.41891295 -0.30428728 -0.23336339 -0.449642 -0.32495117 -0.28901127 -0.1005727 0.5912566
-0.050455235 0.5383794 0.040176697 0.27161625 0.22727418 -0.10046072 0.6206581 -0.35065433
-0.23199774 0.18288225 0.017215118 -0.2114641 0.33724833 -0.6460204 0.59344345 0.16827756
-0.15719669 0.6252243 -0.1557135 -0.67767215 -0.39739734 0.5751839 -0.2700538 0.20509529
-0.21361609 0.36343393 -0.31246236 0.51574874 0.61044526 -0.046228666 -0.46560028 0.15530942
-0.26871058 -0.47333393 -0.107617594 -0.06406132 0.16221373 -0.068754956 0.16043292 -0.08281123
-0.6654134 0.049777158 0.2971998 0.5455083 -0.51269966 -0.30345714 -0.3244598 -0.18496712
-0.2793466 0.6163799 -0.4746505 -0.50519824 -0.028667284 0.15080185 0.5731651 0.08612333
0.54875565 0.11815704 -0.7141375 0.12450992 0.039391745 -0.07175068 0.15357393 -0.3228577
0.56540275 -0.39025834 0.6284639 0.427128 0.45042685 -0.26995638 -0.67796165 0.41200727
-0.515308 -0.48252472 0.0047631124 -0.4640894 0.18432833 0.6361067 -0.09697097 -0.27919868
-0.32458892 0.15805356 0.16385302 0.46282887 -0.62086546 0.13075265 -0.39384618 0.32208306
-0.12726034 0.5555268 -0.14792842 -0.69572127 0.0027804396 0.6475618 -0.29995367 0.09597243
-0.2042117 -0.29829985 0.33374247 -0.239567 -0.448155 0.6463973 -0.59034187 -0.14644338
0.6518045 -0.11200668 0.22160321 0.526487 -0.008827235 -0.21091582 -0.12354057 0.1768965

GNN3.bias f4 [2]
00000000: 455d 01bf 696e 583d
-0.50532943 0.05283967
