trained_models/iS_GNN_Trained_ep100_bs64_lr5em04_z96_k5e+00_ramps_20.pth (torch, 484999 bytes, 6 tensors)

GNN1.Theta1 f4 [176, 96]
000000 a0 84 84 3d 75 c0 7f 3d 04 e6 2c bc 3a 79 ba 3d
       0.06470609 0.0624394 -0.010552887 0.091051534
000010 20 44 cd bc 83 27 34 3d 7b ea 44 bd 2c 4e 75 3d
       -0.025056899 0.043982994 -0.04807518 0.059889004
000020 bb 20 8f 3d 1c ae 9f bd 46 92 ae 3d 95 a0 8c 3c
       0.06988665 -0.077968806 0.08523993 0.017166415
000030 76 41 ad 3d 27 21 fd 3b e7 ca 3c 3d c9 64 5d bc
       0.08459751 0.0077248993 0.04609194 -0.013512799
000040 57 8d bb 3d 66 39 ba 3c 80 75 3e bd d7 0c 88 3b
       0.09157818 0.022732448 -0.046498775 0.0041519213
000050 d6 76 24 bd bd 41 33 b9 42 da 27 bd 12 51 45 3d
       -0.040152393 -0.0001709526 -0.04097963 0.048173018
000060 15 43 91 bd df c1 55 bd a8 fb ce bc f3 b7 43 bd
       -0.07092873 -0.052186843 -0.025266483 -0.04778285
000070 4b 51 35 3c e5 4d d6 bd e8 00 9d 3d e9 dd a3 bd
       0.011066745 -0.10464076 0.076661885 -0.080013104
000080 1f f3 6c 3d 6e c0 93 3c ab 48 19 bd ee 5c 99 3d
       0.057849046 0.018036094 -0.037422817 0.07488428
000090 8f 71 85 3c c6 0b 61 3d 43 79 94 3b 50 68 bb bc
       0.0162895 0.05494287 0.004531057 -0.022876889
0000a0 71 0e ac 3c 3a da 7b bc b1 f3 1b 3d c9 87 7d 3d
       0.02100298 -0.0153718535 0.0380742 0.061897073
0000b0 66 ae 44 3d 30 2e fb bc ec 92 7a 3d 63 7d b3 3c
       0.04801788 -0.030661672 0.061175272 0.021910375
0000c0 6c a7 3b 3d 94 29 a4 bd ca 8e b6 bd d7 9c 3d bd
       0.045813963 -0.08015743 -0.089139536 -0.046292152
0000d0 2f 4e 8e bd aa a1 a3 3d 59 eb 14 3d 9e 1b 48 3d
       -0.06948506 0.07989819 0.036357258 0.048854463
0000e0 0d 12 64 3d 43 88 5f bc 6b fc 7e 3d 61 a0 b0 bd
       0.055681277 -0.013643327 0.062252443 -0.0862434
0000f0 8d ba 48 3a 64 6c 46 bd ea 78 14 3d d1 2f 0f bd
       0.0007657193 -0.048443213 0.036248125 -0.03495771
000100 4a 1f 84 3c 43 fb 6b bb c3 15 a6 3d 8b 11 7d bd
       0.016128201 -0.0036007918 0.081096195 -0.06178431
000110 0b 13 1e bd 7d a6 17 bd 1b 8c 79 3d 01 83 cd 3c
       -0.03859238 -0.03702401 0.06092463 0.025086882
000120 2f ce d0 3d fb 94 8a bd e4 3e b9 bd bb 74 85 bd
       0.101955764 -0.06766697 -0.090451986 -0.06516405
000130 6a df 99 bd e7 10 3e 3d 8b ec 1b 3d 78 d2 a4 3d
       -0.07513316 0.046402838 0.03806738 0.08047956
000140 a3 2c 44 bd f2 f1 a8 bd 7c f6 be 3c 79 d7 09 bd
       -0.04789413 -0.082492724 0.023310892 -0.033652756
000150 2b b0 95 3d 94 60 d5 bc 49 a8 96 3d 38 05 9e bd
       0.07308992 -0.026047029 0.073563166 -0.07715839
000160 17 24 93 bd 90 a7 84 3c a2 e0 85 3c bd 65 f5 ba
       -0.07184618 0.016193181 0.016342465 -0.0018722337
000170 43 64 98 3d 73 ba 96 3d 39 44 a6 bd 21 85 2d bd
       0.074409984 0.07359781 -0.08118481 -0.04236329
000180 5d 8a a2 3d 56 4d 6a bd f0 ec c0 bc c5 88 cf bd
       0.07936547 -0.05720266 -0.02355048 -0.101335086
000190 fe a7 71 bd d9 ee 38 3d af ea 44 bc 0d 87 93 bd
       -0.0589981 0.045149658 -0.012018844 -0.07203493
0001a0 f5 dc 4c bc 9b 63 97 bd b6 47 b9 bd 54 1d 8c bd
       -0.012503852 -0.07392045 -0.09046881 -0.068415314
0001b0 2c 10 ae bd f7 0d 92 bd a1 1e cc 3d 56 53 a6 3c
       -0.08499178 -0.0713157 0.099667795 0.02030341
0001c0 ae 61 4a 3d c1 9e ba bd 8d aa 8d bd 16 5b 70 bd
       0.04940956 -0.09112311 -0.069172956 -0.058680616
0001d0 a5 0d bf 3c 94 db a3 bd 64 82 39 bd 0d 14 a7 bd
       0.023321936 -0.080008656 -0.045290366 -0.08158121
0001e0 1f ca 2e 3c 49 ae 52 bd c5 e8 f7 ba 60 da 69 bd
       0.010668307 -0.051435743 -0.0018913975 -0.057093024
0001f0 de 1c 8e bd 28 34 7d bd d2 3b 2f bd 41 0e 96 bd
       -0.069391 -0.06181732 -0.04278166 -0.073269375
000200 63 88 89 3d 36 5a a3 bc 4a db ac 3d 5c ce 29 3d
       0.06715467 -0.019940477 0.084402636 0.041456565
000210 c3 3d af bd 18 e9 54 3d 1c dc 0f bd 04 e3 11 bd
       -0.08556702 0.051980108 -0.035122022 -0.03561689
000220 63 00 c0 bd 7a ff b5 bd a1 1a c8 3c fd cb 48 bd
       -0.09375074 -0.08886619 0.02442676 -0.049022663
000230 ed da f0 3c 9d fd 8a bd 1a 4f a1 3d e0 81 90 bd
       0.029401267 -0.06786654 0.078764156 -0.07056022
000240 da 60 cc bc d6 99 93 3b b3 15 69 3d 20 4f 9c 3d
       -0.024948526 0.0045044227 0.05690546 0.076322794
000250 c6 76 d1 3d a6 1f ae bd ff 66 1b 3d dc 42 14 bd
       0.10227732 -0.0850213 0.03794002 -0.036196575
000260 56 df 4e 3c ae 10 b9 bd 14 73 95 3d fe 28 93 bd
       0.01262649 -0.090363845 0.0729734 -0.07185553
000270 8d 72 54 3d f2 5c 6e 3d 15 99 1a 3d cf bb 5f bd
       0.051867057 0.05819411 0.037743647 -0.054622468
000280 08 da 9d 3d 4c f0 2f 3d 9d 27 bf 3b f2 bc b7 bd
       0.07707602 0.042953774 0.0058335797 -0.08971585
000290 61 ab 7b 3d b5 dc 12 ba 93 3c 97 bd f5 9a a0 3d
       0.061442737 -0.0005602346 -0.073846005 0.07842056
0002a0 9b 6f ca 3c fc 57 21 bd ab 67 2c bd d0 a7 1c 3c
       0.02471142 -0.03939055 -0.042091053 0.009561494
0002b0 67 e4 4e 3d 7a 32 ec bc 2c a4 86 bd b0 38 28 bd
       0.05051079 -0.028832663 -0.06574282 -0.041069686
0002c0 80 bb 94 bd b1 e6 b3 3c c3 b9 50 3d 56 33 b8 bd
       -0.07262325 0.021960588 0.050958406 -0.089941666
0002d0 d8 1d 13 3d fb 07 4a 3d 1c 45 0a 3d 74 5a 0c bd
       0.035917133 0.049324017 0.033757314 -0.03426595
0002e0 7d 85 14 3d 9b de 04 3d 1d bb 07 3d 91 c8 ce 3b
       0.036260117 0.032438856 0.03313743 0.0063105305
0002f0 88 4f 4d bc 66 7b 7d 3c e3 04 bc bc 49 01 8f bc
       -0.012531169 0.015471315 -0.022951549 -0.017456667
000300 ef b1 4f 3d 14 c9 83 3d 20 7c 95 3a fc 2a d0 bc
       0.0507068 0.06434837 0.001140479 -0.025411122
000310 49 5f 81 3b 09 ff 01 3c 61 f7 d6 3c 33 b5 0a 3d
       0.0039481265 0.00793434 0.026241006 0.03386421
000320 37 fc cd bd 7a 98 2b bd 8f 69 a7 3d 86 7b 9e 3c
       -0.10057872 -0.04189346 0.081744306 0.01934601
000330 5f 3a b9 bb af d4 86 bd 2e 64 85 bd 18 51 b7 bd
       -0.0056527103 -0.06583535 -0.065132484 -0.08951014
000340 47 b6 f7 bb 90 b0 f8 3c e7 d2 74 3d 0e 58 9b 3c
       -0.007559571 0.030357629 0.059771445 0.018962886
000350 9a 20 a8 bd 1e 91 5c bd 1e ba 9f bc 5f a2 9e 3d
       -0.08209343 -0.053849332 -0.019497927 0.077458136
000360 d0 e2 d3 3c 89 70 3d bd b6 8a 51 3d ee fa ee bc
       0.025864989 -0.0462499 0.051157676 -0.029172387
000370 1d 10 8a bd c1 f0 97 3d bb 8a 30 bd 36 93 48 bc
       -0.067413546 0.07418967 -0.043101054 -0.012242129
000380 6a 79 e9 bd 0e c2 8a 3d 9f 66 99 3d 5d 06 32 3d
       -0.11400111 0.06775294 0.074902765 0.0434631
000390 7d e1 8e bd d7 2d d5 bd 93 7b b9 bd 53 26 96 3d
       -0.06976602 -0.10409134 -0.09056773 0.073315285
0003a0 e5 75 1a 3d c7 f2 c9 3d 6f b1 4c 3d bd a3 61 3b
       0.03771009 0.09860759 0.0499739 0.003442987
0003b0 53 9a 1b bc 17 22 73 bd ee 68 ad bd a6 b2 b8 bd
       -0.009497243 -0.059358682 -0.084672794 -0.090184495
0003c0 17 6f 03 3d 75 13 86 bd 46 06 c1 bc f7 37 89 bd
       0.032088365 -0.0654668 -0.023562562 -0.067001276
0003d0 f8 72 09 bc 99 59 98 bd c4 2e 42 bd ff 6f 2f 3d
       -0.008389227 -0.074389644 -0.04740788 0.042831417
0003e0 d8 e2 ce bb e9 a9 4c 3d e8 81 67 bd 14 ed 45 bd
       -0.006313663 0.049966726 -0.056520373 -0.0483218
0003f0 c2 e4 80 bc ba 1d d7 bc 3c b7 df bc a9 16 c6 bd
       -0.01573408 -0.026259292 -0.027309053 -0.09672291

GNN1.bias f4 [96]
000000 99 b8 cc bd d1 76 8c 3d fb bc b6 bd 72 de 5a bd
       -0.09996147 0.068586 -0.08922764 -0.053434797
000010 f6 a6 04 bd 9d 48 b5 bc 82 28 98 bc 78 b0 74 3d
       -0.03238579 -0.022129351 -0.018574003 0.059738606
000020 3d 63 6a 3d 90 b4 cd bd 49 e2 d8 bd 00 fc d8 bd
       0.057223547 -0.10044205 -0.105900355 -0.1059494
000030 98 80 90 3d e7 b2 d3 bc ca 5c 68 bd cc b9 9c bd
       0.07055777 -0.025842143 -0.056729116 -0.076526254
000040 6c fc 67 bc c0 6e b5 3c 8a 32 22 3d 06 8e 86 3d
       -0.014159303 0.022147536 0.03959898 0.065700576
000050 d3 42 a9 3d d4 8d ac bd 9b 6c 8e bc 20 9e a8 bd
       0.08264699 -0.08425489 -0.017385771 -0.08233285
000060 63 d8 37 bd cb 4c f7 bb 1f b5 33 3d 4a 11 76 bd
       -0.044884097 -0.007546996 0.043873902 -0.060075082
000070 c8 10 91 bd 81 88 2a bd 88 03 f2 3c 97 d2 92 bc
       -0.07083279 -0.041634087 0.0295427 -0.017922683
000080 a4 99 63 3d aa 67 e1 bd f3 84 e0 3c 53 ae 8f 3d
       0.055566445 -0.110061005 0.027407145 0.070156716
000090 79 27 69 3d a8 dd bf bd db ed ae bd ee 91 97 bc
       0.05692241 -0.093684494 -0.08541461 -0.018502202
0000a0 96 22 42 bc e4 0c 27 3d 6e 17 93 3d 85 a3 e7 bc
       -0.011849066 0.040783778 0.07182203 -0.028276214
0000b0 7b 95 1d bd 70 d9 24 3d e0 cf af bd fe 7b 75 bd
       -0.038472634 0.040246427 -0.08584571 -0.0599327
0000c0 f6 13 91 bb c2 c8 25 bd 0f bb 30 3d 38 04 24 bd
       -0.0044274284 -0.04047466 0.043147143 -0.040043086
0000d0 ad 97 d8 bb f2 d9 b2 3c ec 29 1f bd d7 e0 28 bd
       -0.006609878 0.02183244 -0.03885834 -0.04123005
0000e0 c7 c0 0d 3d 69 0b 2e 3d 3d 06 05 bd ec 87 83 bd
       0.034607675 0.04249135 -0.032476652 -0.064224094
0000f0 fc 6b 48 bd 9c c3 42 3d d5 59 4c 3d d3 df 46 bd
       -0.048931107 0.04754983 0.049890358 -0.0485533
000100 2a 93 33 3d 61 50 09 bd e4 51 35 bc 7b 68 7f bd
       0.04384152 -0.03352392 -0.0110668875 -0.0623555
000110 0e fb 86 3b d1 2a 87 bc 06 08 1f 3c 5b 28 dc bd
       0.0041192835 -0.016499909 0.009706503 -0.10749885
000120 8e 7e af bc db cb c3 bd 75 5a d4 bd ca b4 ea bd
       -0.02142265 -0.09560367 -0.10368816 -0.11460264
000130 c2 b8 d9 bc 66 40 9b 3c 78 38 bc bb d1 0b 4d 3c
       -0.026577357 0.018951606 -0.0057440363 0.012515024
000140 e0 a6 65 bd bf bf ad bd 68 ca 1a bd 6e bb b9 bd
       -0.056067348 -0.08483838 -0.037790686 -0.090689525
000150 94 d7 e3 bc 93 52 47 3c 34 75 74 3b b0 71 dc bd
       -0.027812757 0.012165683 0.0037301304 -0.10763872
000160 47 ea a4 3d f8 f9 af 3d 9b 26 47 bd e9 3d ce bd
       0.08052497 0.085926 -0.0486208 -0.10070402
000170 e9 12 8a ba 0d c1 73 3c a0 7c f9 bc eb c1 68 bd
       -0.00105342 0.01487757 -0.030454934 -0.05682556

GNN2.Theta1 f4 [1056, 96]
000000 36 b4 2d 38 df af 98 bd d0 41 69 bd cf 6b d4 3c
       4.141425e-05 -0.0745542 -0.05694753 0.025930313
000010 9a d2 3d 3c 78 83 1e 3d d6 5c a0 3d 7e 11 c4 bb
       0.011585856 0.038699597 0.07830207 -0.0059835305
000020 91 13 00 3d 0b fd 92 3d c5 89 82 bd 12 54 84 3d
       0.03126866 0.0717717 -0.06373934 0.06461348
000030 0c fe 84 3d f7 c9 29 bd e0 14 91 3d 70 02 47 bd
       0.06493768 -0.041452374 0.0708406 -0.04858631
000040 43 9b 5f bd 4f 68 95 3d 99 6b 34 3d 7f 8f 7d bc
       -0.05459143 0.07295286 0.044047926 -0.015476107
000050 3c b2 b1 bd f4 d4 69 3d 65 c9 b1 3c 38 f0 83 bd
       -0.08676574 0.057087854 0.021702478 -0.064423025
000060 3e 89 a3 38 57 83 97 3d c8 ba 23 3d 8c 84 5c bd
       7.798009e-05 0.07398098 0.03997305 -0.053837344
000070 36 0d f9 39 c8 1e 19 bd 63 c5 8d 3d 85 19 3f 3d
       0.00047502824 -0.03738287 0.06922414 0.046655197
000080 5e b4 a4 bc 40 23 7b bc 7e b6 9f bd 0e 5d da bc
       -0.020105537 -0.0153282285 -0.077984795 -0.0266557
000090 aa 74 3d 3d 9b bd cd bd 5a ff 0d 3c ba ba be 3d
       0.046253838 -0.1004593 0.008666838 0.09312959
0000a0 e1 0c 1e 3d 58 07 66 3d 79 14 0a bd 52 fa 13 bc
       0.0385865 0.056159347 -0.03371093 -0.009031849
0000b0 ea cc b6 bd 84 74 54 bd 39 46 a5 3c e7 1a 20 3d
       -0.08925803 -0.05186893 0.020175086 0.039088156
0000c0 49 c5 54 3d 27 f2 76 bd 5d 6c c0 3c 9c 22 73 bd
       0.05194596 -0.06028953 0.023489172 -0.059359178
0000d0 cd 2a b1 bd dc b6 30 bd b2 6b 91 bd b3 2e 88 3c
       -0.08650742 -0.04314314 -0.071006194 0.01662383
0000e0 ad 9f a9 3b 37 1d 7a 3d bd 86 3b 3d f2 63 77 3c
       0.0051765055 0.061063018 0.045782793 0.015099512
0000f0 71 84 0c 3d 0a db fd 3c e0 ad be bd b9 a4 5c bd
       0.034305993 0.030988235 -0.09310508 -0.05386803
000100 9a 7a a6 bd 42 9c 83 bd 25 a0 77 3c 6b 57 c9 3d
       -0.08128853 -0.06426288 0.015113865 0.09831127
000110 87 1d 8d 3d 1d 77 3b bd 1b 50 ab 3c 70 91 80 3d
       0.068903975 -0.045767892 0.02091222 0.0627774
000120 43 34 83 3c 50 4a b2 bd 16 25 26 3c 97 3d 18 3d
       0.016016131 -0.0870558 0.010140678 0.03716811
000130 e1 f2 3f 3c 05 0e c0 3d 35 ba ad 3d 8c 27 66 bd
       0.011715622 0.09377674 0.08482782 -0.05619006
000140 fb 59 a4 3d 70 8f c4 bd 71 55 7b bd 2a aa 1d 3d
       0.08024975 -0.09597671 -0.06136078 0.03849236
000150 e1 35 85 bb 42 f1 a0 3d bd 59 65 3d 41 1b c5 bc
       -0.0040652608 0.07858516 0.055993784 -0.024060847
000160 a0 d7 c2 3d bb 03 9b bd 37 3d 97 3c b1 47 09 3d
       0.095137835 -0.07569071 0.018461807 0.033515636
000170 bb 00 a5 3d 50 42 c5 3d c6 08 38 3d 40 5c 30 bd
       0.0805678 0.09631789 0.044930242 -0.043056726
000180 c4 78 99 3d 19 23 6c 3d aa bf 96 bb 4e 45 8d 3d
       0.07493737 0.05765066 -0.004600485 0.068979844
000190 b4 19 86 3c f3 48 3f bc 61 66 c0 3c af b5 dc bb
       0.016369678 -0.011675107 0.023486318 -0.0067355256
0001a0 34 16 06 bd 85 f1 48 3c d6 66 7f ba f3 ad 9a bd
       -0.03273602 0.012264614 -0.0009742802 -0.075527094
0001b0 28 3d a3 bd c7 98 06 3d 24 90 46 bd 69 a9 7a 38
       -0.07970649 0.032860544 -0.048477307 5.976242e-05
0001c0 8e 34 ac 3d 5a a6 92 3d 16 b6 5b 3d 55 31 3e 3d
       0.084084615 0.07160635 0.053640448 0.046433765
0001d0 4c be 82 3d e1 9f 8d bd de f5 be 3d 92 e9 a2 bd
       0.063839525 -0.0691526 0.09324239 -0.07954706
0001e0 56 54 7f bd 99 08 20 bd 40 a0 c5 3d 61 4c 4d 3d
       -0.06233629 -0.0390707 0.09649706 0.05012167
0001f0 4f f2 fd 3c fb 5f 7d 3d 06 ad c4 bd e6 ff c5 bd
       0.03099933 0.061859112 -0.09603314 -0.096679494
000200 38 c2 e9 3c 81 a8 07 bd a0 7a 36 3d 9a 59 9b bd
       0.028534994 -0.033119682 0.044550538 -0.075854495
000210 a5 2e c0 3d b7 73 b8 bd 43 e7 44 3d 58 6c 52 3d
       0.09383897 -0.09006446 0.04807211 0.051372856
000220 c3 ae 76 bd 4e 7a bf 3d 6c da 3c 3d 9b 19 3a bd
       -0.06022526 0.093495 0.04610674 -0.045434576
000230 5f f6 4d bd e3 45 96 3d f4 a0 f7 bc 2d b2 30 3c
       -0.050283786 0.073375486 -0.030228116 0.010784668
000240 f4 0a 20 3d 13 15 34 3d ea 26 6c bd f6 af 96 3d
       0.039072946 0.04396541 -0.0576543 0.07357781
000250 fd 55 a5 3c b9 36 ea 3c 94 f7 48 bd a6 8e 30 3d
       0.020182604 0.028590547 -0.049064234 0.04310479
000260 57 17 b7 bc 66 c3 8a 3d a7 ca 38 3d ca a8 8a 3d
       -0.022349996 0.067755505 0.04511514 0.06770475
000270 9c 36 92 bc c6 a4 86 3d 53 ca a7 3d f5 29 7f 3c
       -0.017848305 0.06574397 0.08192887 0.015573968
000280 96 d2 9b bb 91 cc 93 bd 29 97 6d bd f4 f5 78 3d
       -0.0047553284 -0.07216752 -0.058005486 0.060781434
000290 35 21 85 bd 05 13 60 bd 31 cb 4d 3d 62 fd 74 bd
       -0.06500474 -0.05470564 0.050242607 -0.059811957
0002a0 8c 4c aa bd 8c c1 9a 3c aa 68 2a 3d a4 d4 c6 bd
       -0.083153814 0.018891118 0.04160372 -0.09708527
0002b0 b9 96 07 3c 50 fc 9f bd f2 13 31 3d 2a ef 66 3d
       0.008275681 -0.07811797 0.043231912 0.05638043
0002c0 d9 46 0e 3d ee 2c be 3d e1 e7 bd bc d4 fb 29 bd
       0.034735534 0.092859134 -0.023181858 -0.041499928
0002d0 19 bf a6 3c 70 4b b0 3c 9a 84 49 bd 06 b8 8d bd
       0.020354794 0.021520346 -0.049198724 -0.06919865
0002e0 6c 4e 08 bd cb a4 24 3d d0 01 2d 3d 47 85 32 bd
       -0.033277914 0.04019622 0.042238057 -0.043584134
0002f0 7f 0f b3 3d 63 f1 a4 bd f3 bb 8f bc 00 7f e8 3c
       0.0874319 -0.08053853 -0.017545676 0.02838087
000300 d9 ce a3 bd b3 21 a5 3d d1 b0 53 bd d6 48 68 3d
       -0.079984374 0.08063068 -0.051682297 0.056710087
000310 63 31 75 3b de 25 78 bd 78 c4 b2 3d 82 dc 80 bc
       0.003741347 -0.060582988 0.0872888 -0.015730146
000320 1d 83 5b 3c 9d 8a bb 3d a5 db c6 bd a7 50 9c 3d
       0.013397959 0.09157298 -0.097098626 0.07632571
000330 47 04 61 bd 09 e2 a8 bd a1 d0 45 3d 2f 51 0e bd
       -0.05493572 -0.08246238 0.048294667 -0.03474539
000340 64 f5 b3 bd 1c d2 65 bd 85 9f 81 3d dc f9 18 3d
       -0.08787039 -0.05610858 0.06329254 0.03734766
000350 71 bb 16 bc f4 68 56 3d f2 e1 a6 3c 37 6c a7 bd
       -0.009199963 0.052346185 0.020371411 -0.08174937
000360 cc 80 c0 3c 90 0d 9a 3d a8 16 54 bc ed 8f 93 bc
       0.023498915 0.07522118 -0.012944855 -0.018012965
000370 08 08 d3 3d 51 61 cc bc 77 38 c4 3d 19 2d b7 3d
       0.10304266 -0.024948748 0.09581082 0.089441486
000380 50 79 a5 3d 34 40 a5 3c 70 00 b9 3c be d7 c2 3c
       0.08079779 0.020172216 0.022583216 0.023784515
000390 4e cb c2 bd 55 0f 1f bd 54 38 79 bd 08 33 83 bc
       -0.095114335 -0.03883298 -0.060844734 -0.016015545
0003a0 9b 47 66 bd ed e0 fc bc 9a 30 9e bd 96 e0 93 bd
       -0.056220632 -0.030868972 -0.07724114 -0.07220571
0003b0 61 66 d2 3c e1 fa bf 3d fc 9c 3c bd 1b 39 83 bd
       0.025683584 0.09374023 -0.04604815 -0.064073764
0003c0 53 28 29 bd 06 06 32 bd 0c 98 d7 bd 4a 67 b0 3d
       -0.04129822 -0.043462776 -0.105270475 0.08613451
0003d0 46 97 71 3d 32 c0 91 3d cd a3 5e bd 0e 64 90 bd
       0.058982156 0.071167365 -0.05435543 -0.07050334
0003e0 58 85 b7 3d fb 14 88 bd c9 e2 bc bd bf 55 bd bd
       0.0896098 -0.06644627 -0.09222943 -0.092448704
0003f0 fb 13 e6 3c d9 2f 6d bc ec 89 70 bd 21 4e a3 3d
       0.0280857 -0.01447674 -0.058725283 0.07973886

GNN2.bias f4 [96]
000000 ce 32 a5 bd 18 04 ae 3c 0a 64 29 3c b8 e3 3b bd
       -0.08066331 0.021242186 0.010338793 -0.045871466
000010 6a 94 56 bd f8 da d3 bd 36 6c 91 3c 21 18 94 bd
       -0.052387632 -0.10344499 0.017751794 -0.07231165
000020 3f c9 b9 3b 12 65 9a 3d 2a ea cf bd 7d cc 24 3d
       0.0056697424 0.07538809 -0.10152085 0.040234078
000030 7a 12 45 bd c3 ad 9a 3d 52 1b 52 bd bf 5f 2e 3d
       -0.048113324 0.07552674 -0.051295586 0.04257178
000040 60 4e 6f 3d d2 d2 e6 3c 9f fb 93 bd 16 7c a5 bd
       0.058424354 0.028176699 -0.07225727 -0.08080308
000050 47 4d 51 3d 25 3d 1f bd c5 30 6b 3d 47 e4 fb bb
       0.051099088 -0.03887667 0.057419557 -0.007687125
000060 53 69 fe 3c 99 bf 14 bd 72 59 36 3d a5 6a 0d 3d
       0.031056082 -0.036315534 0.044518895 0.034525532
000070 85 13 63 bc ef b1 c0 bd a1 dc bd bd 7a 3a c8 bc
       -0.013859634 -0.09408938 -0.09270597 -0.024441946
000080 84 1e a3 bd a1 d1 86 bd 7a 53 49 bc ba 8e a0 bd
       -0.07964805 -0.06582952 -0.012287969 -0.07839723
000090 88 1e 81 bd 79 ea 73 3d c9 54 a1 3c fd e3 f0 bc
       -0.063046515 0.059549782 0.019693749 -0.029405588
0000a0 ec ef e3 bd 64 d6 78 bd 54 8f 9b bb 58 33 6e 3c
       -0.11129746 -0.060751334 -0.0047473107 0.0145386085
0000b0 8e b6 0d 3c 18 0d 0e 3d 25 13 c2 bd bc 89 b8 bd
       0.008649481 0.034680456 -0.09476308 -0.09010646
0000c0 b4 85 49 3d 62 70 69 3d 83 0b cc bb d8 02 51 bd
       0.049199775 0.056991942 -0.0062269582 -0.051028103
0000d0 58 b5 7e 3b 72 7e b9 bd 5c 29 9f 3d 4b 59 d2 bc
       0.0038865414 -0.09057321 0.077715605 -0.025677344
0000e0 14 ae 0d 3d 40 e1 c6 bd 60 17 0d bc bf 34 58 bd
       0.034589842 -0.09710932 -0.00861153 -0.052784678
0000f0 08 cc 59 3d 27 fd 77 3d 5b 4d 53 3b e3 d5 c8 bd
       0.053173095 0.06054416 0.0032242152 -0.09806421
000100 47 5d 03 bd ff df 43 3d d4 b7 d2 bd d2 93 2a bb
       -0.032071378 0.04782104 -0.10288969 -0.002602805
000110 e0 0f 88 bd d5 5b d7 bd 62 77 71 bd 03 e4 1d 3d
       -0.06643653 -0.105155624 -0.058951743 0.038547527
000120 f7 b7 e8 bc 9e bc 12 3d 88 af aa bc 94 82 89 3d
       -0.028408034 0.03582441 -0.020835653 0.06714359
000130 2d 19 10 bd 5e 09 94 bd c2 6f 2f 3d 6a 5d 87 bd
       -0.03518026 -0.07228349 0.04283119 -0.06609614
000140 64 bb 7b bd b5 39 ce bd 73 ab e9 3c fc 72 a8 bd
       -0.061458007 -0.100696005 0.028524136 -0.082250565
000150 57 09 0e 3d 89 35 19 3d 88 4c 67 3d 73 ae a8 bd
       0.034676876 0.03740457 0.05646947 -0.082363985
000160 da 72 9f bd 90 62 0f bd 6d 43 70 bd b6 c9 1d 3d
       -0.07785578 -0.035006106 -0.058658052 0.038522445
000170 c9 db 53 bd 01 f0 13 bc 7e 6c 2d 3d 7e e2 82 3d
       -0.051723275 -0.009029389 0.042339794 0.06390856

GNN3.Theta1 f4 [1056, 2]
000000 c1 4e 1c 3e ff 02 eb bd 3d 76 4b 3e 54 b4 ee bd
       0.15264417 -0.11475181 0.19869323 -0.116554886
000010 2c 88 be bd 37 18 49 be 97 fa e9 3d 5e 81 20 3f
       -0.093033165 -0.19638143 0.11424749 0.626974
000020 6e a1 6f bd 07 0a 06 3f 7c 39 81 bd 0f 5f e7 be
       -0.05850356 0.5235905 -0.063097924 -0.4518971
000030 32 8f 0d bf bd 39 f0 3e 66 3d 96 be ff 70 9a 3e
       -0.55296624 0.4691905 -0.29343718 0.30164334
000040 12 e2 4a bd e8 db f2 be 48 a3 b3 b9 47 15 25 3f
       -0.049532004 -0.474334 -0.00034263195 0.6448559
000050 16 02 43 be 2d eb 2b 3f f7 90 74 be 52 82 6e bc
       -0.19043764 0.67155725 -0.23883425 -0.014557438
000060 0a b1 8b be d8 e9 ca be e8 24 ad be 1d c2 37 be
       -0.27283508 -0.39631534 -0.3381722 -0.17945142
000070 13 61 25 3d e1 23 b9 3e a4 b7 e7 3e d3 59 c8 be
       0.04037578 0.36160186 0.45257294 -0.3913103
000080 9e 0a f0 be 52 25 48 3d ae 46 59 be 49 e6 e3 bd
       -0.468831 0.048863716 -0.21218368 -0.11127908
000090 54 ea 2f bf cd 8e a8 3d 5d b9 ba 3e 7a bc a6 3e
       -0.6871693 0.08230362 0.36469546 0.3256567
0000a0 ac d4 aa 3d 4b 4c 12 3f cc b2 19 3d d9 b2 04 bf
       0.08341345 0.57147664 0.03752403 -0.518354
0000b0 07 d3 e1 3d 13 07 eb be e1 12 47 be 02 74 f1 3e
       0.110265784 -0.45903835 -0.19440795 0.4715882
0000c0 0f a9 cc be ae 5b 19 3f 20 7b e6 3e 12 38 18 bf
       -0.3997273 0.5990552 0.45015812 -0.59460557
0000d0 da e5 0c bf 0e de 20 bf 5f 74 20 3e d4 be 2d 3f
       -0.55038226 -0.6283883 0.15669392 0.67869306
0000e0 fe 94 e4 be d5 8a b8 be ab 9a f2 be 34 42 e1 3e
       -0.44644922 -0.3604342 -0.47383627 0.4399582
0000f0 5a 57 23 bf de fd 53 3e 3e 3d 09 bc ca a1 0a bf
       -0.6380516 0.20702311 -0.008376418 -0.5415312
000100 e1 f1 2e be 58 23 96 3e 59 21 29 3f 17 4b 90 be
       -0.17084457 0.2932384 0.6606651 -0.2818229
000110 84 40 c3 bd fd 2f ee bc d0 fa 0c bf 25 94 bc be
       -0.0953379 -0.029075617 -0.5507021 -0.36831775
000120 b6 2d b7 bd b2 23 a6 3b 13 bd e0 be 86 88 1f 3e
       -0.089442655 0.005070173 -0.43894252 0.15579423
000130 2b 2c 12 be 50 ba 01 3f 1f ec 12 bf 4c a1 a8 bd
       -0.14274661 0.50674915 -0.5739154 -0.0823389
000140 18 81 3d 3e 9e 2f f8 be e7 59 4e be 7a 2e ae be
       0.18506277 -0.4847383 -0.20151483 -0.34019834
000150 fa 2f 85 be 68 2b 1e bf d1 da 85 be b0 27 31 3f
       -0.26013166 -0.6178498 -0.26143506 0.69201183
000160 3f 10 da be ca 4b 23 3f 5b 62 98 3c 6d fa 6a 3e
       -0.4259052 0.6378752 0.018601587 0.22947092
000170 26 bc 76 3e b6 63 cf bd a0 ef 05 3f 1d 86 38 3c
       0.2409521 -0.1012644 0.52318764 0.011262444
000180 1d 01 6f be 10 e7 29 bf 60 d7 16 bf 4f a1 00 bf
       -0.23340268 -0.663682 -0.58922386 -0.5024614
000190 c0 c5 a7 3b 59 81 1f 3f 38 1e 20 bf 25 5c 06 bf
       0.005120009 0.62306744 -0.6254611 -0.5248435
0001a0 94 97 a3 be e0 55 01 3f 09 1f e7 3e c2 75 a3 be
       -0.31951582 0.5052166 0.45140865 -0.3192578
0001b0 f6 1a a7 3e ba 16 c5 3e 11 89 16 3f 44 29 8c 3d
       0.32637757 0.38493901 0.58802897 0.06843808
0001c0 9c cb 56 bd bf 82 48 be b2 6a 0c be 02 bf 59 bc
       -0.05244027 -0.19581126 -0.13712576 -0.013290169
0001d0 bb 9e 2c bf d3 3a 18 3f 00 82 96 3d c7 60 10 3f
       -0.67429703 0.5946476 0.07349014 0.5639767
0001e0 1b a9 0f 3e 1a e1 c8 be 52 40 e6 3e d3 ea 83 3e
       0.14029352 -0.3923424 0.44970948 0.25765094
0001f0 96 a2 2c bf 16 fc 33 3e 9e 95 d1 3d af 41 a6 bc
       -0.67435586 0.17576632 0.10233615 -0.020294992
000200 0e 46 df bc 34 7a 0e 3e 0b ea 8f 3c 29 b5 ef 3e
       -0.027255084 0.13913804 0.017567655 0.46817902
000210 f1 d3 ab be 57 aa 0d 3f b1 f4 33 be cf 95 8b bd
       -0.33560136 0.5533804 -0.17573811 -0.06815683
000220 42 b2 25 bf e2 a1 f0 bd ee cc d9 3e c0 21 17 3f
       -0.64725125 -0.11749627 0.4253916 0.59035873
000230 b3 ee da be 11 21 00 3f 27 bf 8b be f2 19 11 3f
       -0.42760238 0.50050455 -0.27294275 0.56680214
000240 5a ef 97 3e 24 54 98 3e 33 24 d2 3e 4c 0d 11 3f
       0.29674798 0.29751694 0.41043243 0.56660914
000250 5d 8c 76 3c e0 e7 f7 bc 41 a4 47 be 67 f4 46 3d
       0.015048114 -0.030261934 -0.19496252 0.048572924
000260 8a 20 99 be 7b 36 17 3f dc 7a c6 be 8e 90 07 be
       -0.29907638 0.59067506 -0.3876561 -0.13238737
000270 30 eb 4f 3e e4 26 19 be a0 12 38 bd 7d 2f f2 bd
       0.2030456 -0.14956242 -0.044939637 -0.11825464
000280 c2 0a ba 3e 69 10 ea be a0 11 0f be 54 03 af 3e
       0.36336333 -0.45715645 -0.13971567 0.34182227
000290 bb fb 9f 3e a0 70 dc bd bf db ea be 08 e1 c9 3e
       0.31246743 -0.10763669 -0.45870778 0.39429498
0002a0 f6 f3 da 3e 17 2b 9b be 6c ab 17 3f c5 a8 e9 be
       0.42764252 -0.30306312 0.59245944 -0.45636573
0002b0 ce 19 e3 be 38 01 34 3f 38 51 7f be 27 ad 26 3f
       -0.44355625 0.7031436 -0.24933326 0.6510796
0002c0 06 72 1f bf 5c 2d 21 3d c8 a2 e6 be 60 32 11 bf
       -0.6228336 0.0393499 -0.45046067 -0.5671749
0002d0 3d e6 f5 3d c5 a5 f5 be 7c db 13 3e d3 9c a2 be
       0.12006805 -0.47978035 0.14439195 -0.31760272
0002e0 03 e4 1a bf d8 b0 22 3f ea 15 d5 bd 30 82 a4 3c
       -0.6050417 0.6355109 -0.104045704 0.02008161
0002f0 01 ec b0 be 1b 79 34 3d 4f fb 05 3f 8b 05 15 bf
       -0.34555057 0.044060808 0.5233659 -0.5821158
000300 54 4d ba be eb 41 a9 bd 71 44 03 bf 2c ab 18 bf
       -0.36387122 -0.08264526 -0.5127631 -0.5963619
000310 40 b4 d5 3d f3 15 50 3c 41 f9 96 be 9e fc fb bc
       0.104347706 0.012700546 -0.2948704 -0.030760106
000320 78 cf f4 be 17 ff b2 3e 84 f2 13 3f e5 2d 30 bf
       -0.47814536 0.34960243 0.57791924 -0.6882003
000330 ea 3c 88 3e 8d 3b 8e be 90 0e bc bd 92 6f 82 be
       0.26608974 -0.2777981 -0.09182465 -0.25475746
000340 46 cd f5 be c0 d4 a5 bd 65 be 8f 3d 6b 61 9a 3e
       -0.48008174 -0.080972195 0.07018737 0.3015245
000350 13 6a 0f 3e de 12 b7 bd dd e9 6a 3e cc 3a 30 3f
       0.14005308 -0.089391455 0.22940774 0.68839717
000360 c4 b3 f4 be 43 5e d7 be ca ba ad 3e c7 4b 2d bf
       -0.477934 -0.42064103 0.3393157 -0.6769375
000370 3d 90 ff bd 35 81 c5 be 0a 85 1d bf c7 ae c9 3e
       -0.12478683 -0.3857514 -0.61531126 0.39391157
000380 72 94 21 bf 80 f1 06 3f c2 86 8d be f7 f1 af be
       -0.63117135 0.5271225 -0.27641875 -0.34364292
000390 67 36 b2 be ba 01 9d 3e 64 0d b7 be 34 52 32 3f
       -0.3480713 0.3066538 -0.35752404 0.6965668
0003a0 88 2f 11 3f 82 fd 5b be f6 b2 b1 be f2 de 5d be
       0.5671315 -0.21483424 -0.3470685 -0.21667078
0003b0 85 85 b4 3e 1f 28 22 bf e1 01 4c 3e 1a 85 ad be
       0.35258117 -0.6334247 0.19922592 -0.3389061
0003c0 f8 08 23 3f ec a6 33 bf 9a 21 90 3e b3 fc c3 3e
       0.6368556 -0.7017658 0.28150636 0.38278732
0003d0 b1 c6 dc be 3e 3a 67 3e e5 16 ba be 41 bc 2c 3e
       -0.4312034 0.22580811 -0.36345592 0.16868688
0003e0 7d ee 9e 3e f7 b9 f1 be 98 48 c8 3e 43 ef 07 bf
       0.31041327 -0.47212192 0.39117885 -0.5309946
0003f0 86 9f fb bd 16 0a 16 3e 19 ae 03 bf e2 34 c6 bc
       -0.12286286 0.14652285 -0.51437527 -0.024195138

GNN3.bias f4 [2]
000000 04 f3 13 3f 34 46 8c 3e
       0.5779269 0.2739731
