trained_models/iS_GNN_Trained_ep_100_bs64_lr5em04_z96_k_diff_1_kNN_10_ramps_30_b_cap_75.0.pth (torch, 135343 bytes, 6 tensors)

GNN1.Theta1 f4 [48, 96]
000000 aa 09 3a 3c 0d 97 89 3c b6 61 a2 3a 4a e5 6e 3d
       0.011354843 0.01679566 0.0012388739 0.058324136
000010 3c d6 f5 ba 43 52 19 bb 51 4d ac bc 90 46 ad 3c
       -0.0018755863 -0.002339498 -0.021032961 0.02115181
000020 8e ad 3a 3d 99 14 a0 bc 0b 40 48 3d 39 5e a3 3c
       0.04557567 -0.019541072 0.0488892 0.01994239
000030 a4 7a 89 3d 0b e3 0c 3d 05 02 10 3d c6 24 7a 3c
       0.06712845 0.034396213 0.035158176 0.0152675565
000040 b8 af 12 3d 28 4c ca 3c 7b 45 8c bc 97 c0 23 3a
       0.03581211 0.024694517 -0.017122975 0.00062466547
000050 a9 da f4 3b f3 51 01 3d 96 79 d4 bc 1f e4 da 3c
       0.0074723554 0.031572293 -0.025936883 0.026720105
000060 a4 a7 15 bd 1e 5d a5 ba cf 86 ce bc 6c 6f 0f 3c
       -0.036536828 -0.0012616252 -0.025210766 0.008754592
000070 e0 12 bc 3c ad e3 23 bd 72 a6 87 3d 10 fe d1 bb
       0.022958219 -0.04001205 0.06623544 -0.0064084604
000080 f7 3a 0f 3d ec 60 0b 3c 8a 5e 89 bd 86 b8 e5 3c
       0.034968343 0.008506995 -0.06707485 0.02804209
000090 dd 92 5f 3d 94 86 3e 3d 25 c3 1e 3c ed ad a7 bc
       0.05458342 0.046515062 0.009690081 -0.020468676
0000a0 9a 39 ca 3c 04 6b b4 bc 5f 5c 91 3c 96 f4 a2 3c
       0.02468567 -0.022023685 0.017744241 0.019892018
0000b0 3c a8 ee 3c 7d 16 c0 bc 07 e9 94 3c 19 84 0f 3d
       0.029132955 -0.023448223 0.018177522 0.035038088
0000c0 10 fa 4b 3c 50 bc 9f bc 89 f1 4b bd 42 96 aa bc
       0.012449756 -0.019498974 -0.049790893 -0.020823602
0000d0 38 54 5e bd 17 b6 3b 3d c2 6a 6d 3c a9 f0 e6 3c
       -0.054279536 0.04582795 0.014490785 0.028190928
0000e0 3c 32 c7 3c d6 5d cd bc 74 0f c1 3c 13 ae 08 3c
       0.024315946 -0.025069159 0.023566939 0.008342284
0000f0 06 7f ad bb 06 69 c3 bc 92 e4 55 3c bf 98 38 3c
       -0.0052946834 -0.02385379 0.013054984 0.011266886
000100 d9 eb d1 3b 85 b4 9b ba 9a 49 cf 3c e3 b3 a0 bc
       0.006406289 -0.001187936 0.02530365 -0.019617027
000110 a3 b7 28 bd ac e2 62 bc 50 91 37 3d 42 b1 fe 3c
       -0.041190755 -0.013847988 0.044816315 0.031090382
000120 2c 84 93 3c 1e cc 1b bd a9 ad 9b bc 39 dc 29 bd
       0.01800736 -0.03803646 -0.019003706 -0.041469786
000130 e5 ea eb bc 8d 1e ed 3c 0e 82 42 3c 62 a4 5d 3d
       -0.02879853 0.028945232 0.011871828 0.054111846
000140 0a 65 72 b8 a1 f1 89 bd 50 22 de 3b 70 97 28 3c
       -5.7791396e-05 -0.0673554 0.0067789927 0.010290012
000150 0d a5 88 3c 9c 4f 82 bc 65 e7 aa 3c 0a 29 d0 bc
       0.016680265 -0.015907101 0.02086229 -0.025410194
000160 66 27 39 bd 2b d1 1f 3c 50 3f 5f 3c a4 18 4e bb
       -0.04520359 0.009754459 0.013625935 -0.0031447792
000170 46 79 2a 3d 08 4c 2b 3d af af 83 bc 7a 1c d8 bc
       0.04161956 0.041820556 -0.016074983 -0.026380766
000180 68 34 f1 3c 99 fa 8b bd 91 5a 45 bc d1 8f 8a bd
       0.029443935 -0.06834907 -0.0120455185 -0.06765712
000190 69 71 87 bc 28 71 a9 bb e0 6d 8e 3b 66 81 44 bd
       -0.01653357 -0.00517096 0.004346594 -0.047974966
0001a0 33 80 3a 3d 46 34 21 bc cf 2a d9 bd 8f 04 b0 bd
       0.045532417 -0.009839123 -0.10603868 -0.085946195
0001b0 8d bd 83 bd 62 a4 0a bb 55 d7 cb 3d e1 46 39 3d
       -0.06432638 -0.0021155109 0.09953181 0.04523361
0001c0 b2 16 0a 3c 29 1c a7 bd 51 71 2e bd 80 b2 c2 bc
       0.008428263 -0.08159668 -0.042588536 -0.023766756
0001d0 df df 15 3d ca 51 18 bd ff ec 3b bd 41 35 db bd
       0.036590453 -0.037187375 -0.045880314 -0.10703517
0001e0 ad aa 3e 3c c1 a2 d1 bc 55 3d cb bb 76 e8 3e bd
       0.011637372 -0.025590302 -0.0062023797 -0.04660841
0001f0 90 c5 71 bb e7 79 18 bd b8 99 1d bd 22 a7 32 bd
       -0.0036891438 -0.03722563 -0.038476676 -0.04361642
000200 f4 5a 98 3d da cc 43 bd 7a cc 3e 3d 6f 31 8e 3a
       0.07439223 -0.047802784 0.046581723 0.0010848473
000210 4c db a0 bc 8e a9 95 3d 24 ea cb bb 68 90 25 bd
       -0.019635819 0.073077306 -0.00622298 -0.04042092
000220 9e 87 c5 bd bf d8 80 bd 2f 60 84 3a da 6c 32 bc
       -0.096450076 -0.06291341 0.0010099466 -0.01089021
000230 cc bf 11 3d 7a c1 81 bc 26 6f c0 3d 2e 13 e1 bc
       0.035583302 -0.015839327 0.093962 -0.027474966
000240 ae c6 09 bd 38 9e 5a 3d 19 b6 8d 3d 14 35 b2 3d
       -0.03363674 0.053373545 0.06919498 0.0870153
000250 fa 0d c2 3d a1 51 ca bc 50 7e 3d 3d 9e 8e 65 bd
       0.09475322 -0.024697127 0.04626304 -0.056044213
000260 f2 15 61 3c 85 53 a7 bd c0 65 95 3d 54 69 68 bc
       0.013738142 -0.08170227 0.07294798 -0.014185268
000270 b8 ae de 3c ce 41 28 3d 49 ec 25 3d 97 fe 20 37
       0.027182922 0.04107838 0.040508542 9.5960195e-06
000280 42 ff 46 3d f8 38 44 3d 82 c9 82 bc 90 7a 75 bd
       0.048583277 0.047905892 -0.015965227 -0.059931338
000290 66 d2 52 3c 05 99 64 3c 47 7c ab bd 91 df d3 3d
       0.012867546 0.013952498 -0.083733134 0.10345376
0002a0 25 e0 d5 bc 52 a6 5b bd 95 b4 ab bc cd 04 91 3c
       -0.026107857 -0.053625412 -0.020960132 0.017702485
0002b0 3e 27 88 3d 36 15 16 3d 75 07 c2 bd db a4 82 bc
       0.0664811 0.036641322 -0.094740786 -0.01594775
0002c0 22 0d 9e bd a8 9e eb 3c d9 6e 1f 3d e5 b3 cd bc
       -0.07717349 0.028762177 0.038924072 -0.025110194
0002d0 ad 4c 08 3d be 41 c8 3c 7a a2 66 3c 3e 5d 21 3d
       0.03327625 0.02444541 0.014076823 0.039395563
0002e0 ff 33 58 3d 02 cd 13 3d 25 6a 64 3d 91 b7 bb 3c
       0.052783962 0.036084183 0.05576529 0.02291468
0002f0 f3 7c 1e 3c 32 ea 72 bc a6 77 fe 3c 08 03 34 bd
       0.009673345 -0.014826344 0.031062912 -0.043948203
000300 8e 05 a1 3a 8e 5f 5c 3d b1 eb 65 3c 41 1b 07 3c
       0.0012284981 0.053802066 0.014033244 0.008246244
000310 28 c8 31 3d 0b 92 16 bd 84 7c 2d 3d 48 19 60 3d
       0.043403774 -0.03676037 0.042355075 0.05471161
000320 ad ff 4a bd 8f f7 b5 3c 19 31 88 3d 25 13 24 3c
       -0.049560238 0.022212772 0.0664999 0.01001433
000330 d8 35 a3 3c 78 4f af 3a 53 fb 84 bd ad 13 86 bd
       0.019923136 0.0013375124 -0.06493249 -0.065467216
000340 e9 91 66 bd 6a dc 44 3d 46 56 b7 3d cf cf 6a 3d
       -0.056291495 0.048061766 0.08952002 0.057327088
000350 25 83 8e bd 37 79 0f bc 03 8d 93 bc 3f 40 58 3d
       -0.069586076 -0.008756927 -0.018011576 0.052795645
000360 e9 f6 d5 3c a8 17 66 bc 17 84 30 3d e4 b4 85 bc
       0.026118712 -0.014043726 0.04309472 -0.016321607
000370 db 2c a0 39 13 45 c6 3d 26 97 4c bd 9a ff 86 3c
       0.00030550998 0.096811436 -0.049948834 0.016479302
000380 67 d7 e6 bd f0 f3 26 3d c6 d6 13 3d e7 59 d4 3b
       -0.112715535 0.04075998 0.036093496 0.0064804438
000390 53 5e 8f bb 46 48 c9 bd a5 fe 79 bd e4 35 99 3d
       -0.004375258 -0.09828238 -0.061033864 0.07480982
0003a0 e3 a7 18 3d 8b d9 fe 3d c5 0f cf 3c 98 84 18 3d
       0.037269484 0.12443837 0.025276074 0.037235826
0003b0 b1 cd a8 bb db ea 1e bc fd d5 8d bd 0e b0 44 bd
       -0.0051514735 -0.009699549 -0.06925581 -0.04801946
0003c0 0c 15 d3 3c a8 e4 93 bc 55 39 84 bb 83 aa 5d bd
       0.025766872 -0.018053368 -0.004035155 -0.05411769
0003d0 78 c8 89 bc fd aa 7f bc 82 df 3c bd e0 d9 b1 3c
       -0.016819224 -0.015604732 -0.04611159 0.021710336
0003e0 88 45 b1 bb 29 54 6c 3d 3f 19 58 bd 44 c5 67 bc
       -0.0054099 0.05769745 -0.05275845 -0.014146153
0003f0 e5 d7 39 bd cc 4e 35 bd 9c a4 c3 bc 70 ec 2b bd
       -0.04537191 -0.0442646 -0.023882203 -0.04197353

GNN1.bias f4 [96]
000000 fe e2 7d 3c 32 07 17 bd 61 65 f6 3c 4a bf 78 bd
       0.015496014 -0.036872096 0.030077638 -0.060729302
000010 7c de c4 bc c0 f9 a3 3c 6a 69 88 3d 76 32 3e 3c
       -0.02403187 0.020016551 0.06660731 0.0116087105
000020 bb bc 43 bd fb 0f 87 bd 76 72 6f bc 71 f1 06 bd
       -0.04778741 -0.06594845 -0.014614692 -0.0329451
000030 d0 bc ac 3d e0 15 38 bd 10 c8 2d 3d 4f b8 ce 3b
       0.084344506 -0.044942737 0.042427123 0.0063085924
000040 14 63 cd bc bc 5a 80 3d b7 6e 94 3b 44 e4 92 bb
       -0.025071658 0.06267306 0.0045298 -0.004482778
000050 84 f3 29 bd e3 f8 a1 bc e6 ae cf 3c 7f 94 74 3d
       -0.041492 -0.019771999 0.025351953 0.05971193
000060 1b 60 01 bd 58 60 b8 bc f2 ba 83 bd 4f f5 87 3d
       -0.031585794 -0.022506878 -0.06432141 0.06638586
000070 79 4c 7b 3d 59 fc 1f 3d ca 45 06 bd b9 e7 17 3d
       0.061352227 0.039059017 -0.0327814 0.037086222
000080 3c bb 9a bc 4e 20 4c 3d 08 f0 94 3d b1 81 b6 bd
       -0.018888108 0.049835496 0.07272345 -0.089114554
000090 7d 5c 01 3d ef 02 0b 3d 8c 4a 7f bd 67 d8 cc 3d
       0.031582344 0.033938345 -0.062326953 0.10002213
0000a0 e9 18 4a 3d 05 f0 49 3d 99 ef af 3a 0a e7 4e bd
       0.049340162 0.049301166 0.0013422846 -0.050513305
0000b0 15 1b 99 bc 38 06 58 3d dc dc 95 bc 3b 82 86 3d
       -0.018689672 0.052740306 -0.01829379 0.06567808
0000c0 dd 1b 81 3d 7b bd 10 3c ed d6 8e bd 6b 41 6d 3d
       0.063041426 0.008834238 -0.069745876 0.057923716
0000d0 d4 33 af 3d f4 61 53 bc 8e 25 08 bd 6e 26 dd bb
       0.08554807 -0.012901772 -0.03323894 -0.006748966
0000e0 c8 f9 7a ba e9 e8 71 bd 95 fe 53 3d a9 05 67 3d
       -0.00095739635 -0.05906001 0.05175646 0.056401882
0000f0 4e 5e 2d bd 53 42 05 bd 46 f1 b5 bc b1 34 97 3d
       -0.042326264 -0.032533955 -0.022209775 0.07383097
000100 22 74 e1 3c 2e 00 ae 3c 9b 31 a8 bb 2b cb 5b 3c
       0.027521197 0.02124032 -0.0051328666 0.013415138
000110 70 20 f7 3d 84 de d0 3c ab f7 35 bd 80 35 88 3d
       0.12066734 0.025496729 -0.044425648 0.06650829
000120 76 b2 3e bd ea 02 8d 3c a2 8a 24 bd 44 a6 14 bb
       -0.046556912 0.017213304 -0.040171273 -0.002268211
000130 3a ff 74 3b 12 4f d8 bc 6b a1 77 3d fa e9 95 3d
       0.0037383572 -0.026404891 0.060456675 0.07320018
000140 a3 86 39 bd ae 66 d7 3c 41 27 6e bd 07 29 49 bc
       -0.045294415 0.026294079 -0.058142904 -0.012277848
000150 96 dd 29 3d aa 7b e8 bb a6 f4 6a 3c 57 0d 1b bd
       0.041471086 -0.00709482 0.014340555 -0.03785452
000160 9b 70 a5 3d dc 1c bb bc cb 86 00 3d 85 28 e0 3c
       0.080781184 -0.02284091 0.03137855 0.027363071
000170 1c 54 ae 3d 9f 3f 9d 3a d8 99 84 3d 3b 6b 42 3d
       0.08512136 0.001199711 0.06474656 0.047465544

GNN2.Theta1 f4 [288, 96]
000000 fd c7 20 3d 61 83 52 bc d8 55 d6 3c 97 fa a7 3d
       0.039253224 -0.012848706 0.02616398 0.08202093
000010 6e 2d e7 bc e5 48 e6 bc 46 25 ca 3d f0 fb f1 3c
       -0.028219905 -0.02811093 0.098703906 0.029539078
000020 a8 90 a1 bd 3e 65 0b 3d 6c 35 c7 bd 2d 5d 73 bd
       -0.07888919 0.0340321 -0.09726986 -0.05941503
000030 fc b0 2c 3d 0a 9b 30 3d e4 22 b6 bc cd 1f a5 3d
       0.042160973 0.043116607 -0.022233434 0.08062706
000040 6e ea 87 3d 9b 7d 8c 3d a1 de 51 bd ea da ab bc
       0.06636511 0.06859895 -0.051237706 -0.02097841
000050 e1 d3 b3 3c a4 62 88 3d 2e 3e f8 bc 0a ba 93 3c
       0.021951618 0.06659439 -0.030303087 0.018033046
000060 3b 3d 14 3d 25 12 e2 bc af f9 ec bc 5f f5 c0 3d
       0.036191206 -0.027596543 -0.028927652 0.09421801
000070 87 7f c3 bb 22 e6 8f 3d 46 49 df bd a8 0f 29 bd
       -0.00596613 0.07026316 -0.10902648 -0.041274697
000080 e8 3c 6c 3d d1 c3 13 bb 19 1d bc 3c d1 82 a2 bd
       0.057675272 -0.0022547136 0.022963094 -0.079351075
000090 50 f6 bc 3d 5b 86 55 bd 93 e1 85 3c 4f bf 62 bd
       0.09226668 -0.052130084 0.016342914 -0.055358227
0000a0 af b1 6e bd 70 28 ad bd 06 b8 ce bd 71 ba 86 3c
       -0.05827492 -0.084549785 -0.100936934 0.016446324
0000b0 2a 75 38 bd b8 81 70 3d 15 65 7f bc 18 3a 9b 3d
       -0.04503361 0.05871746 -0.015588065 0.0757944
0000c0 31 b3 8d bc ce 76 ab 3c 92 ba b2 3d f5 c2 c6 bd
       -0.01729736 0.020930674 0.08726992 -0.09705154
0000d0 54 fa 2c bd 08 c0 7a 3d 94 5f 36 bd b3 12 64 bd
       -0.04223092 0.06121829 -0.044524744 -0.055681895
0000e0 c5 09 85 3a 7c 2c 20 bd 2c 69 e6 3c e6 d2 3c bd
       0.0010150006 -0.039104924 0.028126322 -0.046099566
0000f0 3c 79 ad 3c a4 79 19 bd 20 53 09 bd fd 10 f4 bc
       0.021175973 -0.03746952 -0.03352654 -0.029793257
000100 30 08 b5 3b 1c e3 41 3d e0 c2 ae bd 78 c5 6e bd
       0.0055246577 0.04733573 -0.08533263 -0.05829379
000110 c5 b3 c4 bd 36 10 ea 3c 20 2b 6f 3d 93 f0 e7 bd
       -0.09604601 0.028572183 0.058390737 -0.11325183
000120 ac 79 97 3c 78 c6 1a 3d 03 cc 0c bd 1a 69 96 3c
       0.018490635 0.03778693 -0.03437425 0.018360663
000130 f8 62 5a 3d 03 a4 b3 3d 55 d5 12 3d 12 a2 93 bc
       0.05331704 0.08771517 0.03584798 -0.018021617
000140 25 58 89 bd a4 17 4f bc 9b 36 11 3c 5f ab 87 3c
       -0.06706265 -0.012639914 0.008863117 0.016561208
000150 9e 99 af 3d 9e b6 bc bd 41 bd 92 3c 3c 91 20 bd
       0.08574222 -0.09214519 0.017912509 -0.039201006
000160 38 8d 5b 3c c1 46 b1 3d b7 9e 14 3c 04 6b 32 bc
       0.013400368 0.08656073 0.009071044 -0.010889772
000170 28 28 f8 bc 93 12 ba bd 7e 00 93 bd b0 80 0e 3d
       -0.030292585 -0.09085574 -0.07177828 0.034790695
000180 2b bf 9e bd f8 52 22 3d b3 d9 ec bc ad f0 8d 3c
       -0.07751306 0.039629906 -0.0289124 0.017326677
000190 35 73 af 3d ed ed 95 3c 88 a1 66 3d 8a 0b a9 3d
       0.08566896 0.018301928 0.056306392 0.08254154
0001a0 75 e4 5f bc 2f da 9d 3d 8c e1 af bd ed 7b b5 3d
       -0.013665308 0.07707631 -0.085879415 0.088615276
0001b0 c0 5d 11 bd 20 ed 2e bc 5c 37 57 3d e4 97 cf bb
       -0.035489798 -0.010676652 0.05254303 -0.0063352454
0001c0 99 0a 5c 3d 05 4b 97 bd ca f4 bd bc 56 5e d1 3d
       0.053721044 -0.07387356 -0.023188014 0.10223071
0001d0 29 58 6d bd fd ae 4a 3d 2a 2a a0 3d f6 d1 7a 3d
       -0.057945404 0.049483288 0.07820542 0.06123539
0001e0 3d f1 55 bd eb ff 87 3c 6b 21 76 bd 76 5e 84 bd
       -0.052232016 0.016601523 -0.060090464 -0.064633295
0001f0 bf 21 5c bc c3 c1 92 bd 3f 8a 28 3d c1 11 39 3d
       -0.01343578 -0.07165863 0.041147467 0.045182947
000200 fb 4c 3b bd 1d ba cc bb 4e 1f ad 3d 65 0c f2 3b
       -0.04572771 -0.0062477724 0.084532365 0.0073867314
000210 f2 f3 98 3d ea 65 bd 3d 61 79 8a bc 2e 34 c3 bd
       0.07468404 0.09247954 -0.016903581 -0.09531437
000220 79 f9 9d 3d 7b 6d 25 bd bb d9 bc 3d 23 9c ea bc
       0.07713599 -0.04038761 0.09221216 -0.028638905
000230 40 6b 87 3c 2c 47 81 3c 28 95 e7 bc 7a b3 a0 3d
       0.016530633 0.015781008 -0.028269365 0.078467324
000240 31 50 a8 bd 5f b8 13 bd 48 81 93 bc 61 0c 84 3d
       -0.0821842 -0.0360645 -0.018005982 0.064476736
000250 1c 69 3c 3d e5 c3 3d 3d e3 03 a6 3c 6a 53 74 3d
       0.045998678 0.046329398 0.020265525 0.059649862
000260 c2 a8 12 bd 89 38 b9 bc a9 42 b1 3b 7d 2c fb 3c
       -0.03580547 -0.022609966 0.005409558 0.030660862
000270 34 15 3e bd 67 f9 8a 3c d8 ef d8 3c da e3 ee 3c
       -0.04640694 0.016964627 0.026481554 0.029161382
000280 31 a8 80 3d 76 de b0 3c 96 e7 9b 3d 5a b2 7d bc
       0.0628208 0.021590453 0.07612531 -0.015484417
000290 7c 43 b7 bd 7e 63 53 3d 85 32 ad 3c 20 55 ac 3d
       -0.089484185 0.051608555 0.021142254 0.08414674
0002a0 37 52 bd 3c 6b 00 75 3c 71 d9 4e bd 90 c2 c2 bd
       0.023110492 0.014953713 -0.050500337 -0.09509766
0002b0 55 e8 0e ba 60 93 a8 3d 78 95 8d bc 16 b1 17 bd
       -0.000545149 0.082312346 -0.017283186 -0.037034117
0002c0 df fa 23 3d 2e df e8 bc 97 da 3c 3d 62 3b 6b bd
       0.04003417 -0.028426733 0.0461069 -0.05742968
0002d0 50 79 a7 bd db 64 8c bd ed 22 91 bc ad bc d4 3c
       -0.081774354 -0.06855174 -0.01771685 0.025968874
0002e0 98 79 72 3d a2 85 8b bd f3 c4 96 bc cc b9 5f 3d
       0.059197992 -0.06812598 -0.01840446 0.05462055
0002f0 0d 10 39 bc fe c2 4b 3b c2 62 b2 3d a3 e9 11 bd
       -0.011295331 0.0031091566 0.08710243 -0.035623204
000300 7a 52 19 3d 5c 54 84 3d fa 74 0b 3d bb 21 1a bd
       0.03743217 0.06461403 0.034047104 -0.037629824
000310 72 f8 5a bd 9c 3f 83 bd 96 a9 bb 3a 8d e9 e6 3c
       -0.053459592 -0.06408617 0.0014317508 0.028187538
000320 a8 03 98 3d 36 69 3e bb 69 5a a8 3d 56 69 39 bd
       0.074225724 -0.002905441 0.08220369 -0.04526647
000330 1e 3f 96 3c 62 06 72 bd bd 0f ba 3c 30 13 96 3d
       0.018340643 -0.05908812 0.022712583 0.073278785
000340 07 ac 7a 39 ed ac b5 bc 52 55 93 bb 92 b8 94 bd
       0.00023905943 -0.022177184 -0.004496255 -0.072617665
000350 47 8b 87 bd 82 cd dd bd 41 d3 56 3d 48 91 4e bd
       -0.06618362 -0.10830213 0.05244756 -0.05043152
000360 77 e1 ec bc a3 37 96 bd 57 b7 60 3b 32 3c 9f 3d
       -0.028916104 -0.073348306 0.0034288967 0.07775153
000370 17 b4 d8 3c 23 eb b7 bc c7 40 11 3d c5 27 90 3d
       0.026453061 -0.02245099 0.035462167 0.070388354
000380 c0 d1 80 3d 01 94 86 bd 3c 74 dc bb 2f a4 8f bd
       0.06290007 -0.06571198 -0.0067277234 -0.070137374
000390 22 b3 a8 bd 6b 48 9c 3d 35 a9 7f bd d9 27 44 bd
       -0.08237292 0.07631 -0.062417228 -0.047889564
0003a0 bb fb fc 3c ba 0a e9 3d d3 14 d6 bd 80 5d f0 bc
       0.030881753 0.11378999 -0.10453191 -0.02934146
0003b0 eb 0a 2c bd 7b 70 84 3d be 95 62 3d 11 03 80 3d
       -0.0420026 0.064667664 0.055318587 0.06250585
0003c0 eb 22 9b 3d ac 41 9d bc bd 25 96 3d 31 a6 87 bc
       0.075750194 -0.019196354 0.07331417 -0.016558738
0003d0 75 47 08 3c dd 01 3e bd 9d ce a0 3c 00 07 5c 3c
       0.008317818 -0.046388496 0.01962977 0.013429403
0003e0 f4 b8 ad bc ff 3b ca 3d a6 a3 e5 bb 96 e3 85 3c
       -0.021206357 0.098747246 -0.007008034 0.016343873
0003f0 ea 19 9c 3d 2d 7b 17 3d 13 60 1e bd b2 37 28 bd
       0.0762213 0.036982704 -0.038665842 -0.04106874

GNN2.bias f4 [96]
000000 54 82 ab bc aa d5 3a bc 8c 98 84 bb 0c 00 23 3d
       -0.020936169 -0.011403481 -0.0040465053 0.039794967
000010 a3 ed 60 3c de f0 2d 3c cb ca 46 3c 25 ca db 3a
       0.013728532 0.010616509 0.012133311 0.0016768618
000020 91 1d cb 3a 8c ef 0c bc e9 de 00 3c 3e a1 c0 3b
       0.0015496482 -0.008602034 0.007865646 0.0058785966
000030 a7 78 9c bc 90 f6 5c 3b 6e 47 2a 3d 8f 93 92 bc
       -0.0191005 0.0033716299 0.041572027 -0.017892627
000040 17 de f9 bc 10 a3 11 bc b6 43 f8 bc fc b6 2b 3c
       -0.030501409 -0.008888975 -0.030305725 0.010480639
000050 87 91 82 3c 0a 5e 03 bc 02 8e ce 3c ad bd a0 b9
       0.015938533 -0.008018026 0.025214199 -0.00030658898
000060 ae 70 7c 3c cf c1 0e 3c 65 e5 66 3b 62 69 07 bd
       0.015407724 0.0087132 0.0035231945 -0.033059485
000070 84 b5 4e bc 0b 53 41 3c cc 34 38 bc c5 4e fb bc
       -0.012616519 0.011799584 -0.0112430565 -0.030677209
000080 91 3d 9c bb bb 04 7f bb 5a a4 c0 3c b5 4e 8e 3b
       -0.0047680815 -0.0038912732 0.023515869 0.0043428787
000090 89 1b 8a bc a0 6d 9c bc f9 e3 19 3c 14 96 75 bc
       -0.016858833 -0.019095242 0.009392732 -0.014989395
0000a0 7a 52 4c bc 03 df 84 bc e7 a4 99 bc 85 ab ec ba
       -0.012470836 -0.016219622 -0.01875539 -0.0018056488
0000b0 32 b4 ae 3c e5 84 ae 3b 0f 4e 0b 3c 72 ca 51 bb
       0.021326158 0.005325901 0.008502497 -0.0032011536
0000c0 a4 64 41 3a 49 9e b4 3c 4d bf 3c 3b 67 bb 9c 3c
       0.00073773623 0.022048132 0.0028800548 0.01913233
0000d0 72 6f 16 3d 1c 90 06 bd d7 10 b4 3b fb 28 ad bc
       0.036727376 -0.032852277 0.0054951715 -0.021137705
0000e0 71 1e c1 3c 09 02 41 bc 3a 73 2f 3c 59 11 1e bd
       0.023574086 -0.01178027 0.0107086245 -0.038590763
0000f0 0d 57 14 3c 7d 5d 26 ba 6f 76 a9 bb 7c c7 07 bd
       0.009053958 -0.00063463283 -0.005171589 -0.033149227
000100 fa ea 85 bb d6 38 66 bb f3 41 61 3b a3 b8 e6 3c
       -0.0040868493 -0.0035129092 0.0034371584 0.028164214
000110 10 6a 0f 3d a0 e2 d1 3b 63 49 86 3c 01 76 f0 3c
       0.03501326 0.0064051896 0.016392415 0.029353144
000120 64 60 8e bc b1 43 7c bc cf 54 b8 bb fb 87 23 3b
       -0.017379947 -0.015396998 -0.0056253443 0.0024952877
000130 67 6f f4 ba a4 0c d1 bb b1 38 36 3b 34 85 b2 bc
       -0.0018648923 -0.0063796807 0.0027804787 -0.021792032
000140 4e 30 56 bb 64 15 d8 3c 9f 8d f5 3c 77 11 dc 3b
       -0.00326826 0.026377387 0.029974757 0.006715949
000150 86 89 88 bc b1 93 c1 3c de 65 01 3d b2 18 13 3d
       -0.016667139 0.023629995 0.03159129 0.035912223
000160 98 99 e1 bb b7 9b 01 bd 13 46 f5 3a c6 41 2f bc
       -0.006884765 -0.031642642 0.00187129 -0.010696834
000170 3c 95 b0 3b 51 a8 65 3c 8a 8d 80 bc 4d ea db 3c
       0.005388884 0.014017181 -0.015692491 0.026845122

GNN3.Theta1 f4 [288, 2]
000000 dc ce 8a 3e 38 79 67 3e d3 07 34 bf fd 0e 28 3f
       0.27110946 0.22604835 -0.7032444 0.6564787
000010 53 43 d9 3e 4f fb 30 bf 9e 54 dc be 82 62 b5 3e
       0.42434177 -0.69133466 -0.43033308 0.35426718
000020 7c 86 eb bd 36 f8 dd be 35 87 24 3e f2 ba 19 bf
       -0.1150026 -0.43353432 0.16067202 -0.6005088
000030 4e bf fd 3e 7d 88 fa 3e a2 0e a1 3e 1a 13 78 3e
       0.49560016 0.48932257 0.31456476 0.24226037
000040 46 66 fd be 48 e9 21 be 9e 38 9b 3e 24 45 37 3e
       -0.4949209 -0.15811646 0.30316633 0.17897469
000050 f0 6b 0a 3f f3 73 2a 3e 52 89 1a bf 85 d3 e2 be
       0.5407095 0.16645794 -0.60365784 -0.44302002
000060 32 8e d0 3e a2 31 de 3e 1d 26 b9 3d 46 fd e1 3d
       0.40733486 0.43397242 0.09040473 0.11034636
000070 5a 4d a7 3e 83 1e 2f bf bf d1 19 bf b1 59 8b be
       0.32676202 -0.6840593 -0.6008567 -0.27216867
000080 a0 e1 89 be d3 7c 79 bc 80 c5 bf 3e 48 34 fe bd
       -0.2692995 -0.015227514 0.37455368 -0.124123156
000090 64 c3 a1 3b f4 8b 02 bf fc 31 9c be 4e 6f 13 3f
       0.0049366225 -0.509948 -0.30506885 0.5759171
0000a0 8a 33 0d 3f 97 08 20 be b3 c6 5e 3e 13 25 02 3f
       0.5515677 -0.15628277 0.21755485 0.5083782
0000b0 9a 01 f5 3e cd 60 9b bd c5 e5 ff be c3 5c 8b be
       0.47852784 -0.07586823 -0.49979988 -0.2721921
0000c0 d5 2e 9a 3e 4d cf 8f be f8 72 90 3e 2d d0 f2 be
       0.30113855 -0.28087845 0.28212714 -0.4742445
0000d0 04 66 6b 3e 09 c3 f4 3e c6 3e 07 be 35 64 16 3f
       0.22988135 0.4780505 -0.1320754 0.58746654
0000e0 a5 c6 d0 3e bc e9 a6 bd da a6 35 be 82 03 33 bd
       0.40776554 -0.0815005 -0.1773943 -0.043704517
0000f0 e2 be 8c be ed ce ff bc d9 b7 09 bf b3 d3 a0 3e
       -0.27489382 -0.0312266 -0.53796154 0.31411514
000100 54 21 4b 3e 6f 76 f3 be 6c 5e 78 bd 94 32 3c 3e
       0.19836932 -0.47551295 -0.060636923 0.18378669
000110 35 cf b2 be 6e d0 69 3e 27 3c d4 be b9 56 9f bc
       -0.3492371 0.22833416 -0.41452143 -0.019450532
000120 c0 f9 3a bd 52 d1 c4 be 48 ce 7b bd 6e b3 58 be
       -0.045648336 -0.3844095 -0.061476022 -0.21162197
000130 30 22 9b bd 38 0f 52 3e 3e ef f6 bd 53 23 0c be
       -0.0757488 0.20513618 -0.120573506 -0.1368535
000140 b0 28 0e 3f 39 fc f8 3e 22 2f c0 be 77 29 0b 3d
       0.55530834 0.4862993 -0.3753596 0.03397509
000150 5d cb 5c 3e ee 76 0b 3e ab d5 7f 3c 9d 39 35 be
       0.21561952 0.13619587 0.015614907 -0.17697759
000160 1f fa b6 3d b1 a7 a1 be 64 48 a3 bd 60 b0 4c be
       0.089344256 -0.3157325 -0.07972792 -0.19989157
000170 fd 53 9c 3e 57 27 b0 3e 25 e4 0a bf db b1 eb be
       0.30532828 0.34405014 -0.5425437 -0.4603413
000180 c4 7b 12 3e 36 3b 84 3e 53 50 0c bf b4 4d e2 3d
       0.14305025 0.25826424 -0.54810065 0.11049977
000190 a4 44 96 be 7a 0a 0e bf 54 c2 1f 3f a0 d9 d9 be
       -0.29349244 -0.55484736 0.62405896 -0.42548847
0001a0 99 c3 a0 be 63 3c 33 3f af ad cc be 0c 18 8b be
       -0.3139923 0.7001402 -0.3997626 -0.27166784
0001b0 fe b8 d4 be 80 b9 a2 be 29 82 b2 3d db 2c d3 3e
       -0.41547388 -0.3178215 0.08716232 0.4124516
0001c0 7f 8d 70 3e a9 3f 24 be cf 58 e1 3d c6 83 c3 be
       0.23491476 -0.1603991 0.11003267 -0.38186473
0001d0 32 28 eb 3e 41 7f c1 be a3 f6 80 3e 67 02 d6 be
       0.45929104 -0.377924 0.2518817 -0.41798708
0001e0 9f 52 69 be 8d 11 1f bf fc c3 2a 3e df b8 b7 3e
       -0.22785424 -0.62136155 0.16676325 0.35883233
0001f0 0d 64 db be 5f b7 88 3e 17 72 42 bd b1 20 29 3e
       -0.4284977 0.267024 -0.047472086 0.16516377
000200 06 69 bc be 93 14 03 bf 9d 4f 4a 3c 78 9b 96 3e
       -0.36798877 -0.5120327 0.012348083 0.29415488
000210 3b 30 0f bf 65 ac bb be 47 90 d5 be 5f f5 e6 bc
       -0.5593297 -0.36654964 -0.41711637 -0.028193174
000220 04 c1 c6 be 84 9a 93 be 69 9f 49 be db d3 d8 be
       -0.38819134 -0.28828824 -0.19689716 -0.42349133
000230 50 38 96 be fc a3 8b be 1f 5b 8d bd fe 86 1b 3f
       -0.29339838 -0.27273548 -0.069021456 0.60752857
000240 18 35 68 bd bc 87 04 3f 11 a8 07 3d 74 04 82 3e
       -0.05669126 0.51769614 0.033119265 0.25394022
000250 5e 80 61 3e 95 f1 f1 bd 6b 88 1c 3f b7 98 a9 be
       0.22021624 -0.11813656 0.6114566 -0.33124325
000260 5e f5 6f be e0 92 4d 3e bb c2 73 3c a2 3c 46 be
       -0.23433444 0.2007556 0.01487797 -0.19359067
000270 ca 4a a3 3e 7d 4f 24 bf 63 45 14 3f 5d 9f 29 3e
       0.31892997 -0.6418379 0.57918376 0.16564699
000280 c8 92 2f be 1f 62 1f 3f 6b 4d e0 bd 10 3a 2a bf
       -0.17145836 0.62259096 -0.10952266 -0.66494846
000290 0a 49 b6 be cc 41 13 3f a2 2b 6a be 3d 0e 52 3e
       -0.356026 0.57522273 -0.22868207 0.20513244
0002a0 a8 28 62 be 4c 64 ac 3e 90 fa a4 be 59 31 fc 3e
       -0.22085822 0.3367027 -0.32222414 0.492564
0002b0 76 c6 19 3f 7d 28 8e bd 51 fe e0 be b9 d0 32 3e
       0.6006845 -0.06941316 -0.43944028 0.17462434
0002c0 62 bc 7e be f5 d5 e8 be 87 8d b3 bd 7b 4d 3a bd
       -0.2487655 -0.45475736 -0.087672286 -0.045484047
0002d0 0d 12 33 3e 9b 6a 31 bd fd 31 35 3e 26 a1 73 bd
       0.17487355 -0.043314558 0.1769485 -0.059479855
0002e0 24 1e 26 bf ce b9 95 3d e9 3b a1 3e 7c 48 06 3f
       -0.6488974 0.0731083 0.3149102 0.5245435
0002f0 fd 69 fa be b6 9a 9d be b7 08 9a be 78 df 41 be
       -0.48908988 -0.30782098 -0.30084774 -0.18932903
000300 fc 7a 84 be 7e 58 1b 3f 94 74 ea be 54 c7 01 bf
       -0.2587508 0.60681903 -0.45792067 -0.50694776
000310 ff 98 43 bc b7 a1 18 3e ac 61 0e 3f 2f 40 8d 3d
       -0.011938333 0.1490544 0.55617785 0.06897008
000320 61 cf 09 3f 78 1e d7 3d 96 7d 39 bf 65 21 e4 3d
       0.5383206 0.10503858 -0.72457254 0.11139182
000330 a6 43 85 3c d5 fd 13 bd fb a3 08 3e 43 e4 92 be
       0.016267609 -0.036130745 0.13343804 -0.28689775
000340 83 96 0b 3f 99 66 b5 be 3f 03 1c 3f 3a db c6 3e
       0.5452654 -0.35429838 0.60942453 0.38839132
000350 99 63 e1 3e 19 2a 9a be 5f 2c 30 bf 54 00 c3 3e
       0.440213 -0.30110243 -0.68817705 0.38086188
000360 1b 97 fb be 4b 54 e3 be ef 5f a0 3c 3c c0 dd be
       -0.49138722 -0.44400248 0.019576995 -0.43310726
000370 08 ec 4b 3e 74 c6 2a 3f f6 05 af bd 4d ca 98 be
       0.19914258 0.66709065 -0.08546059 -0.29841843
000380 c7 93 a1 be a0 18 0b 3e ab 02 31 3e c6 97 e1 3e
       -0.31558058 0.13583612 0.17286174 0.44061106
000390 4e 40 19 bf 72 8f e8 3d 17 36 c0 be 6e ab 9c 3e
       -0.59863746 0.11355485 -0.37541267 0.3059954
0003a0 f8 e0 de bd 71 18 0a 3f f0 04 ef bd 5f 9e 2d bf
       -0.10882753 0.53943545 -0.11670864 -0.6781978
0003b0 fb 83 fa 3c 31 18 27 3f b9 57 8b be 58 1b cf 3d
       0.030580511 0.6527129 -0.27215365 0.10112637
0003c0 d7 23 40 be ce b1 95 be f0 13 b2 3e dc a3 75 be
       -0.18763672 -0.29237217 0.34780836 -0.23988289
0003d0 ed 40 de be a1 65 25 3f 1b 1b 16 bf 90 d1 1e be
       -0.4340891 0.646082 -0.5863511 -0.15509629
0003e0 b5 6f 26 3f 23 35 fa bd 09 38 61 3e c7 2d 04 3f
       0.650142 -0.12217166 0.21994032 0.5163235
0003f0 36 47 67 ba 92 22 7a be 7c 6c ef bd d5 b1 0d 3e
       -0.0008822562 -0.2442725 -0.116906136 0.13837369

GNN3.bias f4 [2]
000000 c0 b5 df be 2c bd a8 3c
       -0.43693352 0.020598017
