trained_models/iS_GNN_Trained_ep_150_bs64_lr5em04_z96_k_diff_2_kNN_8_ramps_30_b_cap_90.pth (torch, 226391 bytes, 6 tensors)

GNN1.Theta1 f4 [90, 96]
0.008286758 0.0642592 -0.017927868 0.07858285 0.025563093 0.026660437 -0.035339765 0.061966673
0.06720345 -0.023371741 0.08690135 0.03736274 0.06300926 0.013953703 0.016532836 -0.028824227
0.0490372 0.020068612 0.00566768 0.01265247 -0.01752434 -0.00010210657 -0.054328676 0.04633091
-0.029160714 -0.030296616 -0.03783775 -0.03480684 0.00218594 -0.057939578 0.06642108 -0.03728764
0.042545877 0.02579513 -0.045836978 0.011770076 0.04301383 0.042572208 0.027117189 0.029350948
0.057036757 0.032533318 0.019372959 0.053444877 0.033178482 0.0049981372 0.007316399 0.046134524
0.049218364 -0.05611808 -0.08808097 -0.042854536 -0.063888066 0.06654717 0.032792903 0.065885216
0.03308321 0.034606013 0.0031307652 -0.0144228 0.008786218 -0.04906027 0.0032538527 -0.016070286
-0.003987858 -0.049060445 0.07035418 -0.010354177 -0.06173822 -0.031451453 0.080601305 -0.0015018571
0.07016708 -0.023300977 -0.027724942 -0.039122794 -0.072483055 0.021176131 0.03494101 0.0571626
0.025502173 -0.06323669 -0.026502913 -0.021775363 0.06602126 -0.003076347 0.07121393 -0.031620417
-0.050215147 -0.0039034244 -0.023687406 0.0032635943 0.009062963 0.036518205 -0.055571847 -0.049448334
0.022921637 -0.07051353 -0.011002129 -0.083353005 -0.02682661 0.039811432 -0.0040155114 -0.060695745
-0.006411157 -0.030939091 -0.098449364 -0.036806766 -0.07861192 -0.048612133 0.07941445 0.03459614
0.03092874 -0.1078986 -0.032681108 -0.050392684 0.056398306 -0.046465386 -0.032000504 -0.085008346
0.05085038 -0.031240351 -0.018387686 -0.035130214 -0.07786791 -0.060051743 -0.05210708 -0.042388264
0.08366438 -0.031138217 0.06341026 -0.0041034534 -0.047651146 0.073444866 0.020613527 -0.007871544
-0.078502044 -0.065882616 -0.0031937212 -0.03276173 0.031756584 -0.027929267 0.038577635 -0.028854521
-0.015255606 0.021064164 0.08393416 0.07581155 0.1026116 -0.07538198 0.041929398 -0.027136853
0.015728906 -0.062814035 0.030503057 -0.029688567 0.045921404 0.054957327 0.025760757 -0.042603273
0.034972716 0.031358127 0.0030361605 -0.044634394 0.037384894 0.017165797 -0.06322152 0.057372186
-0.0015996961 -0.035147775 0.0020053135 0.030296106 0.051547974 -0.03358096 -0.06769194 -0.014285029
-0.031588275 0.03478753 0.016886218 -0.06472909 0.021322714 0.044687066 0.0033432299 0.0115466
0.038034845 0.03493281 0.009227562 0.0122769205 -0.04795367 0.026880288 0.01577941 -0.049138293
0.02155589 0.03322947 0.037729103 0.028940486 -0.012790492 0.013820786 0.02659402 0.05060588
-0.07871121 -0.041564785 0.071203284 0.056076303 0.027849492 -0.027271725 -0.055134024 -0.038908564
-0.004012111 -0.0025589783 0.04837405 0.032648765 -0.05299425 -0.0022842751 0.027604261 0.08094242
0.043178152 -0.02913803 0.03413111 -0.00047358073 -0.07046046 0.026305307 -0.048182547 0.0026309174
-0.045151338 0.036909092 0.051035862 0.03908899 -0.034329988 -0.03644658 -0.02909353 0.047918018
0.024461921 0.05589544 0.032353655 0.057317186 0.016676687 -0.0410192 -0.08416252 -0.043851804
0.051445205 -0.06312155 0.016228007 -0.069171324 -0.017121779 -0.017856738 -0.037991345 0.03289299
0.014077606 0.0374276 -0.037672777 -0.071039476 -0.037262652 -0.036575876 -0.018662639 -0.097212665
00000000: 2fc5 073c 549a 833d 77dd 92bc 0cf0 a03d
00000010: b169 d13c fd66 da3c 6ec0 10bd c4d0 7d3d
00000020: f6a1 893d 1876 bfbc 56f9 b13d ac09 193d
00000030: 000b 813d 139e 643c df6f 873c c920 ecbc
00000040: 3bdb 483d ee66 a43c f2b7 b93b 4e4c 4f3c
00000050: 348f 8fbc 0c22 d6b8 bf87 5ebd 7bc5 3d3d
00000060: 73e2 eebc 9c30 f8bc c2fb 1abd 9e91 0ebd
00000070: fd41 0f3b 0d52 6dbd c607 883d edba 18bd
00000080: 9644 2e3d 4f50 d33c 8ebf 3bbd 47d7 403c
00000090: 452f 303d 3260 2e3d de24 de3c 6671 f03c
000000a0: 609f 693d a841 053d 0ab4 9e3c 04e9 5a3d
000000b0: 29e6 073d 6ac7 a33b 67be ef3b 8ef7 3c3d
000000c0: 3299 493d 12dc 65bd cc63 b4bd 3d88 2fbd
000000d0: bfd7 82bd e249 883d da51 063d d4ee 863d
000000e0: 4382 073d 09bf 0d3d 862d 4d3b 9c4d 6cbc
000000f0: 12f4 0f3c 6cf3 48bd 973e 553b d5a5 83bc
00000100: 94ac 82bb 9bf3 48bd da15 903d 91a4 29bc
00000110: 37e1 7cbd 3dd3 00bd 4c12 a53d f6d9 c4ba
00000120: c2b3 8f3d b1e1 bebc 6b1f e3bc 393f 20bd
00000130: ff71 94bd 9179 ad3c 4e1e 0f3d 5523 6a3d
00000140: efe9 d03c 3d82 81bd a31c d9bc 3f62 b2bc
00000150: 2836 873d 8a9c 49bb 9cd8 913d 6984 01bd
00000160: 66ae 4dbd 98d0 7fbb 170c c2bc 07e2 553b
00000170: d27c 143c 1d94 153d 4e9f 63bd 568a 4abd
00000180: 28c6 bb3c 6669 90bd 4642 34bc fbb4 aabd
00000190: 7bc3 dbbc 5011 233d 8d94 83bb 1a9c 78bd
000001a0: af14 d2bb fa73 fdbc d29f c9bd b1c2 16bd
000001b0: 49ff a0bd 841d 47bd 0ba4 a23d afb4 0d3d
000001c0: 455e fd3c f1f9 dcbd a0dc 05bd 8f68 4ebd
000001d0: e901 673d 7d52 3ebd f612 03bd db18 aebd
000001e0: 7d48 503d c4eb ffbc c6a1 96bc b3e4 0fbd
000001f0: 3679 9fbd d1f8 75bd 3c6e 55bd 519f 2dbd
00000200: 3b58 ab3d 9315 ffbc 3ddd 813d 4376 86bb
00000210: d92d 43bd 436a 963d b3dd a83c a6f7 00bc
00000220: aec5 a0bd 77ed 86bd c04d 51bb 2a31 06bd
00000230: 3113 023d ebcb e4bc 9503 1e3d 5160 ecbc
00000240: a6f2 79bc c18e ac3c ace5 ab3d 1643 9b3d
00000250: 0826 d23d de61 9abd 29be 2b3d 1b4e debc
00000260: e8d9 803c a5a4 80bd 8ce1 f93c 7035 f3bc
00000270: 1518 3c3d ef1a 613d 3908 d33c c580 2ebd
00000280: 8d3f 0f3d 6171 003d 52fa 463b 8ed2 36bd
00000290: e720 193d 499f 8c3c 497a 81bd 19ff 6a3d
000002a0: e5ac d1ba 1df7 0fbd 946b 033b 8a2f f83c
000002b0: f823 533d 308c 09bd 12a2 8abd c10b 6abc
000002c0: b562 01bd 5e7d 0e3d f754 8a3c af90 84bd
000002d0: f9ac ae3c c909 373d 171a 5b3b f32d 3d3c
000002e0: 6dca 1b3d b515 0f3d 332f 173c 2325 493c
000002f0: 116b 44bd 0d34 dc3c d243 813c 3c45 49bd
00000300: fa95 b03c a01b 083d d589 1a3d 9914 ed3c
00000310: 368f 51bc 9470 623c b4db d93c 1c48 4f3d
00000320: 5833 a1bd d63f 2abd 07d3 913d 44b0 653d
00000330: 9e24 e43c f468 dfbc 37d4 61bd 965e 1fbd
00000340: 0778 83bb 88b4 27bb de23 463d b6ba 053d
00000350: 8010 59bd c7b3 15bb 5522 e23c 24c5 a53d
00000360: 93db 303d e1b2 eebc 10cd 0b3d ee4a f8b9
00000370: 934d 90bd 3a7e d73c 105b 45bd 786b 2c3b
00000380: 9cf0 38bd fd2d 173d fb0a 513d c71b 203d
00000390: 9a9d 0cbd 0249 15bd 8e55 eebc af45 443d
000003a0: 5e64 c83c 9ef2 643d 4485 043d 6dc5 6a3d
000003b0: 8c9d 883c c003 28bd 665d acbd f39d 33bd
000003c0: 35b8 523d df45 81bd 99f0 843c b2a9 8dbd
000003d0: f942 8cbc 4b48 92bc d09c 1bbd cdba 063d
000003e0: c2a5 663c af4d 193d c54e 1abd 257d 91bd
000003f0: b9a0 18bd 96d0 15bd 64e2 98bc 6f17 c7bd

GNN1.bias f4 [96]
0.024591155 0.070480324 0.007555551 0.02202879 -0.068832986 -0.08755646 -0.056471247 -0.07215406
-0.04312014 -0.05263112 -0.027468186 -0.057239275 0.029102396 0.009661671 0.0011114514 0.006377558
-0.08049987 -0.03763984 -0.016002376 -0.08560296 0.06849419 -0.050635036 0.049440313 0.09017584
0.00070641324 -0.023058038 0.06873841 -0.05965448 -0.010967316 0.059614323 0.076102935 -0.015177936
-0.01767272 -0.012835428 -0.0805798 0.03774551 -0.085768364 0.01228957 -0.040650528 0.07280327
-0.034077413 0.057470493 -0.01469712 -0.007668738 -0.07202302 0.09026025 0.0020466815 -0.10040617
0.0068863365 0.035557564 -0.014448967 0.076400355 0.036786944 -0.021197181 0.06914539 0.058312893
-0.03997747 0.0008667029 0.02528337 -0.020605527 0.044802774 -0.08167643 -0.043796174 0.048898946
-0.105868205 -0.034995448 -0.062246524 0.041732527 0.023169465 -0.07704785 0.06895785 -0.053589877
-0.01659023 0.043955166 -0.03550411 0.006929615 -0.05509288 -0.016735112 -0.023208467 0.06576646
-0.030274607 -0.05242644 0.025389029 0.043729484 0.018044924 0.013171232 0.07718673 -0.051422756
-0.0899872 -0.0754083 0.01145979 0.06763109 0.016963983 -0.06574222 -0.06619267 -0.055521622
00000000: 6473 c93c fd57 903d 8e94 f73b b975 b43c
00000010: 4ff8 8cbd cd50 b3bd 654e 67bd 82c5 93bd
00000020: be9e 30bd bb93 57bd f604 e1bc bb73 6abd
00000030: 2668 ee3c fc4b 1e3c 1fae 913a d6fa d03b
00000040: 1edd a4bd 3c2c 1abd 6a17 83bc 9b50 afbd
00000050: af46 8c3d af66 4fbd ed81 4a3d 1cae b83d
00000060: 972e 393a 36e4 bcbc b9c6 8c3d 4258 74bd
00000070: 42b0 33bc 262e 743d dbdb 9b3d e1ac 78bc
00000080: 61c6 90bc b04b 52bc 0607 a5bd 099b 1a3d
00000090: 53a7 afbd 315a 493c 2b81 26bd e119 953d
000000a0: c294 0bbd 2e66 6b3d 30cc 70bc 094a fbbb
000000b0: ce80 93bd 5eda b83d 9e21 063b c0a1 cdbd
000000c0: c7a6 e13b cfa4 113d 5cbb 6cbc ca77 9c3d
000000d0: e8ad 163d b6a5 adbc 199c 8d3d 80d9 6e3d
000000e0: 6abf 23bd 7233 633a 121f cf3c eccc a8bc
000000f0: 1d83 373d f945 a7bd 9e63 33bd 434a 483d
00000100: 6ed1 d8bd 6357 0fbd 36f6 7ebd baef 2a3d
00000110: e4cd bd3c 43cb 9dbd c639 8d3d 0f81 5bbd
00000120: 3ce8 87bc 550a 343d c26c 11bd d311 e33b
00000130: 12a9 61bd 1318 89bc af1f bebc 91b0 863d
00000140: 7402 f8bc 1bbd 56bd a7fc cf3c b01d 333d
00000150: f3d2 933c 27cc 573c 1414 9e3d aba0 52bd
00000160: 364b b8bd ab6f 9abd d8c1 3b3c 2b82 8a3d
00000170: 0df8 8a3c dba3 86bd 0690 87bd a46a 63bd

GNN2.Theta1 f4 [480, 96]
0.061762817 0.017114447 -0.07070227 -0.10174428 0.062873065 0.0051867417 0.09720897 -0.06377087
-0.055380028 0.011880418 0.05062592 0.09754488 0.094289266 0.06242807 0.015104197 -0.042307336
0.10210644 -0.02817806 0.08934295 0.028706567 -0.04795974 -0.022969935 -0.013540268 0.07153142
0.08192385 0.023160277 -0.05242911 0.05097831 0.076734245 -0.051631182 0.059678964 0.034329467
0.06669584 0.00819195 0.07805954 -0.07171665 0.017436069 -0.074539535 -0.0124166515 0.059272192
-0.058736987 -0.07908372 -0.029153239 0.0212232 -0.0020254233 -0.06250375 -0.01778003 -0.040052
-0.035980113 0.007846997 0.023379982 -0.0062296204 -0.059995033 0.05047758 0.029862763 -0.04392773
0.054127395 0.031322952 0.044882495 0.0849664 0.005842346 0.078054465 -0.016232949 0.071984656
-0.0017133493 0.035816897 0.048080407 -0.06824981 0.07692442 0.0047493405 0.043682 -0.07993607
-0.042794246 0.06370159 -0.070948765 0.025902875 0.07951831 -0.07807155 -0.014093492 0.018513445
0.07550981 -0.052727398 -0.09480113 -0.07126507 0.051722515 -0.07653633 -0.093247056 -0.02262844
-0.0044015707 -0.05794464 -0.049809705 0.0710155 -0.053871658 -0.09053147 -0.032768477 0.058349818
-0.040116314 -0.079187304 -0.081331536 -0.025851332 0.07849654 0.04033746 -0.037924487 -0.074246
-0.034791976 0.009800505 0.07425047 0.07359606 -0.015511139 0.056977272 -0.015554633 0.023632867
0.05329769 -0.007219291 0.044319887 -0.0053434107 0.042830687 -0.032775518 0.059548173 -0.096549146
0.06928231 -0.08012448 -0.06566864 -0.048521217 -0.015120702 -0.01196858 -0.10957394 0.06555826
0.035505332 0.076781936 -0.06764424 -0.07473297 -0.00079927564 0.08949731 0.060209926 0.029618734
0.034169156 0.04938853 -0.02379039 -0.088483945 -0.07133308 -0.052752696 0.0053718337 0.08381034
0.08337024 -0.061395977 0.02405328 0.08388952 -0.0014200656 -0.04144227 -0.05534882 -0.012013126
0.046395816 -0.01477462 -0.033917047 0.06082996 -0.031227684 -0.052318253 0.0024588723 0.06743852
-0.00048368194 -0.006450261 -0.090873055 0.055203743 -0.010638068 -0.038976785 -0.08002523 -0.04857819
-0.0760963 0.019744052 0.071709685 -0.010647414 0.04892584 -0.0102053825 -0.05738101 -0.091330975
-0.06440942 0.06379101 0.06881664 0.08434375 0.010069175 0.03579637 -0.021230994 0.08317911
-0.100369506 -0.029630488 -0.10938634 0.01770427 -0.065984115 -0.082963824 0.017393664 0.08433392
0.06341973 0.048870273 -0.026159026 0.0037023549 -0.08553292 0.06665546 0.026030682 0.09166496
-0.07515944 -0.043411855 -0.062793866 -0.07535385 -0.054281767 0.042996407 0.06144764 0.038053207
-0.022343649 0.060299583 0.09829995 -0.010343685 -0.027569532 -0.086558364 0.06987351 -0.027275955
-0.079700075 0.06814225 0.017245755 -0.04194797 -0.101995036 0.004855364 -0.010413093 -0.0050865063
-0.022263391 0.06675437 0.04568818 0.07659529 0.013153604 0.035458513 0.08906628 0.012817003
0.06420985 0.0409806 -0.08007307 0.06445585 0.0051740613 -0.06500004 0.091319874 -0.078007564
0.07625457 -0.08287696 -0.019127073 -0.07704586 0.049601484 -0.00017608727 0.063870035 0.022289928
-0.069892466 0.036684427 0.04072404 -0.07559053 -0.060043026 -0.031135278 -0.07741826 -0.018933302
00000000: 02fb 7c3d 9933 8c3c 5acc 90bd 4e5f d0bd
00000010: 98c3 803d 8bf5 a93b 7f15 c73d 4d9a 82bd
00000020: 2bd6 62bd 16a6 423c 205d 4f3d 9cc5 c73d
00000030: bb1a c13d 93b4 7f3d 9877 773c 754a 2dbd
00000040: 2e1d d13d add5 e6bc 70f9 b63d 092a eb3c
00000050: 6f71 44bd 722b bcbc 00d8 5dbc 117f 923d
00000060: b1c7 a73d 9fba bd3c e8bf 56bd a2ce 503d
00000070: d826 9d3d 387b 53bd ee71 743d 0e9d 0c3d
00000080: d497 883d 8737 063c aedd 9f3d 2ee0 92bd
00000090: 16d6 8e3c 2fa8 98bd 366f 4bbc 66c7 723d
000000a0: 3296 70bd a5f6 a1bd c6d2 eebc 47dc ad3c
000000b0: f7bc 04bb f701 80bd 6da7 91bc 910d 24bd
000000c0: e25f 13bd b190 003c 6087 bf3c d821 ccbb
000000d0: 5abd 75bd 94c1 4e3d c1a2 f43c 90ed 33bd
000000e0: b0b4 5d3d 7f4c 003d b5d6 373d dd02 ae3d
000000f0: 2771 bf3b 05db 9f3d f6fa 84bc b16c 933d
00000100: 7692 e0ba bdb4 123d f6ef 443d 8ec6 8bbd
00000110: 8d8a 9d3d 5ba0 9b3b e6eb 323d 86b5 a3bd
00000120: 0549 2fbd fb75 823d 964d 91bd 4432 d43c
00000130: 7fda a23d fae3 9fbd 64e8 66bc 82a9 973c
00000140: e3a4 9a3d aff8 57bd 1827 c2bd 6cf3 91bd
00000150: fdda 533d 14bf 9cbd 50f8 bebd 475f b9bc
00000160: 0d3b 90bb 5c57 6dbd 4305 4cbd 9370 913d
00000170: 87a8 5cbd 9068 b9bd 3d38 06bd 3800 6f3d
00000180: 0151 24bd f42c a2bd 2691 a6bd 2cc6 d3bc
00000190: cbc2 a03d e438 253d b556 1bbd 490e 98bd
000001a0: 0882 0ebd 4c92 203c a110 983d 88b9 963d
000001b0: 6f22 7ebc 0061 693d dcd8 7ebc b799 c13c
000001c0: ae4e 5a3d cd8f ecbb c588 353d c717 afbb
000001d0: 3b6f 2f3d 9f3f 06bd c9e8 733d 8fbb c5bd
000001e0: e2e3 8d3d 4e18 a4bd 487d 86bd 2fbe 46bd
000001f0: d2bc 77bc dd17 44bc 4d68 e0bd 6943 863d
00000200: 0a6e 113d d93f 9d3d 1089 8abd 990d 99bd
00000210: 7b86 51ba 5e4a b73d af9e 763d fda2 f23c
00000220: f5f4 0b3d a14b 4a3d 10e4 c2bc 1237 b5bd
00000230: 1417 92bd 3613 58bd 3506 b03b c1a4 ab3d
00000240: 04be aa3d 597a 7bbd 620b c53c 45ce ab3d
00000250: 7f21 baba 5fbf 29bd 72b5 62bd b4d2 44bc
00000260: 8a09 3e3d 3f11 72bc 9aec 0abd d628 793d
00000270: 33d1 ffbc aa4b 56bd 0825 213b 351d 8a3d
00000280: b196 fdb9 b65c d3bb a71b babd 521d 623d
00000290: 4b4b 2ebc 1fa6 1fbd 45e4 a3bd edf9 46bd
000002a0: 60d8 9bbd 47be a13c 87dc 923d 7e72 2ebc
000002b0: 7666 483d 7a34 27bc 5a08 6bbd bc0b bbbd
000002c0: 16e9 83bd dca4 823d bdef 8c3d 6abc ac3d
000002d0: 2ef9 243c 379f 123d 9fec adbc cf59 aa3d
000002e0: 878e cdbd a3bb f2bc f205 e0bd 8c08 913c
000002f0: ae22 87bd f0e8 a9bd 287d 8e3c 43b7 ac3d
00000300: 34e2 813d 322c 483d 744b d6bc 35a3 723b
00000310: e22b afbd a882 883d 4c3e d53c d7ba bb3d
00000320: 31ed 99bd a1d0 31bd 129a 80bd 1f53 9abd
00000330: 8f56 5ebd 001d 303d 85b0 7b3d aedd 1b3d
00000340: 070a b7bc b2fc 763d 7c51 c93d 8f78 29bc
00000350: 80d9 e1bc 8345 b1bd d819 8f3d d371 dfbc
00000360: cb39 a3bd 2a8e 8b3d f846 8d3c a2d1 2bbd
00000370: c6e2 d0bd bf19 9f3b ad9b 2abc b5ac a6bb
00000380: b761 b6bc 84b6 883d 8723 3b3d fedd 9c3d
00000390: 3782 573c f23c 113d 6268 b63d 68fe 513c
000003a0: 7480 833d 46db 273d 5afd a3bd 6e01 843d
000003b0: 2c8b a93b be1e 85bd ea05 bb3d 6ec2 9fbd
000003c0: 5b2b 9c3d 65bb a9bd 61b0 9cbc 38ca 9dbd
000003d0: ed2a 4b3d 11a4 38b9 4bce 823d 5e99 b63c
000003e0: c823 8fbd 6942 163d 40ce 263d 35cf 9abd
000003f0: adef 75bd 690f ffbc 778d 9ebd 031a 9bbc

GNN2.bias f4 [96]
0.018111208 0.017531216 -0.02810294 0.0215646 0.0034526153 -0.044643257 0.032327674 0.006940843
-0.03626709 -0.0009294459 0.057388287 0.045233704 0.008095526 0.02443433 -0.017082902 -0.027397089
0.025666542 -0.0050648465 0.002959673 -0.03361839 0.034554973 0.061013702 -0.028876228 0.0039903927
0.04979868 0.018844776 0.021341996 0.048630763 -0.029646035 0.022055507 -0.039230853 -0.027952464
-0.0048285564 0.020005517 0.033924453 -0.016825953 -0.031205948 -0.024819538 -0.006471143 -0.017209938
0.048535485 -0.019754644 -0.030228807 0.05840329 -0.03313802 -0.016874943 -0.009488229 0.050459456
-0.03174104 -0.0073484285 0.024164163 -0.00056472037 -0.03777684 0.003097438 0.031770274 0.030926151
0.024202475 0.015934948 -0.0288598 -0.013967099 -0.028394172 -0.04270757 0.020805351 -0.0040362705
0.004299997 -0.0021784187 0.034037508 0.039300464 0.026659017 0.032856446 0.03337546 0.04848101
0.047227286 -0.0070146136 0.0136886025 0.028431887 -0.042608704 -0.018709164 0.008347973 -0.041483395
0.005415068 0.049162276 0.0056565665 -0.03270315 -0.029523501 0.037010416 0.010259395 0.011819179
-0.021890115 -0.011752972 0.039756063 -0.007526094 -0.0149716 0.0036039047 0.022680782 0.02539802
00000000: f55d 943c a09d 8f3c 2338 e6bc 3ea8 b03c
00000010: 4645 623b d9db 36bd 066a 043d 0370 e33b
00000020: cd8c 14bd 0fa6 73ba fb0f 6b3d fa46 393d
00000030: 19a3 043c 812a c83c 71f1 8bbc dc6f e0bc
00000040: a442 d23c 03f7 a5bb 13f7 413b 70b3 09bd
00000050: 8489 0d3d 81e9 793d d78d ecbc d7c1 823b
00000060: b3f9 4b3d 5c60 9a3c 69d5 ae3c 0d31 473d
00000070: 3edc f2bc c0ad b43c 88b0 20bd 91fc e4bc
00000080: de38 9ebb 9ce2 a33c 5ef4 0a3d 95d6 89bc
00000090: 9ea3 ffbc 5852 cbbc e20b d4bb dbfb 8cbc
000000a0: 25cd 463d 7ed4 a1bc 67a2 f7bc 4a38 6f3d
000000b0: bcbb 07bd 523d 8abc 8474 1bbc 93ae 4e3d
000000c0: e502 02bd 16cb f0bb ecf3 c53c be09 14ba
000000d0: e3bb 1abd 63fe 4a3b 8c21 023d d758 fd3c
000000e0: 4544 c63c 028a 823c 636b ecbc 42d6 64bc
000000f0: e59a e8bc 22ee 2ebd fc6f aa3c b142 84bb
00000100: fde6 8c3b cdc3 0ebb ea6a 0b3d 86f9 203d
00000110: 0364 da3c 7b94 063d b5b4 083d 0694 463d
00000120: 6671 413d d8da e5bb 2946 603c fde9 e83c
00000130: 7786 2ebd f643 99bc f0c5 083c 7eea 29bd
00000140: e270 b13b 625e 493d b85a b93b bdf3 05bd
00000150: 45db f1bc 3c98 173d 0617 283c 3ba5 413c
00000160: e652 b3bc 8a8f 40bc 41d7 223d 749d f6bb
00000170: 714b 75bc 7d2f 6c3b 0ccd b93c 820f d03c

GNN3.Theta1 f4 [480, 2]
-0.51775134 -0.50951064 -0.28214827 -0.4811554 0.32879665 -0.19196601 -0.1593269 0.68390095
0.033327904 0.5253306 -0.4998397 0.22096264 0.0662061 -0.2798195 -0.45315257 -0.14171657
-0.15675887 -0.54245347 -0.45048672 0.4402069 0.15392953 0.6273687 -0.45411417 -0.55038446
-0.48551318 -0.21839698 0.3274822 -0.49462974 0.3696353 -0.26211876 -0.12690961 0.3752621
0.18442753 -0.22338945 0.29604447 -0.67887175 -0.20662703 0.4193374 0.030644765 0.16765888
-0.57753325 0.06470405 0.008287556 0.6308032 0.12431583 -0.047399107 0.07782452 -0.2426757
-0.031514432 0.2255986 0.032098323 0.6173616 0.07329979 -0.52372724 -0.31250587 -0.12955156
-0.50466335 -0.34882078 0.4489621 0.41882455 0.23923948 -0.12758721 0.3793125 0.54728043
-0.14421648 0.38186365 -0.056485057 0.09619686 -0.47268724 0.11683498 -0.15724449 -0.104610555
-0.3135061 0.50627184 0.08618374 0.13997228 0.3453486 0.4014953 0.3706236 0.11283863
-0.054567333 0.107545264 -0.5608028 -0.061965466 -0.3401463 0.4859885 -0.2768057 -0.11759816
0.5134359 0.25747323 -0.036703758 0.26491743 -0.40896767 0.45051163 -0.41744176 -0.6247142
-0.29630095 -0.5579946 -0.38531682 -0.3290327 -0.2606624 0.3544636 0.22832836 0.4982347
0.13915424 -0.49101853 0.3389893 -0.11574898 0.18606706 -0.30441782 -0.33109182 -0.24548765
0.30587193 -0.07429818 -0.3062271 -0.025750164 -0.05247939 0.31337243 0.5809277 0.25592074
0.31112203 0.5113187 0.42931607 0.36473632 0.12449416 -0.19676271 -0.25693253 0.011679662
-0.50404483 0.18640238 -0.04483508 -0.023674197 -0.4063978 0.14898245 -0.50049114 0.24270697
-0.064657815 0.5646898 -0.3243393 -0.39927337 0.45250326 0.6296402 -0.23201367 -0.6207909
-0.6117053 -0.56649506 0.19600047 -0.4980536 -0.047187272 0.04606773 0.24637638 -0.4347716
-0.099704884 -0.29420206 -0.45531368 0.40841562 -0.49517703 -0.21191235 -0.48324272 0.407213
0.15490344 0.62217915 0.26595795 -0.31440473 -0.453286 0.042367578 -0.06902602 -0.25268418
0.48061565 0.26707858 -0.4366151 -0.40186143 0.31592375 -0.33710608 0.51412964 0.5385575
0.18582648 -0.38172063 0.4756791 0.39991412 0.08447216 -0.13965414 -0.699079 -0.06717634
0.5460977 0.3547937 0.29110357 -0.14988022 0.028845362 0.3186033 -0.32297742 -0.24952772
-0.38321048 -0.13170968 -0.58988714 -0.42577 -0.1434537 -0.3245174 -0.435557 0.03696864
0.32479513 -0.69550234 0.5425385 0.6180979 0.54153514 0.22396618 0.3563757 0.34050822
-0.34407094 0.3362794 -0.41824606 -0.33956063 0.4196327 0.368699 0.5167193 -0.39951667
0.07297857 0.02887949 -0.3943281 -0.068911485 0.44196218 0.21149795 -0.22553125 -0.1049021
0.12647465 0.30406687 -0.048431814 0.16676562 -0.64578086 -0.53222716 -0.3892456 -0.19509543
-0.48745665 0.25678125 -0.12001506 0.2448965 0.2421609 -0.52610165 -0.2742583 0.021716604
0.511352 0.032150302 0.0037008186 -0.254341 -0.30280092 0.52216667 0.43430164 -0.4847722
0.004213747 0.1896512 0.5870255 0.32775232 -0.6874658 0.033150513 0.5516704 -0.118358724
00000000: 5a8b 04bf 4a6f 02bf bd75 90be 005a f6be
00000010: 0958 a83e bd92 44be 9726 23be 2214 2f3f
00000020: d782 083d 117c 063f fdea ffbe 0844 623e
00000030: 1097 873d 8044 8fbe 9d03 e8be 261e 11be
00000040: 6685 20be 3bde 0abf 32a6 e6be cc62 e13e
00000050: b49f 1d3e 3c9b 203f a781 e8be ffe5 0cbf
00000060: 2f95 f8be 75a3 5fbe bfab a73e 1c40 fdbe
00000070: d740 bd3e 6e34 86be 98f4 01be 5b22 c03e
00000080: 92da 3c3e 34c0 64be 2493 973e 8aca 2dbf
00000090: 0996 53be 64b3 d63e bb0a fb3c c5ae 2b3e
000000a0: 38d9 13bf 8f83 843d 87c8 073c 527c 213f
000000b0: 4c99 fe3d 9125 42bd 7662 9f3d fb7f 78be
000000c0: 4715 01bd 5203 673e 8879 033d 690b 1e3f
000000d0: 331e 963d fd12 06bf c500 a0be 2aa9 04be
000000e0: 9e31 01bf a398 b2be 5cde e53e 2c70 d63e
000000f0: 32fb 743e 39a6 02be 3f35 c23e 921a 0c3f
00000100: 7cad 13be a283 c33e e05c 67bd dc02 c53d
00000110: 1004 f2be 2e47 ef3d b304 21be 0f3e d6bd
00000120: df83 a0be 089b 013f 1a81 b03d e554 0f3e
00000130: 88d1 b03e cb90 cd3e 60c2 bd3e f117 e73d
00000140: ff81 5fbd b140 dc3d c690 0fbf 80cf 7dbd
00000150: a827 aebe 7cd3 f83e 7ab9 8dbe 4ed7 f0bd
00000160: 8970 033f 88d3 833e ae56 16bd 42a3 873e
00000170: 3664 d1be 76a9 e63e edba d5be 45ed 1fbf
00000180: c2b4 97be bcd8 0ebf 3f48 c5be f976 a8be
00000190: 8b75 85be 417c b53e e9ce 693e 9e18 ff3e
000001a0: 737e 0e3e c866 fbbe 0190 ad3e cd0d edbd
000001b0: 5d88 3e3e a7dc 9bbe de84 a9be 1d61 7bbe
000001c0: 3f9b 9c3e a529 98bd ccc9 9cbe 02f2 d2bc
000001d0: a1f4 56bd 5a72 a03e aeb7 143f 0b08 833e
000001e0: 634b 9f3e c8e5 023f 51cf db3e b8be ba3e
000001f0: cbf6 fe3d 2a7c 49be a98c 83be 0e5c 3f3c
00000200: 1509 01bf 44e0 3e3e fda4 37bd 64f0 c1bc
00000210: 5f13 d0be db8e 183e 3020 00bf 2d88 783e
00000220: 516b 84bd 838f 103f cd0f a6be 8f6d ccbe
00000230: 82ae e73e 1a30 213f fe94 6dbe 27ec 1ebf
00000240: b898 1cbf d205 11bf 59b4 483e e200 ffbe
00000250: 7147 41bd 84b1 3c3d 174a 7c3e 629a debe
00000260: 1332 ccbd a7a1 96be e01e e9be da1b d13e
00000270: d887 fdbe 8dff 58be 976b f7be 397e d03e
00000280: 029f 1e3e 2247 1f3f a42b 883e a8f9 a0be
00000290: 1a15 e8be a089 2d3d 845d 8dbd d25f 81be
000002a0: 4113 f63e 86be 883e 048c dfbe c8c0 cdbe
000002b0: c2c0 a13e 2b99 acbe 009e 033f e8de 093f
000002c0: 4c49 3e3e e370 c3be 368c f33e 8bc1 cc3e
000002d0: bdff ac3d 7f01 0fbe d7f6 32bf c093 89bd
000002e0: 0fcd 0b3f 85a7 b53e 870b 953e 337a 19be
000002f0: 1c4d ec3c f91f a33e 4c5d a5be 3284 7fbe
00000300: 2a34 c4be e7de 06be d802 17bf 87fe d9be
00000310: 87e5 12be 2527 a6be 5401 dfbe 6e6c 173d
00000320: 8c4b a63e 710c 32bf cee3 0a3f aa3b 1e3f
00000330: 0ca2 0a3f 6457 653e e076 b63e 1857 ae3e
00000340: 112a b0be d02c ac3e 5924 d6be e4da adbe
00000350: 19da d63e 1ec6 bc3e b747 043f 738d ccbe
00000360: ca75 953d ae94 ec3c 5fe5 c9be 7721 8dbd
00000370: de48 e23e eb92 583e aaf1 66be ead6 d6bd
00000380: 9282 013e a7ae 9b3e 7060 46bd 9bc4 2a3e
00000390: e551 25bf 0a40 08bf 334b c7be 19c7 47be
000003a0: eb93 f9be d578 833e 75ca f5bd 26c6 7a3e
000003b0: 07f9 773e 99ae 06bf 956b 8cbe 05e7 b13c
000003c0: f7e7 023f 09b0 033d 6f89 723b fc38 82be
000003d0: b908 9bbe b7ac 053f c95c de3e 1034 f8be
000003e0: 7913 8a3b ed33 423e 4e47 163f 27cf a73e
000003f0: c2fd 2fbf d5c8 073d 453a 0d3f 0f66 f2bd

GNN3.bias f4 [2]
-0.258557 -0.27499032
00000000: 9561 84be 88cb 8cbe
