trained_models/iS_GNN_Trained_ep_100_bs64_lr5em04_z96_k_diff_1_kNN_9_ramps_30_b_cap_80.pth (torch, 134999 bytes, 6 tensors)

GNN1.Theta1 f4 [48, 96]
00000000: 859e a93c 74a9 ab3c c4d0 17b9 8b54 903d
00000010: 974e 16bb 39ab ef3b d779 18bd eb1d 2f3d
00000020: 4d47 733d f838 bdbc 1546 7d3d 7d0d d03c
00000030: 9ce2 a13d fdac 223d 8a0a 153d 2f3a 863c
00000040: 88a4 2b3d c990 ff3c d30c c8bc 09af d53b
00000050: d07a 13bb a4e8 ef3c 66b7 9bbc e74b fc3c
00000060: 8186 2fbd 8c7f 27bc 9443 debc 4d9a 0b3b
00000070: e689 043d 48f9 5bbd b4ea 8c3d 652b 91bc
00000080: b2c1 3c3d 19e5 423c e7ab 92bd 7cf5 143d
00000090: d15b 863d d5a1 6a3d f822 123c 3b1f a0bc
000000a0: 7112 df3c bb97 9ebc 9fcc 963c ca39 203d
000000b0: 2f41 063d 8bfd c3bc 0d70 cd3c 0ec6 313d
000000c0: 712b 833c 007b c7bc b64c 76bd 7ccd ddbc
000000d0: 7ad3 84bd 3f54 663d ddd7 783c 2bed 043d
000000e0: d466 cd3c a8dd 98bc 00cc 083d c6c8 12bb
000000f0: 9ce3 43ba 3b2c ecbc d1ae 7b3c 143f a83b
00000100: 01a0 8c3b f824 d2bb 89b1 3b3d 9f54 c0bc
00000110: d2d6 68bd 9d99 e9bc de07 6d3d 158d 153d
00000120: 6670 c93c 7d0d 43bd f9bd 1fbd e081 5bbd
00000130: 47b5 26bd 1641 e63c 440a 903c 63e1 723d
00000140: c6d2 1abc 3ea5 97bd e26f 21bb 974a ceb9
00000150: 5528 0e3d 0418 92bc 3eff c63c 47f3 01bd
00000160: f997 59bd 1f2e 193c 0b14 823c 5810 0bbc
00000170: 4aea 413d d551 603d b548 b0bc 1dcb f8bc
00000180: c073 153d cb55 75bd 6b29 9cbc 1c43 a9bd
00000190: 4109 90bc 5c80 0fba 0fbd a23b 4eaf 36bd
000001a0: 1c8f 1c3d 9f67 debb d802 e1bd 53ee a6bd
000001b0: fb3a 7abd 60d9 c2bb d05a ce3d 0fce 363d
000001c0: fc43 103c 0f5f abbd 2ace f6bc 191c e5bc
000001d0: 5c2e ef3c 9ef0 3abd 8818 30bd 07d9 cabd
000001e0: 7aac 9b3c bccc 0bbd 2055 e4bb 14e7 5ebd
000001f0: 85ef 92bb 4f69 00bd d489 3fbd 6e23 47bd
00000200: abe1 9e3d cc49 45bd 10e0 483d 7d77 443a
00000210: 0b12 b9bc ad5c 963d 2bd4 53bc 5a10 28bd
00000220: a414 ccbd 5dc3 88bd 8a8e 8fba 7c20 27bc
00000230: 3c66 0b3d ce13 d8bc e50e bf3d b385 1abd
00000240: 4787 03bd 5af0 543d fdba 913d d51a b53d
00000250: 0f90 bf3d f6e0 14bd 64eb 233d bb16 5ebd
00000260: ec79 c7ba 2359 9fbd 13a5 923d efb1 cabc
00000270: 3e97 1d3d f70b 2d3d 8bfb 173d 5c35 3aba
00000280: e39b 5a3d d985 063d af67 febb 9f00 87bd
00000290: 87b6 763c 917d cd3b 9ed6 b1bd 456e d83d
000002a0: 69cd cdbc 9353 44bd ae9b debc 89f9 9b3c
000002b0: 44a8 843d 99ff d33c bc7a c1bd d76d f9bc
000002c0: 8247 91bd 5e46 013d b429 143d 8b9e 16bd
000002d0: e904 053d 1f44 d23c d899 883c f4cd 193d
000002e0: f7b7 493d 79f7 1d3d 45e3 503d 97fb 533c
000002f0: 7a83 1d3b 4853 2cbc 386a eb3c 236f 1bbd
00000300: d885 073c f4fe 7e3d c5e6 e53b 08fe dcbb
00000310: 1c7c 2d3d fba1 03bd 3706 303d 64eb 6d3d
00000320: 9cf0 68bd d6f7 ce3c 1459 803d 0fc5 6c3c
00000330: 6cb6 bd3c 5367 23bb d277 82bd 0250 87bd
00000340: b606 65bd ad56 3c3d 7ddb d03d f99a 593d
00000350: 8aa7 9dbd 8cfa 8cbc bfc8 77bc f9f8 783d
00000360: d626 093d 0f03 b9bc 2361 2d3d 39b2 c5bc
00000370: 684e 00ba 664d d23d 3e87 6ebd f40d 3c3c
00000380: b050 e0bd 1077 253d 7bea 1d3d b45c c93b
00000390: f738 f0bb 2795 c8bd 27bb 8abd edf5 973d
000003a0: 918d 0b3d eeee f63d 27d1 bd3c 7d57 1b3d
000003b0: a198 dbbb b6c7 a5bc 3f36 8fbd 5bac 6ebd
000003c0: e293 df3c 5740 9fbc 68d3 07bb e6de 57bd
000003d0: e1bf 93bc ce45 dfbc 6d72 56bd c7c9 c03c
000003e0: 0754 a9bc e048 7c3d 889a 5dbd e95f cabc
000003f0: 2898 0bbd a384 30bd 0886 dfbc 6adf 2ebd
0.02070547 0.020954825 -0.00014478253 0.07047375 -0.0022935027 0.0073141125 -0.03722557 0.04275314
0.05939417 -0.023098454 0.061834414 0.025397057 0.079045504 0.039715756 0.036387004 0.016385166
0.041904956 0.031196969 -0.024420178 0.00652111 -0.0022503622 0.029285736 -0.01900835 0.030797912
-0.042852882 -0.010223281 -0.027131833 0.0021301687 0.032358073 -0.05370453 0.068807036 -0.017720887
0.04608316 0.011895441 -0.07161694 0.036366925 0.06560481 0.05728324 0.00891947 -0.019546142
0.027230473 -0.01935946 0.018408118 0.039117612 0.032777008 -0.02392461 0.025077844 0.04340177
0.016011925 -0.024350643 -0.06013175 -0.027075522 -0.064856485 0.056232687 0.015188185 0.032452744
0.025073446 -0.018660381 0.033397675 -0.0022397502 -0.0007472576 -0.028829684 0.015361504 0.0051344726
0.004291535 -0.0064130984 0.045823608 -0.02347785 -0.056845494 -0.028515631 0.05786883 0.0365115
0.024589729 -0.047620285 -0.03899953 -0.053590655 -0.040700223 0.028107207 0.01758302 0.059296977
-0.009449666 -0.07404564 -0.0024633338 -0.00039346956 0.034706432 -0.017833717 0.02429163 -0.031726148
-0.053123448 0.009349375 0.015878698 -0.008487783 0.047342576 0.05476554 -0.021519044 -0.03037029
0.03648734 -0.05989627 -0.019062718 -0.08264753 -0.017582538 -0.0005474144 0.004966385 -0.044600777
0.038222417 -0.006787255 -0.109868705 -0.081509255 -0.061091404 -0.0059463233 0.10075915 0.044630107
0.008805271 -0.0836774 -0.030127604 -0.0279675 0.02919691 -0.045639627 -0.042992145 -0.09904676
0.019003142 -0.034130797 -0.0069681555 -0.054419592 -0.0044841194 -0.03135043 -0.046762303 -0.048617773
0.077578865 -0.04816608 0.049041808 0.0007494612 -0.022591611 0.07341895 -0.012929003 -0.04103122
-0.099648744 -0.066778876 -0.0010952514 -0.010200616 0.034033045 -0.026376631 0.09329013 -0.03772516
-0.032111432 0.05198703 0.07115743 0.088430084 0.09353649 -0.036347352 0.040019408 -0.054220896
-0.0015218831 -0.07780673 0.07160392 -0.024743048 0.038474314 0.04224774 0.037105124 -0.0007103288
0.05337132 0.03284249 -0.007763825 -0.06591915 0.015058166 0.006271072 -0.08683513 0.10567907
-0.025122361 -0.047931265 -0.027173843 0.019039886 0.064774066 0.025878714 -0.09447238 -0.030447884
-0.07093717 0.031561248 0.036172584 -0.036772292 0.032475386 0.025667248 0.01667492 0.037549928
0.04924771 0.038566086 0.05099799 0.012938402 0.0024034665 -0.010517903 0.028737172 -0.037947785
0.008271657 0.06225486 0.0070160353 -0.00674415 0.042354688 -0.0321369 0.042974677 0.058085814
-0.056870088 0.025264662 0.0626699 0.014451279 0.023158275 -0.0024933412 -0.0637051 -0.06607057
-0.055914603 0.045981098 0.10198114 0.05312631 -0.07697971 -0.017209314 -0.015123545 0.060784314
0.033484302 -0.022584466 0.042328965 -0.024132835 -0.0004894496 0.10268669 -0.058234446 0.011477936
-0.1095289 0.04039675 0.038553696 0.0061450843 -0.0073310095 -0.097940736 -0.06773978 0.074199535
0.034070555 0.12057291 0.02317102 0.037925232 -0.0067015444 -0.020236831 -0.069927685 -0.05826984
0.027292196 -0.01943986 -0.0020725373 -0.052702807 -0.01803583 -0.027254965 -0.05235522 0.023533715
-0.02066995 0.061592937 -0.05410245 -0.024703937 -0.034080654 -0.043095242 -0.02728559 -0.042693533

GNN1.bias f4 [96]
00000000: 5317 813c 958e 22bd c23c ed3c 6d78 7abd
00000010: 5826 c2bc d47c a83c 6386 893d f101 283c
00000020: 7565 47bd 6ce6 89bd 55b1 81bc 3ba1 0cbd
00000030: e0d9 af3d 7a01 3cbd bb65 303d bd7c c73b
00000040: aa2d c3bc df32 823d 3613 a73b 424c aebb
00000050: 3f50 2abd fc0d a4bc 3c6c ca3c 4874 783d
00000060: 90b9 05bd 78c2 bfbc 5bc3 85bd c6d2 853d
00000070: feb8 7c3d b427 253d 5cde 08bd e774 1a3d
00000080: 1049 99bc 4869 4c3d f2e1 943d f816 b6bd
00000090: bc2a 043d 1c8a 0b3d a513 81bd 3ab3 ce3d
000000a0: 68fa 4b3d f4ff 4c3d 4a74 c03a 3f19 49bd
000000b0: 5fb0 a1bc 2e08 543d e47b 99bc cbd3 893d
000000c0: 39ea 7f3d 21c7 f93b 0392 8ebd 32ee 6a3d
000000d0: 8f07 b03d f07b 4ebc fd4d 09bd 6cbf d8bb
000000e0: 781f 07bb 31ff 72bd d07c 563d 100a 6a3d
000000f0: 74ec 2cbd 2c55 00bd 8f46 babc 4b00 9a3d
00000100: 3852 e13c 24b3 bc3c a3d7 90bb bb91 5f3c
00000110: 5e0d f93d e1ae d13c c11f 3bbd 9040 873d
00000120: b26e 3fbd 56d9 873c 18e4 26bd 6e09 b7ba
00000130: a676 8a3b d374 d9bc 9843 7d3d 1031 973d
00000140: d5e8 3abd 7933 d73c e197 71bd b70d 4dbc
00000150: 8b60 343d 9455 edbb 0d25 713c 5818 1cbd
00000160: 5a11 a53d 58a3 c4bc bbd3 013d eac0 e23c
00000170: f0a6 b03d d45e 8539 2db2 873d 7313 3d3d
0.015758192 -0.039686758 0.028959636 -0.061150003 -0.023699924 0.020567335 0.06715085 0.010254369
-0.04868074 -0.067334026 -0.015831629 -0.03433345 0.08586478 -0.045899846 0.043065768 0.006087868
-0.023825485 0.06357359 0.0050987257 -0.0053191492 -0.041580435 -0.0200262 0.024709813 0.06065777
-0.03264767 -0.02340816 -0.06531402 0.065343425 0.06169986 0.040321067 -0.033415183 0.037709143
-0.018711597 0.04990509 0.07269658 -0.088911 0.032267317 0.03406726 -0.06302575 0.100927785
0.049799353 0.050048783 0.0014683094 -0.049096342 -0.01973742 0.051765613 -0.018735833 0.067298494
0.06247923 0.007622615 -0.06961443 0.057356067 0.08595192 -0.012602791 -0.03352164 -0.006614616
-0.0020618122 -0.0593254 0.052365124 0.057138503 -0.042217687 -0.031331226 -0.022738723 0.07519587
0.027505025 0.02303464 -0.004420237 0.013645585 0.12160753 0.025596084 -0.04568458 0.06604111
-0.046736427 0.016583126 -0.04074487 -0.0013964602 0.00422557 -0.026544964 0.06183204 0.07382405
-0.045632202 0.026269661 -0.058982734 -0.012515477 0.044037383 -0.0072428677 0.014718306 -0.038109154
0.0805995 -0.02400367 0.031696063 0.02767988 0.08625591 0.0002543839 0.06625781 0.046161126

GNN2.Theta1 f4 [288, 96]
00000000: 1817 3e3d fc7b c9bb 7b2f e63c 4fc9 a43d
00000010: 5604 06bd f094 fabc f659 cd3d 28f0 013d
00000020: b33f a5bd 4cdd 0b3d ce1c c8bd 4e96 6cbd
00000030: 7f07 273d 671d 3a3d 01e6 d9bc 3592 a43d
00000040: fcfd 973d b12c 613d 00bd 5abd c413 b9bc
00000050: fe2a 3c3c b585 873d d8a2 08bd 75eb 733c
00000060: 575d 253d 7bb6 25bd 2b9b 1dbd d355 cc3d
00000070: 458e bebb a071 923d 866d e2bd 425f 2dbd
00000080: bbaa 523d 7009 afbb fccc df3c 730c a7bd
00000090: 7d52 bb3d 65da 52bd caf6 2a3c 6211 84bd
000000a0: 5a70 71bd 163a b0bd 27d2 d2bd c5e6 203c
000000b0: 42a1 34bd fe65 6e3d 91cc 76bc 1a45 913d
000000c0: 031e 3cbc 0717 cd3c 20e7 b73d 679b ccbd
000000d0: 656a 19bd 4f1a 963d 4916 4bbd 7664 6dbd
000000e0: 245e adbb 84c0 26bd b033 d43c 7815 49bd
000000f0: 2e3a d13c 71d6 21bd 1e9d 25bd f57a 0abd
00000100: f0e2 153c 9efe 6b3d faf2 b0bd f46e 73bd
00000110: aa21 c7bd bebf 193d 3b3e 773d b920 cebd
00000120: f491 833c f342 033d e544 3cbd 4054 c03c
00000130: 2fe0 6b3d df2f be3d 5621 203d 2394 a9bc
00000140: 0592 92bd 1f2b 76bc 4fcc 3b3c 36d5 963c
00000150: b9ab a73d 0738 ccbd 5887 363c a91d 31bd
00000160: 4c98 453c 7e43 bc3d e39b 0d3c b1e9 09bc
00000170: fa64 d4bc 7d18 c6bd 36df a8bd 6740 1a3d
00000180: 5157 95bd a698 383d 33d0 dbbc 3aa9 9f3c
00000190: b54a a93d 21ba 993c c897 6a3d 4093 ae3d
000001a0: cc57 72bc a3f5 9e3d 3306 b4bd 4b07 b93d
000001b0: 334d 16bd 479b 17bc cb83 503d b781 96bb
000001c0: 2fe5 753d c00b 9bbd 7d88 03bd 390a d33d
000001d0: 7eaf 85bd a94d 4b3d 88b6 a23d 335d 683d
000001e0: 352e 49bd 3ef0 273c b8e0 89bd 46c8 7cbd
000001f0: 4905 93bc 0ad1 94bd 518e 323d 7a53 453d
00000200: 8d66 4cbd fe1f 99bb f9ab b93d 168b 8e3b
00000210: 1f16 923d 056a c13d feeb b0bc 1381 d5bd
00000220: 6380 9c3d e765 48bd da97 b13d 89d9 09bd
00000230: 4a0b 8a3c 23f9 813c 2c38 f8bc 1f48 9e3d
00000240: c4c2 a3bd acc1 05bd 09e7 91bc b378 773d
00000250: 63b3 543d f014 543d 8324 8e3c 00a8 6c3d
00000260: e327 0cbd afdf bbbc 2c39 b13b 8e75 f53c
00000270: 0b5f 29bd 1dfa 753c a3e7 a73c b267 d13c
00000280: 1bfa 8b3d 468d d53c 3ebb 993d b1ec 79bc
00000290: d344 b8bd 0e8e 573d aed6 e53c 587f b33d
000002a0: 7566 b93c d51a 363c 3037 7abd 7554 babd
000002b0: 06cc 1f3b a072 a43d f47c 48bc ad89 1bbd
000002c0: 6eea 0e3d f94b e8bc cc6a 453d ba02 64bd
000002d0: 524d b8bd 4033 8ebd e750 adbc b119 ef3c
000002e0: b569 633d 6fd0 87bd 3810 8bbc b6e7 513d
000002f0: a6c6 2abc 21ac 873a 5ff1 a03d cb2b 04bd
00000300: 6222 2c3d 3377 8f3d ecf9 133d aa45 11bd
00000310: a349 67bd 704c 82bd 033a 1d3b 7108 fd3c
00000320: 4ab5 953d 35fd 1abb c235 a43d ae52 32bd
00000330: f65f 8c3c e831 6cbd 87a8 ac3c 89a4 993d
00000340: f2a8 d63b 5ab0 c4bc 1ae3 5bbc b10c 93bd
00000350: b88e 96bd 3e7e ddbd 4dec 5b3d fa05 61bd
00000360: a35b d3bc 8539 a3bd 8f48 79bb 8036 a53d
00000370: 8fbf b33c 4328 c0bc d944 1b3d 8b48 963d
00000380: f989 703d 615a 83bd 0649 1dba 24dc 95bd
00000390: f590 afbd 864c a03d 5571 89bd fec1 68bd
000003a0: 3917 f73c 7a8e d73d b656 e1bd 38ba 0cbd
000003b0: faba 2abd f49c 843d 4c44 5a3d 6a2f 7b3d
000003c0: 58b0 9f3d 3154 81bc 388c 963d 77e6 a8bc
000003d0: 4870 693c d2b0 27bd 3bef 883c 7e59 3d3c
000003e0: 66b7 a0bc 3792 c93d 7cad e5bb 832c 803c
000003f0: 1875 a63d f77c 0f3d 1ee4 36bd d9f5 36bd
0.046408743 -0.0061488133 0.028098812 0.08046209 -0.03271898 -0.030588597 0.10026924 0.03172317
-0.0806879 0.034146592 -0.09771119 -0.05776053 0.040778633 0.045438197 -0.026598932 0.08035699
0.074214906 0.05497426 -0.0534029 -0.022592433 0.0114848595 0.066172995 -0.033358425 0.01488768
0.04037222 -0.04045723 -0.038478058 0.09977307 -0.0058152997 0.071505785 -0.11056046 -0.042327173
0.051432353 -0.005341701 0.027319424 -0.081566714 0.09146593 -0.05147781 0.010434816 -0.06448628
-0.058945037 -0.08604829 -0.1029399 0.009820645 -0.0440991 0.058202736 -0.015063421 0.07093258
-0.011481765 0.025035394 0.089796305 -0.09990578 -0.03745498 0.07329237 -0.0495818 -0.057957135
-0.0052907635 -0.04071094 0.025903553 -0.04909274 0.025540438 -0.039511148 -0.04043304 -0.033808667
0.009148344 0.05761587 -0.08640094 -0.059431985 -0.09723218 0.037536375 0.060362082 -0.10064835
0.016060807 0.03204627 -0.04596414 0.023477674 0.057586845 0.092864744 0.03909429 -0.02070052
-0.07156757 -0.015024929 0.011462285 0.018412214 0.0818705 -0.09971624 0.011140667 -0.043241177
0.012060236 0.091925606 0.008643123 -0.008417533 -0.025927056 -0.096726395 -0.08245699 0.037659075
-0.07292045 0.045067452 -0.026832676 0.019489873 0.08266202 0.018765511 0.057273656 0.085241795
-0.01479144 0.07761695 -0.08790245 0.09034594 -0.036694717 -0.00925333 0.050906938 -0.0045931
0.06003302 -0.075706005 -0.032112587 0.10304684 -0.06527613 0.04963461 0.07944971 0.056729507
-0.049116332 0.010250149 -0.06732315 -0.061714433 -0.017946856 -0.072664335 0.043592755 0.048175313
-0.049902488 -0.004673003 0.09066004 0.0043500764 0.071331255 0.0944405 -0.021596905 -0.104250096
0.07641675 -0.048925307 0.086715415 -0.033654723 0.016851086 0.015865868 -0.030300222 0.077286
-0.07996133 -0.032655403 -0.017810361 0.060417842 0.05192889 0.05177778 0.017351395 0.057777405
-0.034217726 -0.02293381 0.0054084267 0.029963281 -0.041350406 0.015013245 0.020496195 0.025562141
0.06834813 0.026068341 0.07506417 -0.015254186 -0.08997502 0.05262571 0.028056469 0.08764523
0.022631863 0.011114796 -0.061087787 -0.0909814 0.0024383082 0.080296755 -0.012236822 -0.037973095
0.03489154 -0.02835654 0.048197553 -0.055666663 -0.08999123 -0.06943369 -0.021156741 0.029187055
0.055520732 -0.066315524 -0.016975507 0.051246367 -0.010423338 0.0010350981 0.07858538 -0.032268327
0.042024978 0.07005157 0.036127016 -0.035466827 -0.05646671 -0.063622355 0.0023990877 0.030887814
0.07309969 -0.0023649458 0.08018066 -0.04353588 0.017135601 -0.05766478 0.021076454 0.07502086
0.0065509016 -0.024009872 -0.013420844 -0.07180155 -0.0735144 -0.108150944 0.05369215 -0.05493734
-0.025800532 -0.07969955 -0.0038037633 0.08067036 0.021941928 -0.023456698 0.037907455 0.07338055
0.05872533 -0.06413723 -0.0005999956 -0.07317379 -0.0857257 0.07827096 -0.067110695 -0.05682563
0.03016244 0.10525222 -0.11002867 -0.03435728 -0.04168222 0.06475249 0.05328779 0.061324514
0.07797307 -0.015787216 0.07350963 -0.020617707 0.014247961 -0.040940113 0.016715636 0.011556981
-0.019618701 0.098423414 -0.0070092063 0.015646225 0.081278026 0.035031285 -0.044651143 -0.044668052

GNN2.bias f4 [96]
00000000: 4939 dcbc e337 8abc 0b90 45bc 3dc0 303d
00000010: cb3e 443c c53c b53c df77 c13b 39c9 e5ba
00000020: cedd 92bb a776 99bc e7d6 803c d6f3 8c3c
00000030: d248 e6bc 1fd2 003c fa89 453d 4de3 c7bc
00000040: 24f6 39bd 36b5 49bb 0b5e 3dbd 2ce1 573c
00000050: 871f d03c 1c48 aebb 05d7 0f3d 1bd5 e93b
00000060: e5ea a13c c52b 9f3b db3d c939 2558 3dbd
00000070: a27e a0bc 5dea 903c 5205 68ba fe38 26bd
00000080: c65f c1ba 5fb7 f5bb 564f 023d 194a 8eba
00000090: 0580 acbc 44dd 7dbc 6000 723c 64de 7cbc
000000a0: 3756 f8bb 91ca e5bc 88f2 babc 7345 77bc
000000b0: 14cc 063d ec2e 0439 f893 6c3c c897 41bc
000000c0: 393e a9bb 51d3 143d bb87 33bc e524 c03c
000000d0: 29f0 633d 830d 48bd ac85 883c b414 fbbc
000000e0: 8956 083d b77c 85bc 43db f83b 5652 43bd
000000f0: 91b7 5b3c 1983 cfba a8bf 6fbc 3255 28bd
00000100: e89d 1bbc 184c 17bc c5bd 5e3b 00fa 1d3d
00000110: 9aa3 1d3d e4d1 ad3b 16a7 0a3d d892 033d
00000120: 8e17 babc 7319 c5bc 02d5 40bc d14d aebb
00000130: 05e5 99bb e43a 47bc a9a7 fabb 6f1b 13bd
00000140: a487 a9ba 95f1 103d 3073 f63c 2336 793b
00000150: 1be9 e0bc 17b2 ee3c 4394 463d 0fbc 493d
00000160: 06cc 69bc 513e 37bd 8639 0cbc 36f3 8fbc
00000170: 017a 5a3a 0837 c63c 0f24 b9bc c952 073d
-0.026882784 -0.016872352 -0.012058268 0.043152083 0.011977862 0.022123704 0.0059041823 -0.0017531283
-0.0044820076 -0.018733336 0.015727473 0.017206114 -0.028110895 0.007862597 0.048227288 -0.024400378
-0.045400754 -0.0030778176 -0.046232264 0.013176244 0.025405658 -0.0053186547 0.035117168 0.007136
0.019765327 0.0048575127 0.00038383793 -0.04622664 -0.019591633 0.017689878 -0.00088508904 -0.040581696
-0.0014753274 -0.007498666 0.031813942 -0.0010855823 -0.021057138 -0.015494648 0.014770597 -0.015433881
-0.007578637 -0.028050693 -0.022820726 -0.015092242 0.032909468 0.00012605981 0.014439575 -0.011815973
-0.005164888 0.03633434 -0.010957654 0.023455093 0.055648956 -0.04884101 0.016665302 -0.03064952
0.03328565 -0.01629482 0.0075944974 -0.047685944 0.013410465 -0.0015831917 -0.014633097 -0.041096874
-0.009498097 -0.009234451 0.0033987623 0.038568497 0.0384861 0.005304562 0.03385075 0.032122463
-0.02271631 -0.024059987 -0.011769535 -0.005319335 -0.0046964907 -0.012160037 -0.007649381 -0.035914835
-0.0012934101 0.03538664 0.030084223 0.0038026653 -0.027454903 0.029137654 0.048481237 0.049251612
-0.014269834 -0.044737164 -0.0085586365 -0.017572027 0.000833422 0.024196163 -0.022600202 0.033037934

GNN3.Theta1 f4 [288, 2]
00000000: c1c1 8c3e 9672 723e d90c 34bf af31 2a3f
00000010: 8839 d93e 9dd8 2ebf 2bad e1be 0609 ae3e
00000020: 26bf fcbd ad6c e6be eaea 1b3e 08f5 1dbf
00000030: bc56 033f 4f36 033f 40f7 a43e 6988 843e
00000040: a87d f9be a2eb 10be 33e3 a03e 72e5 393e
00000050: d81b 0c3f 850b 2c3e 6ad9 18bf c007 e2be
00000060: b191 db3e adff e23e 1b30 de3d 31e3 e63d
00000070: d38f b03e d481 2ebf 3a06 1fbf 6760 97be
00000080: b3f3 91be 5d2d 07bd 6db3 b73e bc4d 11be
00000090: efe9 a03b 575d 05bf f79f 9bbe 7441 123f
000000a0: a57c 0d3f 08c0 24be 2690 6e3e fccc 083f
000000b0: 326a f83e a52f 77bd 157d fcbe 986a 83be
000000c0: a635 a43e 8187 95be 475c 993e b906 f6be
000000d0: 5d38 7d3e 7f8c f13e f730 0fbe c209 1e3f
000000e0: 19fc cf3e 9fa8 79bd 1d3c 37be 0db1 bdbc
000000f0: 1c61 a0be 0868 76bd 9153 12bf eef0 923e
00000100: 28b3 283e a3ac 00bf 775d b6bd 6d3c 4f3e
00000110: 0b62 c0be 4e6f 773e ffce e1be 2681 c9bb
00000120: 4a84 6fbd 7199 d8be 5b0b 9cbd 45e6 78be
00000130: 6f46 b9bd 92dc 313e e4d8 f1bd aca1 f1bd
00000140: ecae 0e3f efd9 013f f422 bfbe 81e7 603d
00000150: 7ccc 733e 7618 dc3d 88f3 fb3c 6720 56be
00000160: 6bfc d53d 121b b2be b7ac c3bd d630 71be
00000170: 9fa8 953e 7560 a13e fa39 0ebf c078 fabe
00000180: 910c dc3d c0fd 7b3e e908 15bf 67a0 c13d
00000190: beb5 a7be 1d20 12bf 00ff 223f 3f8a e0be
000001a0: 6788 9ebe da1a 313f 7c72 cabe 135b 8fbe
000001b0: be9c d7be a867 aabe 2c59 af3d cd49 ce3e
000001c0: ecf8 6e3e af05 2ebe 0c7a 0d3e 9c42 d7be
000001d0: 2e73 f73e 55fb d1be a041 8d3e 717e e6be
000001e0: 1a2e 80be f093 22bf d980 173e af2e b53e
000001f0: a605 e5be 2f2d 863e a1db 9dbd c085 1d3e
00000200: f3fa cabe a383 05bf 90f8 83bc 49bd 913e
00000210: fc65 18bf 5b6b c5be 10aa e5be 061a 37bd
00000220: c7da d6be 7e0e 9cbe 55e4 6fbe ef2d e7be
00000230: 7433 a7be 2742 94be 1747 d1bd 1838 173f
00000240: ccdb 4ebd 3b87 093f 4a85 273d d9f7 8a3e
00000250: aa77 693e 8c24 cebd ea23 1f3f 3425 b3be
00000260: 21f5 6cbe 1f2c 3b3e 75e3 913c 67a3 58be
00000270: f127 ad3e cdc2 25bf bd49 183f 2a37 2c3e
00000280: 3081 1fbe 5808 203f 27b4 1ebe 1bc7 2dbf
00000290: 8b76 cbbe c340 133f 5e43 8abe ba09 523e
000002a0: 3fcb 5bbe 2b3c ba3e 2702 a0be 60f3 033f
000002b0: 8e42 1c3f 59a5 3ebd 49d9 eebe cf9a 1d3e
000002c0: b9f3 89be 0beb f2be 14e4 ddbd 367b 85bd
000002d0: 5189 263e 3e5b 8fbd 7462 233e 8b66 aabd
000002e0: f291 2abf 9747 4a3d 3ff8 973e 35de 0b3f
000002f0: df9d 03bf 1dd7 9bbe 04db a6be 9558 3ebe
00000300: 58ce 8ebe a1df 1d3f 65d5 f2be 7a73 01bf
00000310: 8ad7 e7bc 80f1 193e 6a30 133f 595c b13d
00000320: c8aa 0c3f 2ecf f23d 2fa2 36bf 1ed2 ff3d
00000330: af36 253d ccfb 92bd 2a69 1e3e 89c1 a5be
00000340: f607 113f df43 c8be af5a 213f 561f db3e
00000350: 4b5b e73e e85d 8abe 7530 2dbf 7dcc d23e
00000360: 26fb 03bf 64c9 f7be 57b9 bb3b fa7b edbe
00000370: e3bd 3d3e 77e8 223f 3e7b c8bd f539 8fbe
00000380: 90da a6be 9309 213e 6875 263e 4890 ec3e
00000390: a9f9 1ebf 8f57 073e b79f c9be 391f a53e
000003a0: 4643 02be 8d52 0e3f cf63 17be 676a 32bf
000003b0: c61b 3f3b 5df1 253f c181 99be 99e3 c53d
000003c0: 90f2 50be 891b 99be 1f15 ab3e fe1e 76be
000003d0: be3f e5be cd46 253f 3c89 17bf 8a70 15be
000003e0: 52d9 263f 241b e1bd 3ade 623e f450 073f
000003f0: f19f 2fbc 8317 58be 6c95 ffbd 972d 363e
0.27491572 0.23676524 -0.70332104 0.6648206 0.42426705 -0.68299276 -0.4407743 0.3399126
-0.12341146 -0.45004788 0.15226331 -0.61702013 0.5130422 0.51254743 0.32219887 0.25885323
-0.4872868 -0.14152387 0.3142334 0.18153933 0.54729986 0.1680127 -0.5970675 -0.44146538
0.4288459 0.4433569 0.10849019 0.11273802 0.3448473 -0.6816685 -0.62118876 -0.29565737
-0.2850624 -0.033002246 0.35879079 -0.1418981 0.0049106996 -0.5209555 -0.3039548 0.57131124
0.5526832 -0.16088879 0.23297176 0.5343778 0.4851852 -0.06034817 -0.4931418 -0.25667262
0.3207218 -0.29204944 0.29953215 -0.48052004 0.24728532 0.47177503 -0.13983522 0.6173364
0.40622023 -0.060951825 -0.17894025 -0.023155713 -0.3132409 -0.060157806 -0.5715876 0.2869944
0.16474593 -0.5026342 -0.08904546 0.20237894 -0.375748 0.24163553 -0.44103238 -0.006149429
-0.05847577 -0.42304567 -0.076193534 -0.24306591 -0.09046637 0.17369297 -0.11808947 -0.117984146
0.5573566 0.50723165 -0.37331355 0.05490828 0.23808473 0.10746853 0.030755773 -0.20910798
0.104485355 -0.34786278 -0.09554427 -0.23553786 0.2923021 0.31518903 -0.55557215 -0.4892025
0.10744584 0.24608517 -0.5821672 0.094544224 -0.32755846 -0.5708025 0.6367035 -0.43855473
-0.30963442 0.691816 -0.3954047 -0.27999172 -0.42111772 -0.33282208 0.0856193 0.4029068
0.23337144 -0.16994356 0.13816088 -0.42043006 0.48330063 -0.41012064 0.2758913 -0.45018342
-0.25035173 -0.63506985 0.14795245 0.3538718 -0.44730872 0.26206347 -0.077079065 0.15383053
-0.39644584 -0.52153987 -0.016109735 0.28464726 -0.59530616 -0.38558468 -0.4485631 -0.044702552
-0.4196379 -0.30479807 -0.23426946 -0.45152232 -0.32656443 -0.2895672 -0.102186374 0.5906997
-0.050502583 0.5372197 0.0408986 0.27142218 0.22799554 -0.100655645 0.62164176 -0.3498932
-0.23140384 0.1827855 0.017808655 -0.21156083 0.33819535 -0.6475037 0.59487516 0.16817918
-0.15576625 0.6251273 -0.1549841 -0.67881936 -0.3973888 0.57520694 -0.27004522 0.20511523
-0.21464251 0.3637403 -0.31251642 0.51543236 0.61039054 -0.046544407 -0.4665015 0.15391086
-0.26943758 -0.4744495 -0.10834518 -0.06517641 0.1626332 -0.06999825 0.15955526 -0.0832034
-0.66628945 0.04938468 0.29681584 0.54635936 -0.5141277 -0.30437556 -0.3258897 -0.18588479
-0.27891803 0.61669356 -0.47428432 -0.5056683 -0.02830102 0.15033531 0.5749575 0.08660192
0.5494809 0.11855923 -0.7134122 0.124912485 0.040335353 -0.07176933 0.15469804 -0.32374218
0.5665277 -0.39114282 0.63029 0.42797345 0.45186839 -0.2702477 -0.67652065 0.41171637
-0.515551 -0.48395836 0.0057288813 -0.4638365 0.18529467 0.63635963 -0.097891316 -0.27973905
-0.32588625 0.15726309 0.16255724 0.46203828 -0.620997 0.13216995 -0.39379665 0.32250383
-0.12720975 0.5559471 -0.14784168 -0.6969361 0.0029160841 0.64821416 -0.29981807 0.096625514
-0.2040503 -0.2990382 0.33414552 -0.2403526 -0.44775194 0.6456116 -0.5919378 -0.14593711
0.65175354 -0.10991505 0.22155085 0.528579 -0.010719285 -0.21102719 -0.12479672 0.17790829

GNN3.bias f4 [2]
00000000: 9832 01bf 0bb3 583d
-0.50467825 0.052905124
