trained_models/iS_GNN_Trained_ep100_bs64_lr5em04_z96_k2e+00_ramps_20.pth (torch, 222343 bytes, 6 tensors)

GNN1.Theta1 f4 [80, 96]
00000000: 8c82 0dbd 5eb4 acbc d4ec e23c a129 193c
00000010: a697 84bc f380 5b3d 5b43 7cbb 52a6 ab3d
00000020: ea96 e0bd 08fb 863c e740 13bd 7a69 b5bc
00000030: 3eae f1bc fc72 89bc 1198 32bd df7d 1bbd
00000040: e48c 83bd 8790 433d f6aa 043d 5a13 fd3c
00000050: 1345 9cbd a403 c5bd a690 b1bd 07b0 26bd
00000060: f950 103d 86fd a0bd 7522 8e3c 4f9c 3abd
00000070: 12b8 00bc a95a 6c3d 52ad 143c 749e 6dbd
00000080: 9b31 b93c 614c c4bd 25f3 d53c 5b4d db3c
00000090: 265a 963c f66f b43b 7341 8bbd 43fa babc
000000a0: a27f ccbb 9f0d d33d 4467 f3bc a258 523c
000000b0: 2ed2 f63b d3aa 2abc bf09 eebb d3eb fa3c
000000c0: 6950 08bc c3b4 cb3d 073b 0d3d 106c 31bd
000000d0: 7f3a 87bd e205 eb3c 7a92 66bd b4f8 f9bc
000000e0: 3fc7 143d ec88 ac3c 44eb 683d c198 11ba
000000f0: d5b8 363d 255c ad3d 4882 23bd 8033 113d
00000100: b9cf d3b9 ac50 f53c b04f 82bd 34e4 493c
00000110: 79e4 1cbd 04b0 b63b db7e 2dbd 5caf 773d
00000120: ecaa cd3c 57b1 063d 2659 243d 7cb7 343d
00000130: 9c29 793c 578d 823c ee55 aebc 8193 403d
00000140: a528 d4bd 8462 89bc 3336 63bd bd55 bf3d
00000150: 8734 c7bc 9af1 dcbb 10b5 993a c3eb d63c
00000160: 3097 1abd 817b b03c 9866 48bd 5d20 373d
00000170: 7521 5dbd a4eb 80bd ed7f 22bd 2809 3dbd
00000180: 0bec 3abd 66d7 1bbc 74cd 18bd b944 b53d
00000190: 88fa 813d 1e26 e83c fbac a53c 287a 8bbd
000001a0: 4af6 d63c 4eba edbc 22e4 91bb 2e1a e3bc
000001b0: a207 babb 86ee a5bc 0a3d 0e3d 47c7 033d
000001c0: cb5b 0abd df07 1ebb b727 4f3b b48c 903b
000001d0: 4d0b 843d 7ca8 3a3d 0f3b 0f3d c600 b03d
000001e0: f92d 603d 46b4 8d3d 0664 86bc 738f 9abc
000001f0: 0775 fbbc f30f 9a3c 59fa bbbd 5e24 1d3c
00000200: 221c 16bd 9cb7 e8bb d251 55bc 459f 0bbb
00000210: a4ab 91bd f987 ab3c 43a6 af3b 4898 3b3d
00000220: 138f 69bd f884 47bd 206e a33c 4db4 b73d
00000230: 415c debc 59c0 acbd 5cf7 bdbd ed3b c2bd
00000240: 1290 b33c f26a 96bd 3cb8 783c 09c9 7c3c
00000250: 68a6 433b 797f b5bc eada 8fbc c2f9 f9bc
00000260: 01c6 c0bd 2633 973c 4d46 56bd dcb3 aabc
00000270: 1877 b2bd d371 793d ddb1 ee3b e19d ac3d
00000280: 7634 6e3d 53c1 00bd b36c 5fbd 5e9a de3b
00000290: 2bac a9bc 5834 91bc 112d 973d 65c9 d63c
000002a0: c40e 13bd a4ce 73bd 5a28 273d c907 a6bd
000002b0: fe62 333d 1b72 8e3d f6c9 193d 7751 29bd
000002c0: 2b2e 923d 9490 0b3d 49df 863c 9512 013b
000002d0: 97ed a3bd 7fb9 67bb 3bb7 ad3c 1f9d 293d
000002e0: f01d cf3c d26e 9ebc 8112 b73c 8778 143d
000002f0: 9504 47bd c286 8ebc de1d 83bd 6392 e33b
00000300: 22e9 88bd 375e c1bc f6e4 04bd 2a22 e6bc
00000310: f85f 39bd 85f1 3abd b277 133d cee1 b1bd
00000320: 02a2 663d c847 ac3d c3c8 233d 64bf 783d
00000330: a1fa b93d d6fb 913d 2961 5bbd 745a a43d
00000340: 3e60 83bd 4272 53bd 8e29 893d dc48 873b
00000350: 9ed5 063d fa06 5bbd c43d 933b b4b7 c4ba
00000360: a379 66bd 11e1 93bb 117d d93c 5a73 f63c
00000370: d0d6 30bd 9563 0b3c 48b8 fcbb dcc2 e93c
00000380: b69b f7bc 807f 8239 a379 35bd 1e46 c2bd
00000390: 9643 50bd feba 4fbd 22a5 5ebd 6ca5 2abc
000003a0: b847 b3bc 523c 0f3d baa4 94bc 3fa6 b3bd
000003b0: 8f11 f7bc 33ba 993b 3519 ab3d db4d 9c3b
000003c0: 7a00 403c e65b 08bd 15d2 89bc 0cb5 993d
000003d0: 341e 2a3d db1c a9bc e39a 38bb 7235 2e3d
000003e0: ff38 c23d fc93 153c 441f 42bd 7da0 d43c
000003f0: 2de4 bc3d ba82 2abc 31e7 1e3d b22a 0fbd
-0.034548327 -0.0210821 0.02770082 0.009348304 -0.016185593 0.053589772 -0.0038492295 0.083813325
-0.109662846 0.016477123 -0.035950568 -0.022145022 -0.02950203 -0.016778462 -0.043602053 -0.037961837
-0.06423357 0.047745254 0.032389604 0.030893017 -0.07630362 -0.09619835 -0.086701676 -0.040695217
0.03523347 -0.07860856 0.017350415 -0.045559224 -0.007856386 0.057703648 0.009074526 -0.05801244
0.022606662 -0.095848806 0.026116917 0.026770284 0.018353533 0.005506511 -0.06799593 -0.022824412
-0.006240801 0.103053324 -0.029712327 0.0128385145 0.0075323796 -0.010416704 -0.0072643454 0.030630028
-0.0083199525 0.09946587 0.03448012 -0.043315947 -0.06602954 0.028689329 -0.056292035 -0.030514099
0.03632283 0.021061383 0.05686499 -0.0005554073 0.044609863 0.08464841 -0.039919168 0.035449505
-0.00040399822 0.029945694 -0.063628554 0.012322474 -0.038303826 0.005575182 -0.042357307 0.06046997
0.025105916 0.03288397 0.04012408 0.044120297 0.015207674 0.015936537 -0.021281209 0.04701567
-0.10359315 -0.016770609 -0.05547161 0.09342525 -0.02431704 -0.0067426683 0.0011726934 0.026235467
-0.03774184 0.021543266 -0.048925966 0.0447086 -0.053986985 -0.06294945 -0.03967278 -0.04615131
-0.045635264 -0.009511804 -0.03730531 0.088509984 0.06346613 0.028338488 0.020224085 -0.06810409
0.026240487 -0.029019501 -0.0044522444 -0.027722444 -0.0056771794 -0.020255338 0.03472618 0.032172468
-0.033778947 -0.0024113578 0.0031609365 0.0044113044 0.06447468 0.045570835 0.034968432 0.085938975
0.054731343 0.0691915 -0.016405117 -0.01886723 -0.030695451 0.018806433 -0.091786094 0.00959119
-0.036647923 -0.007101966 -0.013019996 -0.0021304649 -0.07112816 0.02093886 0.005360396 0.045799524
-0.05702121 -0.048710793 0.019949973 0.089699365 -0.0271436 -0.08435125 -0.09275696 -0.09484086
0.021919284 -0.07344617 0.015180644 0.01542879 0.0029853825 -0.02215551 -0.017560441 -0.030514602
-0.09412766 0.018457007 -0.052313138 -0.020837717 -0.087141216 0.060899567 0.0072843865 0.084285505
0.0581555 -0.03143437 -0.054547023 0.0067933043 -0.020711979 -0.017725155 0.073816426 0.02621908
-0.035902753 -0.05952324 0.040809967 -0.08106954 0.04379558 0.06955358 0.03754612 -0.041337457
0.07137712 0.034073427 0.016463893 0.0019694914 -0.08004301 -0.0035358367 0.021205535 0.041409608
0.02528283 -0.019339953 0.02234769 0.036247756 -0.048588354 -0.017398242 -0.06402181 0.006944941
-0.066850916 -0.023604495 -0.032444917 -0.028092463 -0.04525754 -0.045640487 0.036002822 -0.08685647
0.056306846 0.08412129 0.039986383 0.0607294 0.09081007 0.07128112 -0.053559456 0.08025065
-0.06414841 -0.051622637 0.06697379 0.0041285586 0.032918565 -0.05347345 0.004493447 -0.0015008361
-0.056268346 -0.004512914 0.026548894 0.0300843 -0.04317361 0.008507629 -0.0077123977 0.028535299
-0.030225616 0.00024890527 -0.044305455 -0.0948603 -0.050845705 -0.05071544 -0.0543567 -0.010415416
-0.021884784 0.034969635 -0.018144954 -0.08771943 -0.03015974 0.004691386 0.08354417 0.0047700233
0.011718864 -0.033290766 -0.016823808 0.07505235 0.04153271 -0.020643642 -0.0028168492 0.04253144
0.094835274 0.0091295205 -0.0473931 0.025955433 0.092232086 -0.010407144 0.0387947 -0.034952827

GNN1.bias f4 [96]
00000000: b577 953d 1e7c 023b 64c2 b8bd 4b74 363d
00000010: a486 023d 5fc9 833d 8d1f 8ebd 0acd 4c3d
00000020: 03b3 a03d 2b9e 1d3b d203 bc3b eacd 0abd
00000030: 7351 a53d 5bb8 9fbb 3de0 9cbd 34bc a43d
00000040: 26b2 d7bd 1ff6 063d c5cb fabc 6f56 25bd
00000050: d3c3 38bd fc70 84bd 12d8 1dbd 0f33 17bd
00000060: 9f37 2bbd 7193 af3d 980f b53a 3c50 3c3d
00000070: 5b54 f1bc d8ac 03bd 88f3 70bd 940f debc
00000080: 17b8 cebc 590c 92bd 2c03 b93d 47d7 cdbd
00000090: 45da 49bd 00ee d13c 5635 a53d 8d1a 8dbd
000000a0: 82a0 6c3d f7ba 54bd 0bed 54bc 78f9 683d
000000b0: 3fa6 fdbc d5d6 b93b 0be0 23bd 9dcb 17ba
000000c0: 037f 3c3d e479 26bd 3280 f03c 352c d93d
000000d0: 5980 80bd 87c7 1fbd d954 7c3d 7670 773d
000000e0: d655 c13d 3635 9dbd 3eb4 ddbc 3118 6aba
000000f0: 6486 aa3d 5c42 a93d b027 0fbd 82b0 023b
00000100: 49bb 2e3d 613a 7e3d 40b4 8dbd f5ae 843d
00000110: c3ef 873b 299f a63d c59a dcbc e89e b23d
00000120: 3596 0ebd 8ec7 1bbd 26d9 9fbc 2d06 d7bc
00000130: c899 803d 64ad f6bc 2510 f43d 1539 9e3d
00000140: 39c4 a93a 1601 0e3d ce4b 60bd 8eef 9bbd
00000150: 0edb 96bd 94c5 12bd 8f20 7e3d d4fe 61bd
00000160: 3a4c c43c 2cdc aa3d e36b fdbc e636 9c3d
00000170: c2cd a23d e9ce ed3c 4fba 303d c082 2abd
0.07298223 0.0019910405 -0.09021452 0.0445445 0.031866685 0.06434893 -0.069396116 0.050000228
0.07846644 0.0024050574 0.00573776 -0.03388778 0.08072176 -0.004874272 -0.076599576 0.080437094
-0.10532026 0.032949563 -0.030614743 -0.040365633 -0.045108628 -0.064668626 -0.03853614 -0.036913928
-0.04180109 0.08573044 0.0013813851 0.045974955 -0.02945917 -0.03214726 -0.058826 -0.027107038
-0.025234265 -0.071312614 0.09033808 -0.100508265 -0.049280424 0.025626183 0.08066814 -0.0688983
0.05777026 -0.051936116 -0.012995969 0.056878537 -0.030963061 0.005671362 -0.040008586 -0.00057905336
0.046019565 -0.040643588 0.029358003 0.10604135 -0.062744804 -0.039008643 0.061604355 0.060409985
0.094402 -0.07676165 -0.027063485 -0.00089299964 0.08326414 0.0826461 -0.03494996 0.0019941633
0.042659078 0.062067393 -0.069191456 0.06478683 0.004148455 0.08135826 -0.026929269 0.08721715
-0.034811217 -0.038032107 -0.019512724 -0.026248062 0.062793314 -0.030111976 0.11917142 0.07725731
0.0012952156 0.034669004 -0.054759793 -0.07614051 -0.07366 -0.035832956 0.06204277 -0.055174664
0.023962129 0.08342776 -0.030935233 0.076276585 0.079494014 0.029029327 0.043146428 -0.0416286

GNN2.Theta1 f4 [480, 96]
00000000: eafe c6bd fa46 513c acba 9a3d e868 b03d
00000010: 1504 b0bd 158e de3c 79be 783d f9d5 8c3d
00000020: 1d0c 20bb 8873 99bd aacd 613d 4229 b5bc
00000030: c113 19bc 426f 4e3b 99da babc 7365 1a3d
00000040: 3ab4 a23d 69d9 57bd 9b6b 3a3d a923 13bd
00000050: 5a85 b6bd b93b 273a 87ca ac3d 72db 313c
00000060: 6e2f 983d cc84 5dbd e85f 673d 65c2 65bd
00000070: 7635 2c3c c28a 7a3d ab30 3fbc b8c4 9f3d
00000080: c001 9a3d 83a6 b33d ed2c 613d de5b b53d
00000090: 75ba 263d 7ecb f03b 0f8e b83d 3bce e3bb
000000a0: c828 b53c 9f21 8dbd b0e0 d03c 37cd 063d
000000b0: 726d 173d 5af2 3b3d f03a 98bd 22cd a23c
000000c0: 14fb d6bc f534 883d 9e48 9c3d 69ec 5ebd
000000d0: 940c c73d 6ffc 5fbc 4b72 0ebd 469f 3f3d
000000e0: fe01 523d b41d 17bb 92f5 a4bd 5634 273d
000000f0: dcc6 4e3d 6c03 533d 08b0 0fbc 1cc2 67bd
00000100: 5568 a13d 55e7 313d d702 ccbc 5449 af3d
00000110: 822f 08bc b75f cebd 350f 35bb 44c7 49bd
00000120: aa25 163d 7c29 8abd 556b ba3d 855c 783c
00000130: 146f 6bbd 8c5f 82bd 3514 193d d69e 703d
00000140: b36a b0bd 8c57 68bd a8ae 83bd b412 a0bd
00000150: 8a2e 44bd bba5 20bd 17c4 b83c f7dd 36bd
00000160: 91a4 8f3c 18f8 90bd 3db4 6abd d94f 043d
00000170: 0fbb d3bd af5d 96bd 7e7c 6dbd bb29 08bd
00000180: d974 5c3d 46eb ae3d d385 2abc 474f 673d
00000190: e60a 123d 4ae9 c5bd 219a 6dbd 8006 763d
000001a0: efc8 223d 736c 063c 9e7d 28bd 513e ba3d
000001b0: 5114 183c 6f42 85bc 4e03 82bd 28e2 8abd
000001c0: ec9f 9abd db22 66b9 4ca0 723c 522b 1abd
000001d0: 6462 1ebc 878b 97bd 0501 95bd e8d2 173d
000001e0: 2894 0cbc ad19 80bd 8087 b5bd 110d b339
000001f0: 7b63 923c c606 28bd 1ae3 24bd ea26 3d3b
00000200: 893a 983d 31e3 8bbd 317c 18bc 3afe 3ebd
00000210: fbd6 29bd 04c4 5abd 11b4 823d b0bc 96bc
00000220: d3b7 80bc b013 593d 8dbe b5bd e1a9 af3d
00000230: af64 9cbd f8c7 ae3b cedb 613b 2594 573c
00000240: 864a 8abc 2bf2 b7bd ec74 d7bb fa5e acbd
00000250: 110b 9cbd e7b0 aa3d 25c6 203c f9e9 753d
00000260: a3d4 92bd 9fd5 9abc 6d52 793c c2c8 b6bd
00000270: 129c 73bd b34b a3bc 0fa1 903c f922 d23d
00000280: ab5a 873d 6647 cfbd fb7f 95bd 113d 793c
00000290: 99c2 0cbd e0fa 9b3d 3b85 3c3c 0f52 bcbc
000002a0: 81bd a6bd 1458 3e3d 0a0c ab3d 242e 193b
000002b0: 7869 34bd 9154 c83d 2127 b13d 3f1b 98bd
000002c0: d60d 2fbd a4f2 6bbd 3bc1 c83d 7200 143d
000002d0: 073a 9fbd d940 18bd 5388 90bc 7858 e0bc
000002e0: e023 863d 3266 9e3d 5c3d 4fbd 87c9 043c
000002f0: 6b8e a83d 6d47 ec3c 25e5 f63c 02a5 94bd
00000300: bc9c bbbc 467b 8a3d 06b4 863d ef1c b43d
00000310: d58a c03d 69e8 50bd 0daa 6a3d 4838 ab3b
00000320: fba3 54bd 4617 113d 5a9c bc3d 759a c3bc
00000330: 2e7a b13d 753c 74bd f8a2 b23d 59c2 683d
00000340: 41ef 85bd 40ab 0b3d 6a7f 803d 7361 6f3c
00000350: 4419 023d e0c1 c93c 94b0 59bd 89c5 aa3d
00000360: 2201 81bd 0700 663d d7bf f03c 9806 693c
00000370: 4563 88bd ccf2 de3d dcf2 67bc f137 493c
00000380: 9fda bd3d 1d1f 2a3d a092 dd3c c104 6e3c
00000390: ce37 5ebb 7d5a 8bbd 0922 81bd 567a afbd
000003a0: c0ed 1abd bb90 f9bc 0ebf 883d 87cb 953c
000003b0: e1d9 a23d 497c b53d c61c 703d 6b0f 883d
000003c0: ee0a 38bd 4ccb 98bd 41a3 193c 8b38 84bd
000003d0: ab8d 333d 4f11 3f3c e128 c03c e9e8 de3b
000003e0: fa4a e33a 8862 cebc 37f5 cebd bd1b 8dbc
000003f0: 2f4e 323d fe4e b13d bd33 a43b bb1f 853d
-0.0971659 0.01277327 0.07555136 0.08613759 -0.085945286 0.02716736 0.060728524 0.068767495
-0.0024421283 -0.07492739 0.055127777 -0.0221144 -0.009343089 0.003149942 -0.022809314 0.037694406
0.07944532 -0.052697573 0.045512777 -0.03592268 -0.089121535 0.0006379444 0.084370665 0.0108555425
0.074309215 -0.054081723 0.056487948 -0.056093592 0.010510793 0.061167486 -0.011669318 0.07801193
0.07519865 0.08771994 0.054974485 0.08855413 0.040705163 0.007348477 0.090114705 -0.006952075
0.022114173 -0.06891178 0.025497764 0.032910552 0.03696961 0.04588542 -0.074331164 0.019873206
-0.02624277 0.06650726 0.07631038 -0.054424677 0.09719196 -0.013671025 -0.034776967 0.046782754
0.05127143 -0.0023058476 -0.08054651 0.040821396 0.050482616 0.051516935 -0.008769996 -0.0565816
0.07881228 0.043433506 -0.024903698 0.08558908 -0.008312108 -0.1007685 -0.0027627472 -0.0492623
0.036657013 -0.06746194 0.09102503 0.015158777 -0.05747898 -0.0636588 0.037372787 0.058745228
-0.08614101 -0.056724116 -0.064297974 -0.07816067 -0.047895946 -0.039220553 0.02255444 -0.044645276
0.017534526 -0.0707857 -0.057300795 0.03230271 -0.10338413 -0.073420875 -0.057980053 -0.033242922
0.053822372 0.085409686 -0.010407883 0.05647209 0.035654925 -0.09663637 -0.058008317 0.060064793
0.039742406 0.008204567 -0.041135423 0.09093917 0.009282188 -0.01626703 -0.063482866 -0.06781417
-0.07550034 -0.00021947494 0.014808726 -0.03763897 -0.009667013 -0.073996596 -0.07275585 0.03706637
-0.008580245 -0.06254897 -0.08863735 0.00034151276 0.017869702 -0.041022085 -0.040255643 0.0028862306
0.0743304 -0.06830443 -0.009306953 -0.046629168 -0.041464787 -0.05340959 0.06382001 -0.01840052
-0.015712654 0.05299729 -0.08874235 0.08577324 -0.07636391 0.0053338967 0.003446329 0.013157879
-0.016881239 -0.08981737 -0.0065752175 -0.08416553 -0.07619298 0.08334523 0.009812866 0.060037587
-0.071694635 -0.01890069 0.015217406 -0.0892501 -0.059475012 -0.019933557 0.017654924 0.10260577
0.066090904 -0.1012104 -0.07299801 0.015212313 -0.03436527 0.0761621 0.011506374 -0.022988347
-0.08141614 0.046470717 0.08351906 0.002337345 -0.044045895 0.09781755 0.08650041 -0.07427072
-0.042737804 -0.057604447 0.09802481 0.036133237 -0.0777474 -0.03717122 -0.01764313 -0.027385935
0.06549811 0.07734336 -0.050595626 0.0081046885 0.08230289 0.028842652 0.030138562 -0.07258035
-0.022901885 0.06761794 0.065773055 0.08794581 0.0940148 -0.051002894 0.05729108 0.005225215
-0.051914196 0.035422586 0.09209509 -0.023877362 0.08665882 -0.05962797 0.0872249 0.05682597
-0.06539775 0.034098864 0.06274302 0.014610636 0.031762376 0.02462858 -0.053146914 0.08338458
-0.06299044 0.05615237 0.029388351 0.0142227635 -0.06659559 0.108861536 -0.014157023 0.012281404
0.09270214 0.04153358 0.027047455 0.014527501 -0.0033907774 -0.06804369 -0.0630532 -0.085682556
-0.037824392 -0.03046452 0.06677066 0.018285526 0.07951713 0.08861596 0.05862119 0.06643566
-0.0449323 -0.07460651 0.009377302 -0.06456097 0.043836277 0.0116618415 0.023456993 0.0068026674
0.001734107 -0.025193468 -0.10105365 -0.01722514 0.043531593 0.08657645 0.0050110505 0.06500193

GNN2.bias f4 [96]
00000000: 96c9 3fbb d0c3 4cbd 8740 0cbc f5d0 8cbb
00000010: 2e20 133c 41d0 0e3d df51 edbc aae1 14bc
00000020: d4c8 c73c d1b1 a6bd 98e8 34bd 65ed 863d
00000030: aaa6 15bd cc0e 933d 68b0 a0bc 362d 42bd
00000040: 7f87 96bc 8e29 983d 9a93 46bd 0ed7 953d
00000050: e817 94bd 36f8 823d cad0 18bd 68b7 813d
00000060: 91ea 6bbd 1f7e 653d 3112 8abd f5d2 7dbd
00000070: a1ab 7dbd b4f5 fa3c d5db 08bb 8539 25bd
00000080: faf8 8dbc 6bf2 febc 60fe 68bc 8e99 09bc
00000090: a17b 833d a16d 8d3c 9c36 88bc bc7f 963c
000000a0: eb82 a0bc ea4a 013d c8a7 0b3d bb02 193d
000000b0: a819 ab3c adb8 6a3c a0eb 53bd 68fb 15bc
000000c0: 6035 793d 2466 ebbb bc04 97bb c7d8 a83c
000000d0: 2c1a 303d 30c6 77bc 41a6 24bd 9991 bd3c
000000e0: f58c 9abd e281 5bba d673 65bd 73a5 2abd
000000f0: 7b3e b33d a79c 9b3c c2c0 8a3d deff ab3d
00000100: c557 64bd 3139 9ebd 741d 733c d2d8 b83d
00000110: 3a8c b13d 669c 5abc 65ff 6ebd c271 2abc
00000120: 1e5d 8c3d 62cf ebbc 57d4 2e3d 672a 1abd
00000130: 4177 8abd 8525 3e3d 4887 653c a50b 32bd
00000140: c94e 853d 8179 173d 936c fd3c 49d5 3dbd
00000150: 08f3 f53b 72c7 52bc 4b23 263d d1a0 07bd
00000160: 3aec 65bd 2f4a 0cbd 9bc1 083d fdaa 373d
00000170: 9fa5 5f3d ee44 64bd 0926 a7bb 63f1 963d
-0.0029264442 -0.04999143 -0.008560306 -0.0042973706 0.00897984 0.034866575 -0.028969703 -0.009087006
0.024387754 -0.081393845 -0.04416713 0.06588248 -0.036535896 0.07180557 -0.019615367 -0.047406398
-0.018375156 0.07429801 -0.048480608 0.07316409 -0.07231122 0.06394999 -0.03730849 0.0633381
-0.057596747 0.05602848 -0.06741751 -0.061968762 -0.061931256 0.030634739 -0.0020882983 -0.040338058
-0.017330635 -0.031121453 -0.014220804 -0.008398427 0.06420065 0.01726419 -0.016627602 0.018371455
-0.019593677 0.031565584 0.034095556 0.03735612 0.020886257 0.014326257 -0.05173838 -0.009154178
0.060841918 -0.007183807 -0.0046087187 0.02061118 0.04299371 -0.015122935 -0.040197615 0.023140715
-0.07546417 -0.0008373541 -0.056018673 -0.04166169 0.087521516 0.018995596 0.06775047 0.08398412
-0.055747766 -0.07725752 0.014838565 0.0902573 0.08669324 -0.013342952 -0.058349032 -0.010403099
0.06853698 -0.028785411 0.04268297 -0.037638094 -0.06761027 0.0464225 0.014009304 -0.043468136
0.06509168 0.03698111 0.030935561 -0.046345983 0.007505778 -0.012864934 0.040561 -0.03311235
-0.056133486 -0.034250434 0.03338776 0.0448408 0.054601308 -0.0557298 -0.0051009697 0.073702596

GNN3.Theta1 f4 [480, 2]
00000000: 715c 88be c6ce f43e 572b bebe 47b7 e7be
00000010: 24d0 f23d b983 1c3f 1166 a13e 5237 993e
00000020: 9eef 8f3d a4d0 143f 2fb5 2ebd 2e6b febe
00000030: e6ce c9be c830 d53d 8af1 9dbe c342 01bf
00000040: 0d3b 0bbf 09ee fabe 3763 1cbe b4c3 473e
00000050: 4ec4 c3be ca32 993c 3d1a ee3e 8ffe 8f3e
00000060: c008 1f3f 6a0b 9d3e 68a1 c63d f329 3a3e
00000070: 9270 0fbf 85a9 c4bd 20d6 b13d 8e7f b43d
00000080: c678 2f3d dd2f 5cbe 8b5a 9cbe d5a2 60be
00000090: 20f3 d33e ec74 26bf 5dde ce3d 6cd0 d53e
000000a0: 368f 1b3f f015 343d 182c 1ebf 504f 9fbe
000000b0: c78f 5b3d 3394 fd3e 8e47 12bf 22e9 a3be
000000c0: 85f1 05bf c838 a0be 79ad d5be b9d3 b3be
000000d0: 8e2a f03e dace e7be acbf 1bbf 2d1c 983e
000000e0: 0a5e c3be 5bf4 e93e 77ec adbe 0a49 cb3e
000000f0: c2da c63e c5da e2bd e065 083f 5fb3 72be
00000100: e454 01bf 1656 93be 1357 753e 2e2f d73e
00000110: 2eab b33e f564 aa3e 785d 5a3e 2fcc cebe
00000120: 6120 0b3e 4955 5a3e 7192 233f 3390 293f
00000130: 34d1 0abf 9e0e c6bd 9f6e 09be 0f2b 5dbe
00000140: 32d9 9b3e 68c6 bd3e ac53 bbbe 004d 1d3f
00000150: 6d4b 63be 7f8b 25be d7a7 10bf c677 a6be
00000160: ab12 163e 6258 32be 82d5 ccbe 332a 6a3e
00000170: 37c4 043e 0fec cf3e e80a 613e d168 80be
00000180: 7f29 ff3e 5e89 d23e f84b 36bd 886e 383e
00000190: a01e 103f 8cdf 9f3e 739b 02bf 2b3d 023e
000001a0: 64c3 a83e 5ff9 eb3c 5c5f 173e 145e 1cbf
000001b0: 5990 143e 9ead 19bf 36a9 10bf 6526 08bf
000001c0: 0f07 c3bd 233b 91be 7fef c9be 7043 57bc
000001d0: 0e54 a93e 0559 acbd 85c3 cf3e 22f2 95bd
000001e0: 7d35 d23e 24f2 cabe f5bc c0be 6203 f3be
000001f0: 787b d13e 7bcd 6d3e e439 223f 08bc 283d
00000200: 5dc0 df3e a9af 0bbf 399b 733e fc9b 9e3e
00000210: 99c0 3dbe a2f3 da3e a506 b9be 902b b7be
00000220: c82a 313e 8ef8 2bbe 662a f03e f6cc 86be
00000230: 952d 5f3e 3701 9d3d f3a3 eabe 0902 163f
00000240: 0730 da3e 087f 0c3f bd5c d7bd 1e23 1dbf
00000250: c1e7 183f 4520 0cbf a9ff 873e cc74 263f
00000260: 208b 0d3e 6810 f8bc fc20 0abf a9af 35bf
00000270: c958 ce3d c6fa e73e 6009 0ebf 1769 753e
00000280: 2097 ed3e 8466 fd3a 1eea 133f a29a 24be
00000290: c6f8 943d b698 e3be 7c95 33bf 19c8 2f3f
000002a0: 3b73 12bf a458 b0be 41d9 f63e 1f8e ccbd
000002b0: 7fda 04bf 6901 dbbe a4c4 743e 23d8 d03d
000002c0: ce9b ab3e d1b7 ca3e 0d90 88be c3a8 f1bd
000002d0: ac66 ab3d 026f fa3e 6f11 01bd 89d9 9ebd
000002e0: f872 1abf 21c4 c43c 4170 24bf 3fe9 d23e
000002f0: d698 9c3d 17ef 183f 9997 a0be 2c50 c1be
00000300: f586 b23c 441f 513e 5deb 2ebf 0598 8ebe
00000310: f5d7 083f 09e0 fcbe 28b8 1c3f adc5 273f
00000320: e914 093f e983 f03c 0fa5 af3e 39d6 dabe
00000330: b885 11bf 3126 833d 1f03 a2be 7278 17bf
00000340: b497 013e 9418 343e eac8 ecbe 7692 83be
00000350: 8d91 45be eccb b8bd f838 e0be 674e 66bd
00000360: b3f8 dfbe 66b9 05bf 913a f73e a447 923e
00000370: 00d2 e43d 8aea 7fbe 5d67 fbbe 21a9 12bf
00000380: ccc2 b73e e02b 0b3f 66ca dd3e 994c 05bf
00000390: 6f57 333e 4a33 37be c01a 153f b112 3d3c
000003a0: abbd de3e ade5 113f 135e 2abf 0c61 113f
000003b0: 8fc4 133f 3e2d ecbe a93b 433e 5698 1cbf
000003c0: 3f07 343d e2b5 0f3f 3ef5 a1be 1660 12bc
000003d0: 53bd e63e 4316 103f 9db4 03bf 6e8c 8f3e
000003e0: fb4e cfbe 4881 6dbd da8a 2d3f c5ed bebe
000003f0: ccb8 383e 592b 933e 5ae1 fabe 073a 283f
-0.26633027 0.47814006 -0.3714244 -0.45257017 0.11856106 0.6113849 0.31523183 0.2992502
0.07028125 0.5813086 -0.04265326 -0.49691147 -0.39415663 0.10409695 -0.30848342 -0.50492495
-0.5438698 -0.4900973 -0.15272222 0.19508249 -0.38235706 0.018700976 0.46504393 0.281239
0.62122726 0.3067277 0.096987545 0.18180065 -0.56031144 -0.09602646 0.08683419 0.088133916
0.042839788 -0.21502633 -0.3053783 -0.21937115 0.41396427 -0.6502216 0.10101006 0.41760576
0.607654 0.043966234 -0.6178603 -0.31115198 0.053603914 0.4952713 -0.57140434 -0.32013804
-0.52321655 -0.3129332 -0.41733912 -0.3512247 0.46907467 -0.45275003 -0.60839343 0.29708996
-0.38157684 0.4569424 -0.3396947 0.39704162 0.38838774 -0.11076883 0.5328045 -0.23701237
-0.5052016 -0.28776616 0.23958997 0.42028183 0.35091537 0.3328015 0.21324718 -0.40390155
0.1358657 0.21321596 0.63895327 0.66235656 -0.5422547 -0.09670757 -0.13421105 -0.21598457
0.30439144 0.37065434 -0.36587274 0.6144562 -0.22196741 -0.16166495 -0.56506103 -0.32513255
0.14655559 -0.17416528 -0.40006644 0.2286766 0.12965475 0.40609786 0.21976817 -0.2507997
0.49836347 0.41120428 -0.044506043 0.18010914 0.5629673 0.3122524 -0.51018447 0.12718646
0.3296157 0.028805433 0.1478247 -0.6108105 0.1450819 -0.60030544 -0.56508195 -0.53183585
-0.09522831 -0.2836543 -0.39440534 -0.013138637 0.3307194 -0.08415417 0.40578857 -0.07321574
0.41056433 -0.39637864 -0.37644163 -0.47463518 0.40914512 0.23222916 0.63369584 0.041194946
0.4370145 -0.5456491 0.23789681 0.30978382 -0.18530501 0.42764002 -0.36137882 -0.35775423
0.17301476 -0.16794035 0.46907347 -0.26328248 0.21794732 0.07666247 -0.45828208 0.58596855
0.42614767 0.54881334 -0.10515735 -0.6138171 0.5972863 -0.5473674 0.2656224 0.6502197
0.13822603 -0.03028126 -0.5395658 -0.7097116 0.10075528 0.45308512 -0.55483055 0.2396587
0.46404362 0.001933292 0.5777911 -0.16074613 0.07274012 -0.44452447 -0.7014997 0.686647
-0.5720708 -0.34442627 0.48212627 -0.09988045 -0.518959 -0.42774513 0.23903137 0.10197475
0.33517307 0.39593366 -0.26672402 -0.11799767 0.083691925 0.48912817 -0.031510767 -0.07756335
-0.6033168 0.024019303 -0.64233786 0.41193578 0.07646339 0.5973982 -0.3136566 -0.3775648
0.021792868 0.20422083 -0.68327886 -0.27850357 0.53454524 -0.49389675 0.612185 0.65536004
0.5354753 0.029359775 0.34305617 -0.42741564 -0.56844664 0.06403769 -0.31643006 -0.5916816
0.12655526 0.17587501 -0.46247035 -0.25697678 -0.19293804 -0.0902327 -0.43793464 -0.056227114
-0.4374443 -0.5223602 0.4828687 0.28570282 0.11172867 -0.24991813 -0.49102297 -0.5728932
0.35890806 0.5436382 0.4331848 -0.52070004 0.17513822 -0.17890659 0.5824394 0.011540101
0.4350408 0.5699108 -0.66549796 0.56788707 0.577218 -0.46128267 0.19065727 -0.61169946
0.043952223 0.56136906 -0.31632417 -0.0089340415 0.45066318 0.5628397 -0.5144747 0.28036827
-0.40489945 -0.05798462 0.67789996 -0.3729078 0.18039244 0.2874401 -0.49000055 0.6571354

GNN3.bias f4 [2]
00000000: 2cae afbe de74 0a3f
-0.3431257 0.54084575
