trained_models/iS_GNN_Trained_ep100_bs64_lr5em04_z96_k1_kNN_8_ramps_30.pth (torch, 134807 bytes, 6 tensors)

GNN1.Theta1 f4 [48, 96]
00000000: b009 a23c 3acf e03c 4fb3 d6ba 8c63 893d
00000010: c3f7 6bbb d64b e13b 8cb2 19bd f4d1 1f3d
00000020: 5236 7f3d 67a4 aabc d4d8 6f3d 6857 9b3c
00000030: e672 9d3d de18 263d 3508 1a3d 0ea3 613c
00000040: 3119 213d 2c17 e53c f95c 9abc f5db 123c
00000050: fc74 39bb 773a eb3c e5ab bbbc f11b fe3c
00000060: 2d80 27bd 7775 48bc ceac c9bc 527c 6338
00000070: a697 073d 4dbc 5abd 2db3 853d 0a45 acbc
00000080: 3c93 2c3d bb0c 263c 9396 8dbd ed37 033d
00000090: 6d45 843d 602c 683d 6b58 1a3c feb5 a1bc
000000a0: f47b e03c 6e51 6cbc 259f 973c 45c8 293d
000000b0: 50df eb3c c065 a2bc 08aa c63c 5a21 2f3d
000000c0: 9e14 a13c 57ca c4bc ed4e 68bd 7dff babc
000000d0: 47f2 89bd 84e0 7a3d 311e 6b3c 9549 053d
000000e0: 31c2 c03c 6653 a1bc ba56 0b3d 06aa 93bb
000000f0: ab27 0cbc 47d3 debc 818d 8a3c 06ba b23b
00000100: 3658 ba3a 5dff 16bb d953 373d 2535 bcbc
00000110: e762 61bd 4452 c1bc 3734 613d f2c9 223d
00000120: fece ba3c 1dd4 3ebd d735 27bd 667b 64bd
00000130: a3b9 1ebd 1a06 093d 154f 8d3c 81f3 713d
00000140: c1b8 1bbc 2370 96bd b4ca 453b 87b9 5abb
00000150: 758a f23c ba00 debc e06a c43c 65be fcbc
00000160: f96e 52bd 51a6 2b3c 5573 8c3c a94c 91bb
00000170: 4578 5b3d 5f7c 5e3d d134 a9bc 03b4 f9bc
00000180: d6c2 013d 735e 82bd 203c 8abc 5ba2 a3bd
00000190: 90e3 87bc 6f82 50bb c33c b53b 65ac 45bd
000001a0: 4a64 1f3d 5202 ecbb afa6 e2bd 1693 9ebd
000001b0: f549 7bbd 8c2a 11bc 4722 c63d e93e 323d
000001c0: 7a48 1d3c c05e a4bd 9744 14bd 4562 febc
000001d0: e5bf 043d d59e 2ebd 8944 21bd 6a74 c9bd
000001e0: dd5d a63c 59d0 debc e08c 8abb a7ab 49bd
000001f0: 4cf9 dabb e2c2 18bd 873f 38bd 045f 3fbd
00000200: 65ae 9e3d 1ade 39bd 3230 403d 3d8b b63a
00000210: 8929 afbc 19ef 923d fe60 f5bb 8754 34bd
00000220: 145d c3bd 052f 94bd 8549 25bb a10a 84bc
00000230: d204 0e3d 6fc5 a9bc 23f8 b23d 2c93 04bd
00000240: 4180 05bd 48bc 543d 7597 873d 0bea ac3d
00000250: 81b8 bc3d 53a5 10bd 8d8f 263d a767 61bd
00000260: 3f79 013b c252 9abd f003 8d3d dd91 acbc
00000270: 77ed 153d d7fa 333d 516e 123d 8dd2 2f3a
00000280: f548 4c3d 450a 083d 7771 15bc cfea 7bbd
00000290: f2cc 613c 57ae 3a3c 4c57 a4bd 506b c93d
000002a0: 8bd7 c6bc 050e 53bd a86f aabc 7aa9 a53c
000002b0: b46a 803d 40dc c53c a594 acbd 2157 d8bc
000002c0: c37c 8fbd 4ed9 eb3c 7ea7 043d fbcd 23bd
000002d0: b39f 013d 0dff c83c a969 583c 397a 153d
000002e0: c27e 523d 8dfc 203d b335 393d d956 603c
000002f0: 3775 18ba bd6c 19bc d5a8 fb3c 8535 10bd
00000300: 3309 633b ea97 6f3d eecd 163c dff3 82bb
00000310: f08e 313d 216c 0ebd 3b56 323d 5bee 5e3d
00000320: 4b1b 66bd 4291 cb3c 7a6a 7d3d 60cf 973c
00000330: 7e98 bb3c 1c2f b1bb 5bb0 8abd af97 89bd
00000340: 80c5 61bd 5c57 4a3d ae6c c43d d1f7 4c3d
00000350: 5c13 97bd c6ae 68bc 5f78 3cbc 2ec2 7b3d
00000360: ac7f 0e3d 8d39 80bc 2d9a 383d 873b 9bbc
00000370: 3b27 30bb 7820 c63d 073d 67bd c91e 5b3c
00000380: f783 e0bd b0e2 303d ca3a 153d da70 de3b
00000390: 9396 c8bb bb02 ccbd 472d 7fbd e4d3 913d
000003a0: 08fd 1c3d 4683 eb3d b220 b23c 591a 033d
000003b0: 04a4 c6bb 95f2 6ebc 014d 9bbd 9eb9 58bd
000003c0: efa1 db3c 99a8 9fbc 4121 e6bb 7140 68bd
000003d0: 8d1e 9fbc 54ce d6bc 51ce 53bd da27 ba3c
000003e0: 3bad 8cbc e42a 833d f2dc 68bd d53f acbc
000003f0: e741 13bd c595 29bd 3da0 eabc 6237 29bd
0.01978001 0.027442563 -0.0016380342 0.0670844 -0.0036005832 0.0068754954 -0.03752379 0.039018586
0.062307663 -0.020830346 0.058556393 0.018962577 0.07687931 0.04055106 0.037605483 0.013771785
0.039330665 0.02796515 -0.018843161 0.008963575 -0.0028298488 0.028714402 -0.022909114 0.031019183
-0.040893722 -0.012235037 -0.024618533 5.42368e-05 0.033103608 -0.053402234 0.06528316 -0.021029014
0.0421326 0.010134871 -0.069134854 0.032035757 0.064585544 0.056682944 0.009420495 -0.019740101
0.027402855 -0.014423711 0.018508503 0.041450758 0.028793007 -0.019823909 0.024251 0.042756416
0.019663151 -0.024022264 -0.056715894 -0.022826904 -0.06735664 0.06124927 0.01435046 0.032540876
0.023530098 -0.019693088 0.034018256 -0.0045063524 -0.008554379 -0.027200354 0.016913177 0.0054543046
0.0014216963 -0.0023040392 0.044757698 -0.02297456 -0.05502596 -0.023598798 0.054981437 0.03974337
0.02280378 -0.046589006 -0.04082283 -0.055781744 -0.038751256 0.033453085 0.017249623 0.059070114
-0.009504498 -0.07345607 0.0030180635 -0.0033374743 0.029607037 -0.027099956 0.023976743 -0.030852506
-0.051375363 0.010476665 0.017144838 -0.0044341874 0.053581495 0.05431783 -0.020655068 -0.030481344
0.03167995 -0.06365671 -0.016874373 -0.07989951 -0.016588002 -0.0031816026 0.005530925 -0.04826011
0.038914002 -0.007202425 -0.110669486 -0.07742898 -0.061349828 -0.008860242 0.09674507 0.043517027
0.009599799 -0.08025885 -0.036198225 -0.031052718 0.032409567 -0.042631943 -0.039372 -0.09836657
0.02030843 -0.027198957 -0.0042282194 -0.049235966 -0.0066825505 -0.03729523 -0.04498246 -0.046721473
0.07748107 -0.04537783 0.046920963 0.0013926994 -0.02138211 0.071745105 -0.007488369 -0.044025924
-0.095392376 -0.07235531 -0.0025220823 -0.01611835 0.034672566 -0.020724026 0.087387346 -0.032366917
-0.032593016 0.05193737 0.06620685 0.08443078 0.09214879 -0.035313915 0.040664244 -0.05503049
0.0019756106 -0.07535316 0.06885517 -0.021065647 0.036603417 0.04394039 0.035749737 0.0006707095
0.049874265 0.03321292 -0.00912129 -0.061503228 0.013781773 0.011394105 -0.08024463 0.09834921
-0.0242727 -0.051527042 -0.020805195 0.020222414 0.06270352 0.024152875 -0.08426789 -0.026408734
-0.07006218 0.028790142 0.032386295 -0.03999136 0.03164644 0.02453568 0.013208785 0.036493514
0.051390417 0.03930335 0.045217227 0.013692581 -0.0005815806 -0.009364304 0.030720154 -0.03520729
0.0034642934 0.058494486 0.009204371 -0.003996357 0.043349206 -0.03477109 0.043539267 0.054426532
-0.056178372 0.024849538 0.061869122 0.018531501 0.022899862 -0.005407227 -0.067719184 -0.067183845
-0.05511999 0.04939972 0.095910415 0.050041024 -0.073767394 -0.0142018255 -0.011503308 0.06146448
0.034789726 -0.015652442 0.04506891 -0.018949283 -0.0026878852 0.09674162 -0.056454685 0.013374039
-0.1096267 0.043184936 0.03643302 0.0067883553 -0.0061214655 -0.09961458 -0.06229904 0.07120493
0.038327247 0.11499648 0.021744106 0.03200755 -0.0060620327 -0.014584203 -0.07583047 -0.052911393
0.026810614 -0.019489573 -0.007023007 -0.05670208 -0.019423747 -0.026221432 -0.05171043 0.02272408
-0.017172446 0.06404665 -0.056851335 -0.021026531 -0.03595152 -0.041402597 -0.02864086 -0.041312583

GNN1.bias f4 [96]
00000000: 6f35 813c d9ce 21bd d19c eb3c f065 7abd
00000010: 578a c3bc 575e a83c 6a87 893d 1c72 263c
00000020: 077f 45bd 9e9e 89bd 7c9e 81bc c0d5 0cbd
00000030: e1d6 af3d 74f4 38bd 272b 303d 8ff9 ca3b
00000040: 186c c2bc a37c 823d 3b4f a23b 4c60 afbb
00000050: 2ad9 29bd e85a a9bc 93dc ca3c 7df0 773d
00000060: 285a 08bd 526b bfbc 9808 85bd 9e93 853d
00000070: 29a1 7e3d 0775 253d 8e07 08bd 15f7 193d
00000080: 60ed 98bc a165 4c3d 6e23 953d e535 b6bd
00000090: 29ee 043d b6de 0b3d 7b69 80bd 5175 ce3d
000000a0: ae28 4d3d aeb4 4d3d 34a9 b73a f8b5 48bd
000000b0: 5675 9fbc 347d 543d 0b64 99bc 0b91 893d
000000c0: cf6c 7f3d 49ae f53b 82bd 8ebd d51d 6b3d
000000d0: 1a2a b03d 5d33 4ebc db89 09bd 0800 d8bb
000000e0: b010 feba e4da 72bd 4bee 563d 104c 6a3d
000000f0: 746f 2dbd b442 00bd ed67 babc 6f33 9a3d
00000100: c4f6 e03c cbb8 bd3c bf87 91bb 13ef 5e3c
00000110: 73e2 f83d 13a3 cf3c 4414 3bbd 992d 853d
00000120: a5a5 3ebd dda2 873c 1c01 25bd d242 afba
00000130: c9c5 8b3b 7d54 d9bc acf1 7d3d 76b6 963d
00000140: 3afd 3bbd b068 d73c 878c 71bd 9b32 4ebc
00000150: 8802 333d 924a e1bb 4c96 703c 20ef 1bbd
00000160: 3f78 a53d aeaf c4bc f7d9 003d ced2 e03c
00000170: d45a b03d 6302 f639 fd76 873d 4918 3d3d
0.01577255 -0.039503906 0.0287613 -0.06113237 -0.023869677 0.020552797 0.06715281 0.010159042
-0.048216846 -0.06719707 -0.015822642 -0.034383535 0.08585907 -0.045155004 0.043009903 0.0061943005
-0.023733184 0.06371429 0.0049532927 -0.0053520557 -0.04146687 -0.02067323 0.024763381 0.060532082
-0.033289105 -0.023366604 -0.0649578 0.06522296 0.062165413 0.04039481 -0.03321033 0.03758915
-0.018667877 0.04990161 0.07282148 -0.08896998 0.03245369 0.03414794 -0.06270119 0.1008097
0.050087623 0.050221138 0.0014012218 -0.049001664 -0.01946513 0.051877216 -0.018724462 0.06717118
0.062359627 0.007497583 -0.069697395 0.057401497 0.0860178 -0.012585488 -0.033578735 -0.0065918006
-0.0019383635 -0.05929078 0.052473348 0.057201445 -0.042342618 -0.031313613 -0.022754634 0.075293414
0.027461417 0.023159405 -0.004441231 0.013606804 0.12152567 0.025346315 -0.045673624 0.06502838
-0.04654469 0.016557151 -0.04028426 -0.0013371354 0.004265521 -0.026529545 0.061998054 0.073590204
-0.045895793 0.026295036 -0.058971908 -0.0125853075 0.043703586 -0.0068753446 0.014684271 -0.038069844
0.08079576 -0.024009552 0.031457867 0.02744427 0.08611074 0.00046922555 0.06614492 0.04616574

GNN2.Theta1 f4 [288, 96]
00000000: fee3 423d 5914 b9bb 0af8 e43c c76c a53d
00000010: 4c4b 03bd f107 04bd a05a cd3d 2319 073d
00000020: 222d a6bd 81ac 103d b662 c8bd 15a8 6fbd
00000030: dafc 263d 718e 363d 86ff dabc a42e a73d
00000040: 12c4 963d 88e5 693d 8e96 66bd b1aa b5bc
00000050: 15b9 403c 8a7f 853d 8b6f 0bbd ae18 603c
00000060: a5a8 1c3d bf83 1abd 485f 1abd 3748 cc3d
00000070: f87e cdbb 1b15 913d b4be e0bd 01c2 26bd
00000080: 1eb0 4d3d 10c8 9abb 8ee6 e23c 607c a7bd
00000090: 5549 b73d 9d9d 52bd 7ac1 463c bb86 81bd
000000a0: 8d1e 74bd 6070 afbd 2bf0 d0bd 452c 1d3c
000000b0: e4d3 34bd 7376 6b3d 8c56 62bc c715 943d
000000c0: d2cb 2fbc af34 d13c 56f7 b83d 753c c9bd
000000d0: 38e9 1dbd 715b 943d 4f56 46bd f5ae 6bbd
000000e0: 1763 8abb a896 24bd cea6 cd3c d4e6 49bd
000000f0: 3d18 c83c 8c0d 25bd 4881 22bd b5de 0bbd
00000100: badd 253c b19f 633d 12e4 afbd d869 6dbd
00000110: 71c9 c8bd 9a92 143d 38b2 7d3d 8781 cdbd
00000120: 77ba 7c3c 71d0 053d 7852 3cbd bb53 bd3c
00000130: 4045 6a3d 14f2 bb3d b48e 213d bab8 adbc
00000140: 713d 92bd 61b6 82bc 4610 253c 7fd2 9b3c
00000150: 894f a73d 7550 cbbd 0856 383c 51bc 2bbd
00000160: ca24 4f3c 44d7 bb3d 773b 193c 2d3a f5bb
00000170: a04d d6bc 724d c8bd abaa a9bd d186 183d
00000180: 1232 92bd 8981 3c3d caad dfbc b1c1 9e3c
00000190: 9b2f a83d dcba 953c 61b9 633d 1f8b af3d
000001a0: 753b 85bc 621b a03d 0d16 b4bd 5679 b83d
000001b0: af84 11bd 3978 24bc 70cf 513d 3583 7cbb
000001c0: 1fc1 783d ef82 94bd 5bf2 05bd afe2 d33d
000001d0: 4e6b 84bd f475 493d a1a0 a03d d917 693d
000001e0: 7401 50bd d04f 423c f939 88bd 551d 7fbd
000001f0: a885 9bbc f741 94bd c2ab 363d d238 4a3d
00000200: 57a9 4dbd 8b9d a9bb 0371 b83d 180f 923b
00000210: c037 903d 985c c03d 3daa a4bc 805f d3bd
00000220: 5896 9b3d ebf4 49bd 535c b43d 32a3 0dbd
00000230: 019d 8d3c bb23 713c a3ba ebbc d5e6 9f3d
00000240: f6e0 a2bd 1517 06bd d6de 91bc 6ef1 773d
00000250: f44e 4d3d 7860 513d 09b9 9a3c 4309 733d
00000260: a7c1 0ebd f2ee b4bc 55ad 853b 2903 f63c
00000270: a37d 2bbd 7b15 723c 0238 ad3c 4bdd d53c
00000280: 922f 8c3d f67f c73c f02a 9b3d 1cfe 6ebc
00000290: e32a b9bd 8c18 553d 6047 ec3c c705 b33d
000002a0: 5780 b33c 9bc6 403c 05e0 7abd dcc7 babd
000002b0: 3da2 033b 4669 a23d 82d6 39bc 367b 16bd
000002c0: 3477 0e3d 7160 f1bc 52f8 3f3d 9c23 5dbd
000002d0: 8098 b6bd ecf6 8abd d290 abbc 4306 ee3c
000002e0: 2a55 653d 9978 87bd 641c 8cbc 960e 553d
000002f0: 6a58 34bc 703a 0c39 0574 9e3d 2f25 05bd
00000300: ac6c 323d 8e6b 913d 340b 123d 60b9 11bd
00000310: c97f 69bd 6b4c 83bd a746 3d3a e173 003d
00000320: 7bb1 923d e78c ecba e725 a43d ac6e 33bd
00000330: e2f0 953c ea68 6fbd be3f af3c 7228 9b3d
00000340: 8b8a ed3b ea8b aabc 3a8a 65bc 3b34 92bd
00000350: 844a 95bd f369 debd 28c0 573d 384b 60bd
00000360: 2102 e1bc 9aed 9fbd a170 44bb e40b a43d
00000370: 363f ab3c ddeb bdbc 4962 1f3d 4ebb 983d
00000380: ff46 6f3d 2562 84bd 0a6d 9dba f9a3 95bd
00000390: 546f b1bd 193f 9f3d e460 86bd 8b7e 64bd
000003a0: 376f f33c f6c6 d63d 3d92 debd e283 10bd
000003b0: 06f2 28bd 3243 823d 0283 603d c66c 7e3d
000003c0: 2692 a03d f2fe 81bc 4b8e 963d 1cf5 a7bc
000003d0: d4de 4b3c 4c65 2abd c183 953c a6dd 563c
000003e0: c3ea a5bc 4b4e cb3d 949c 08bc 27ba 803c
000003f0: f365 a53d c683 0e3d d13b 34bd 21bb 34bd
0.04758071 -0.0056481776 0.027950305 0.08077388 -0.03205423 -0.032234136 0.10027051 0.032982957
-0.08114077 0.035320763 -0.097844526 -0.058509905 0.04076848 0.044569436 -0.026733171 0.08163193
0.07361616 0.057103664 -0.056295924 -0.022176119 0.011762877 0.06518467 -0.034041923 0.013677759
0.03824677 -0.0377233 -0.037688524 0.099747114 -0.0062712394 0.07084104 -0.10973874 -0.04071236
0.050216787 -0.0047235563 0.027697828 -0.081780195 0.08949534 -0.051419843 0.012131089 -0.06324526
-0.059599448 -0.08566356 -0.102020584 0.009593074 -0.044147387 0.05748601 -0.01381458 0.07230716
-0.010729747 0.025537817 0.090315506 -0.098259844 -0.038552493 0.072440036 -0.048422154 -0.0575399
-0.004223238 -0.04018274 0.025103953 -0.0492924 0.02442562 -0.040296122 -0.039674073 -0.034147937
0.0101236645 0.055572215 -0.08588423 -0.05796227 -0.09804047 0.036272623 0.06193754 -0.10034471
0.015425316 0.03266949 -0.045977086 0.023111215 0.05719495 0.09177032 0.039442733 -0.021206249
-0.07140625 -0.015956106 0.010074681 0.01902127 0.08169467 -0.09927455 0.01125098 -0.04192764
0.012643049 0.09171918 0.009352556 -0.0074837417 -0.026160061 -0.097803965 -0.082845055 0.037237946
-0.071384564 0.04602197 -0.027304549 0.019379469 0.08212205 0.018277578 0.055596713 0.08571457
-0.016263703 0.07817723 -0.08793268 0.09007518 -0.035526928 -0.010038429 0.05122322 -0.0038530354
0.06073105 -0.07251536 -0.03270183 0.10345971 -0.06465779 0.049184754 0.078431375 0.05690751
-0.050782636 0.011859849 -0.066516824 -0.062283833 -0.01898463 -0.07239144 0.044597395 0.049370594
-0.050210323 -0.0051762513 0.0900593 0.0044573657 0.070418835 0.09392661 -0.020100707 -0.103209496
0.07597035 -0.049305838 0.08806672 -0.034579463 0.01728678 0.014717991 -0.028775519 0.078076996
-0.07953064 -0.032736856 -0.017806452 0.06053298 0.050124124 0.05111739 0.01888706 0.059335005
-0.03485265 -0.022086594 0.0040795007 0.030030804 -0.041867863 0.014775629 0.02114487 0.026106497
0.06845011 0.024353009 0.07576549 -0.014586952 -0.09041383 0.052025363 0.028842628 0.08741336
0.021911783 0.011766101 -0.061248798 -0.091201514 0.0020085715 0.079302356 -0.011342647 -0.036738597
0.03478165 -0.029464932 0.046867676 -0.053989038 -0.08915806 -0.06785378 -0.02094308 0.02905572
0.055989422 -0.06614799 -0.017103381 0.052015863 -0.011007408 0.0001337321 0.07736973 -0.032506164
0.04356067 0.071005926 0.035655215 -0.035577178 -0.05700663 -0.0641106 0.0007220306 0.03136051
0.07162758 -0.0018047363 0.08015042 -0.043806717 0.018303338 -0.058449663 0.0213927 0.07576074
0.0072491816 -0.02081867 -0.014010007 -0.071388684 -0.07289603 -0.10860052 0.05267349 -0.054759234
-0.027466835 -0.07808991 -0.0029974359 0.080100805 0.020904165 -0.023183757 0.03891209 0.074576005
0.058417317 -0.06464032 -0.0012010646 -0.07306666 -0.08663812 0.07775707 -0.06561449 -0.055784743
0.029716117 0.104871675 -0.108677365 -0.035282023 -0.041246437 0.06360473 0.05481244 0.062115453
0.078403756 -0.015868638 0.07351359 -0.02050262 0.012443263 -0.04160051 0.018251302 0.013114369
-0.020253545 0.099270426 -0.008338112 0.015713764 0.08076086 0.034793638 -0.044002358 -0.044123773

GNN2.bias f4 [96]
00000000: 0d22 e2bc 5caa 89bc 4bf3 45bc 3b21 313d
00000010: 5e28 3c3c be9c b13c ae73 b23b 44e4 03bb
00000020: a161 9bbb ab1e 96bc edff 853c 0e96 873c
00000030: 0b44 efbc 1939 063c e6b9 473d 65b0 cdbc
00000040: ee97 3cbd 5da2 23ba 66aa 3bbd c835 583c
00000050: 4f5f cd3c 78ab b9bb 84df 0d3d 4d37 ea3b
00000060: 8a26 a63c 56ae 753b c3f8 f2b9 a537 3fbd
00000070: 5ceb 9dbc 373c 913c 4f83 4bba b1f0 28bd
00000080: 4583 3dba 5355 f3bb 19e1 033d 8cb3 b3ba
00000090: 7da2 b3bc 19d4 81bc 2f03 603c ec71 6abc
000000a0: 4453 debb 0245 e7bc cc21 bebc e7f7 83bc
000000b0: 25db 073d abd0 18ba c480 693c c838 40bc
000000c0: be31 94bb e3f5 153d af82 2abc aadb c03c
000000d0: c788 653d c4af 43bd 95c5 6d3c aabd fdbc
000000e0: ce93 093d 7034 8cbc a964 f73b a702 45bd
000000f0: 0267 563c bfba d3ba 660a 67bc f9fc 2abd
00000100: f7ff 12bc e163 1fbc 7fee 2f3b 1a75 1c3d
00000110: e361 1d3d 0fc7 af3b 7c36 0b3d ed3a fd3c
00000120: a875 bebc 3e07 c9bc 94b2 43bc 53f9 cabb
00000130: d565 9fbb 68fc 36bc 3cda 09bc 18f3 11bd
00000140: 1bf9 e3ba 591a 123d d119 f43c a1a3 803b
00000150: 08e7 ddbc 9224 ea3c d990 3f3d 5da4 493d
00000160: 0e61 71bc c309 3abd 8069 09bc ab5e 92bc
00000170: 6531 203a bf55 c73c 626f c1bc d38d 063d
-0.027604127 -0.016804866 -0.012081931 0.04324458 0.011484234 0.021681186 0.005445919 -0.002012507
-0.004741863 -0.01832517 0.016357386 0.016551044 -0.02920725 0.008192324 0.04876127 -0.025108526
-0.04604333 -0.00062421506 -0.0458168 0.013196416 0.02506986 -0.0056661926 0.03463699 0.0071477056
0.020282049 0.0037487946 -0.0004634318 -0.046683926 -0.019277267 0.017728908 -0.0007763402 -0.041245166
-0.00072293385 -0.007425943 0.03219709 -0.0013710125 -0.021928066 -0.015848206 0.013672634 -0.014309388
-0.0067848284 -0.028231148 -0.023209475 -0.01610942 0.033167977 -0.0005829434 0.0142518915 -0.011732288
-0.0045225313 0.03661145 -0.010407134 0.023542244 0.056038644 -0.047775045 0.014512439 -0.030974228
0.033588223 -0.017114848 0.0075498414 -0.048098233 0.013086082 -0.0016153677 -0.0141016 -0.04174516
-0.00897216 -0.009728403 0.0026845036 0.038197614 0.03842343 0.005364306 0.033987507 0.030911887
-0.023249462 -0.024539586 -0.011944432 -0.0061942725 -0.0048644342 -0.011168577 -0.008413848 -0.035632223
-0.0017392965 0.03566966 0.029797466 0.003925756 -0.027087703 0.028581891 0.046768997 0.049229015
-0.014732612 -0.045419466 -0.00838697 -0.017867407 0.0006110876 0.02433288 -0.023612682 0.032850098

GNN3.Theta1 f4 [288, 2]
00000000: 0bd4 8c3e b019 733e 4de5 33bf 5844 2a3f
00000010: e487 d93e f4c5 2ebf 20b8 e1be 1c31 ae3e
00000020: b8b9 fcbd 1b5a e6be 9eed 1b3e c0eb 1dbf
00000030: 92c5 023f dd43 033f 193f a43e 4362 853e
00000040: cf35 fabe 3138 0fbe ab0f a13e 9513 3a3e
00000050: 1f5a 0c3f c829 2c3e 239b 18bf a6f8 e1be
00000060: 37c1 db3e 0abd e23e e218 df3d 857e e83d
00000070: e7c9 b03e 694e 2ebf c630 1fbf fd47 97be
00000080: 3566 92be 7703 0abd eb40 b73e 6103 12be
00000090: 7bd6 ac3b 2800 05bf 30b7 9bbe 605b 123f
000000a0: d970 0d3f 4458 24be 2300 6e3e d76f 083f
000000b0: 7ba0 f83e 84c0 77bd dd46 fcbe ab7c 83be
000000c0: 2506 a43e 8d6a 95be e567 993e 063b f6be
000000d0: c64f 7d3e 2358 f13e 1006 0ebe 2ff8 1d3f
000000e0: f25a d03e 12e6 7bbd 577e 36be 2a2c c2bc
000000f0: 8b60 a0be 970a 75bd 7c1a 12bf fb16 933e
00000100: 7c97 293e 9999 00bf 7ad6 b3bd fdc7 4e3e
00000110: 42c8 bfbe 8dba 773e 3735 e1be 2014 c0bb
00000120: 1c20 70bd 35f6 d7be 1827 9abd ecaa 78be
00000130: 2e62 b7bd ca17 323e 4cac f1bd 2e95 edbd
00000140: 7fc3 0e3f d1e2 013f 9df9 bebe b077 613d
00000150: 3b5b 733e 7b1f d83d 758b f63c d0fb 56be
00000160: 68a2 d43d 0989 b2be 05bb c2bd 3c82 6fbe
00000170: e2e6 953e ff39 a13e ce1a 0ebf 529f fabe
00000180: db0f dc3d ed69 7b3e 0b02 15bf f61d c23d
00000190: 16a8 a7be 5b10 12bf ca09 233f 5fbd e0be
000001a0: 83d0 9dbe 32cd 303f 98ba c9be 8bf6 8fbe
000001b0: bc51 d7be 0214 aabe 7b30 ae3d d884 ce3e
000001c0: 8e64 6e3e 778f 2dbe efee 0c3e 52ce d6be
000001d0: 3394 f73e c8bd d1be 8f62 8d3e fb40 e6be
000001e0: b567 80be f07d 22bf 6d74 173e 71ed b43e
000001f0: ef0b e5be f1eb 853e b7bc 9cbd 3fbe 1d3e
00000200: 088b cabe c092 05bf 27f6 79bc d19e 913e
00000210: 7246 18bf 5721 c5be ff53 e5be 25e7 34bd
00000220: a484 d6be 16c8 9bbe 9adf 6ebe 3c20 e6be
00000230: 0455 a6be 17ea 93be 59cd cdbd 1064 173f
00000240: 04c1 4ebd 24e3 093f 3a52 243d 942b 8b3e
00000250: efaa 683e 2855 cdbd 23df 1e3f efa5 b3be
00000260: 85a4 6dbe 601a 3b3e b368 8c3c 26b5 58be
00000270: b4b0 ac3e 4054 25bf 58ef 173f e086 2c3e
00000280: 2eea 20be 091c 203f a651 1fbe 4566 2dbf
00000290: aa64 cbbe 4755 133f 7c31 8abe b55c 523e
000002a0: 9fed 5abe 611d ba3e ef19 a0be 130d 043f
000002b0: c936 1c3f cf0c 3dbd cc6d eebe fac6 1e3e
000002c0: be9e 89be eb82 f2be bf8f dcbd bfda 83bd
000002d0: cd28 263e 4f0d 8dbd f560 243e 62d3 a9bd
000002e0: 7352 2abf df6d 4b3d b72a 983e 24b1 0b3f
000002f0: 8843 03bf 3956 9bbe 1826 a6be bb56 3dbe
00000300: 8001 8fbe bfc0 1d3f 9dff f2be 2660 01bf
00000310: 927c eabc 423e 1a3e b9b7 123f 1df0 af3d
00000320: 6177 0c3f 3f79 f13d 96d5 36bf 037c fe3d
00000330: 7c09 213d cdb8 93bd a22b 1d3e 5a85 a5be
00000340: 7fb8 103f b007 c8be 42e9 203f 61b6 da3e
00000350: 00ab e63e 0537 8abe 9888 2dbf 6cf3 d23e
00000360: d5d6 03bf 3c32 f7be 112c a53b 31c1 edbe
00000370: 7209 3d3e e1c5 223f 6cf7 c6bd 39ec 8ebe
00000380: 5c50 a6be c2db 213e 3989 273e 3df9 ec3e
00000390: c3f8 1ebf ccde 053e 6eb4 c9be 67e2 a43e
000003a0: e46c 02be 2a34 0e3f 5159 17be af1b 32bf
000003b0: 2158 3c3b 6dc8 253f 4887 99be 459d c43d
000003c0: cc3d 51be 96ca 98be 03cf aa3e 996b 75be
000003d0: da85 e5be 9273 253f ca14 17bf 21c2 15be
000003e0: 8de6 263f a000 e5bd 7a13 633e 3fd4 063f
000003f0: 5522 14bc 820a 58be c96d fdbd 2202 353e
0.27505526 0.23740268 -0.7027176 0.66510534 0.4248649 -0.682708 -0.4408579 0.34021842
-0.123401105 -0.4499062 0.15227363 -0.6168785 0.5108272 0.51275426 0.3207939 0.2605153
-0.48869178 -0.13986279 0.31457266 0.18171532 0.54825014 0.16812813 -0.5961172 -0.44135016
0.4292085 0.4428485 0.10893418 0.11352257 0.3452904 -0.68088394 -0.621838 -0.2954711
-0.28593603 -0.03369471 0.35791716 -0.14259101 0.0052745915 -0.51953363 -0.30413198 0.5717068
0.55250317 -0.16049296 0.2324224 0.53295654 0.48559937 -0.06048633 -0.49272814 -0.25681052
0.32035938 -0.29182854 0.29962078 -0.48091906 0.24737462 0.47137555 -0.138695 0.61706823
0.40694386 -0.06149871 -0.17821632 -0.0237027 -0.31323656 -0.059824552 -0.5707166 0.2872847
0.16561693 -0.5023437 -0.087811425 0.20193477 -0.37457472 0.24192257 -0.43985912 -0.005861774
-0.058624372 -0.4218003 -0.07526988 -0.24283952 -0.08954273 0.17391887 -0.11800441 -0.116007194
0.55767053 0.5073672 -0.37299815 0.055045784 0.2376527 0.105528794 0.030095795 -0.20994496
0.10382539 -0.34870175 -0.095083274 -0.23389524 0.29277712 0.3148956 -0.5550965 -0.48949677
0.10745212 0.24552126 -0.5820624 0.09478371 -0.32745427 -0.57056206 0.6368681 -0.4389448
-0.30823144 0.69063103 -0.39400172 -0.28117785 -0.42054546 -0.3321839 0.08505341 0.40335727
0.23280546 -0.16949259 0.13763021 -0.41954285 0.48355255 -0.40965104 0.27614257 -0.4497145
-0.25079122 -0.63473415 0.14790507 0.35337403 -0.44735667 0.26156572 -0.07653182 0.15404604
-0.39559197 -0.5217705 -0.015256441 0.2844148 -0.5948249 -0.38502 -0.44790646 -0.04416575
-0.41898072 -0.3042609 -0.23327485 -0.44946468 -0.32486737 -0.28889534 -0.100489326 0.5913706
-0.050477043 0.53862214 0.04011748 0.27181685 0.22721456 -0.10026008 0.6205923 -0.35087535
-0.2320729 0.1827178 0.017139768 -0.21162853 0.33728564 -0.6458168 0.59349585 0.16848326
-0.15714332 0.6254278 -0.1555849 -0.67734176 -0.39725238 0.57552 -0.2699088 0.20543177
-0.21379708 0.3635054 -0.31269786 0.5158245 0.61021096 -0.046154793 -0.46568143 0.15505591
-0.26878923 -0.47365507 -0.10769605 -0.06438207 0.16226502 -0.06887304 0.16052611 -0.08292271
-0.6653206 0.049665328 0.2972009 0.5456717 -0.5127492 -0.3033922 -0.32450938 -0.18490116
-0.27930832 0.6162223 -0.47460642 -0.50537336 -0.028623853 0.15062812 0.5731159 0.0859072
0.5486966 0.11790704 -0.71419656 0.12425997 0.039315686 -0.07212982 0.15348676 -0.32328302
0.5653152 -0.39068365 0.62855923 0.4271727 0.45052338 -0.26995102 -0.6778655 0.4120134
-0.5149968 -0.48280513 0.0050406535 -0.46436456 0.18460634 0.6358319 -0.09715161 -0.279146
-0.32483184 0.15806487 0.1636094 0.46283904 -0.6209833 0.13073272 -0.3939547 0.3220398
-0.12736851 0.55548346 -0.14780165 -0.6957349 0.0028739052 0.6475895 -0.29986024 0.09600309
-0.2043373 -0.2984206 0.33361062 -0.23966826 -0.44828683 0.6462947 -0.59016097 -0.14624836
0.6519554 -0.1118176 0.22175398 0.5266761 -0.0090413885 -0.21097758 -0.123744555 0.17676595

GNN3.bias f4 [2]
00000000: 9e59 01bf 700c 583d
-0.5052737 0.052746236
