trained_models/iS_GNN_Trained_ep_150_bs64_lr5em04_z96_k_diff_1_kNN_8_ramps_30_b_cap_90.pth (torch, 137303 bytes, 6 tensors)

GNN1.Theta1 f4 [54, 96]
00000000: a53d 5a3c 65f4 cf3c beee 03bc df2b 843d
00000010: eade 01bc 3200 313c 3c8b fcbc 3bad 173d
00000020: 98ff 923d e73f cabc 254e 873d d035 f33c
00000030: ede3 463d e1c2 093d 8d70 173d 9038 e4ba
00000040: 6d2d 483d 605e da3c 5a25 a239 7896 073c
00000050: e975 f3bb bc2e f53c 1eb2 6cbc 2289 543d
00000060: 993d 8dbd 9f69 d5bc a13b 4dbc 4f32 70bb
00000070: 4851 9f3c 52c4 54bd 46e6 5b3d b595 babc
00000080: 542e 713d 7b75 0a3c 489f 21bd cb1c 5fbc
00000090: f02a 2f3c 88c5 3a3d 7c76 153b 0844 f3bc
000000a0: 3613 873c 6121 0cbc 2da5 ca3c 39c9 8a3c
000000b0: 66f7 313d 5e72 1dbc 8121 233d 246c 2f3d
000000c0: 2db8 283d ae63 a7bc 28ba 74bd d074 b8bc
000000d0: 70eb b0bd f112 ac3d 2093 733c e861 15bc
000000e0: f470 973c 7508 923c 9e18 1e3c eaee 9fbc
000000f0: 89d9 c4bb e02d 39bd 1ad2 6f3c 054e 9fbc
00000100: d38e c3bc 9cb6 84bc 2b4c 9a3c 3daf 1bbd
00000110: 080d e3bc 0b4c 7fbc 106c 343d 807b 833c
00000120: d1f1 2f3d 1435 cdbc 408a 4dbd 8e61 16bd
00000130: c380 63bd 445a 123d a9ce 283c a13c 3c3d
00000140: 2fc5 2bbd 51b2 63bd ef44 003d e701 573c
00000150: 882a 553d 8a59 a2bc 8fd5 8d3c 3147 16bd
00000160: 8dba 3dbd aa47 d93c fdc6 7d3b f786 caba
00000170: 9629 383d 811e de3c 9abe 40ba 1d90 f8bc
00000180: 571d 263c ca19 8dbd 2764 5bbc 7921 a1bd
00000190: a4d0 e7bc f185 703c 0eb1 283c 0c9a 97bd
000001a0: 6d52 8a3c 1e0f 2bbc e29a 8fbd b6c0 15bb
000001b0: 1731 7ebd 5851 8abc c18f 8c3d e2b1 603d
000001c0: 6180 183d 9873 a3bd 10c2 9ebd 0a4c 46bd
000001d0: 1d6b fb3c 8f73 40bd 01ab 01bd c375 b5bd
000001e0: 02d3 523c 922b 1fbd 0580 61bc abec 993b
000001f0: bee9 3fbd ef5e 19bd 890f 41bd e649 39bd
00000200: 4668 b13d 2214 19bd 2220 453d 56c5 1f3c
00000210: 8d12 2dbd 903f 9a3d 779e 22bb c1d5 89bd
00000220: c248 d5bd 3cde 98bd c59d 093d 0d53 6cbd
00000230: a042 883b 598a efbc 10fd 9d3d 7967 5ebc
00000240: 6851 c1bc 0865 2d3d 53fa 903d 7d3c ba3d
00000250: c018 8d3d 8754 23bd f630 e13c fc1a 4fbd
00000260: 20b8 2abb d7dd 5abd 6785 623d 2da7 28bd
00000270: 71dd 4c3d e07f 6d3d c5fe 093d 136b c5bc
00000280: 02bc 403d 0d87 013d e74f 5abd 8fff 8ebd
00000290: 9287 3c3c 0494 423d edcc a2bd 2410 0b3d
000002a0: a778 efbc b054 61bd de93 f6bb d703 233d
000002b0: c66e 603d faf4 1d3c 897d 77bd a7f8 863b
000002c0: 491f 9bbd 9f99 76bb 1d43 2b3d 0454 6ebd
000002d0: 3553 103c 7474 093d 971d 29bd e31a 783c
000002e0: b875 4e3d 7ebb 593d 8812 a83c 802c da3c
000002f0: 8fb8 9a3b c66f 723c 1797 083d e718 e5bc
00000300: dc15 94bc 4921 5a3d 38e2 4f3c d1ca 35bb
00000310: 6b98 013d d684 8abc dfda 453d 6ccd ea3c
00000320: 6a2b a0bd 2f0a b13c 0ac1 d13d fad8 bf3d
00000330: 3cca b53c f00f 5cbc e742 c4bd 44bc 64bd
00000340: 8d2e e1bc 752d 4c3d ec99 5f3d e2dc 053d
00000350: 5d98 9abd 7200 98bc c847 78bb b5df 913d
00000360: ad0a e03c 5fc0 dfbc c98b 113d 774b 0f3d
00000370: 048d 2fbd 98d2 c53d ef0c 70bd 2374 733c
00000380: 16ca cdbd aeac 513d 9e2a 1a3d 4e2c 783c
00000390: 4021 ddbc 44b2 c4bd 50ab 6abd c750 443d
000003a0: d54a f23c 0fd4 e63d c602 6d3d 2ecd 1cbc
000003b0: 07d1 15bd 413e bdbc 1248 b0bd 7bc0 0bbd
000003c0: c0a8 123d eb56 eebc 3ee7 1fbb ab9b 4dbd
000003d0: bbce 2ebd f12c fcbc b9e2 84bd abc1 de3c
000003e0: 4c33 b2bc a10e b03d bd2f 90bd 287e 28bd
000003f0: 06a4 b8bc 7221 e0bc 7e7f fbbc 0456 87bd
0.013320361 0.025385091 -0.008052526 0.0645368 -0.007926682 0.010803269 -0.03082811 0.03703044
0.07177657 -0.024688674 0.06606702 0.029688746 0.04855721 0.033633117 0.03697257 -0.0017411876
0.048871446 0.02665633 0.00030926877 0.008275621 -0.0074298275 0.029929511 -0.014446763 0.051888593
-0.068965144 -0.02605134 -0.012526424 -0.003665108 0.019447938 -0.05194504 0.053686403 -0.022776464
0.058882073 0.008450861 -0.039458543 -0.013617705 0.010691389 0.045598537 0.0022806218 -0.029695526
0.016488653 -0.00855288 0.024736965 0.016941654 0.04344883 -0.009609787 0.039826874 0.04282774
0.04119127 -0.020433273 -0.059747845 -0.022516638 -0.08638656 0.0840205 0.01486662 -0.009117581
0.018486477 0.017826298 0.009649424 -0.019523103 -0.0060073775 -0.045209765 0.014637494 -0.019446382
-0.023871815 -0.016200356 0.018835148 -0.038008917 -0.027716175 -0.015582095 0.04404837 0.0160501
0.042955223 -0.025049724 -0.050180674 -0.03671413 -0.05554272 0.035730615 0.010303178 0.045956258
-0.041936096 -0.055589978 0.03131574 0.013123012 0.052042514 -0.019818086 0.017313747 -0.036688987
-0.046320487 0.02652343 0.0038723343 -0.00154516 0.044961534 0.027114155 -0.00073526206 -0.030342156
0.010138831 -0.068896845 -0.013390577 -0.078677125 -0.02829773 0.014680372 0.010296119 -0.07402429
0.016885007 -0.010440616 -0.070119634 -0.002285046 -0.062058534 -0.01688449 0.068633564 0.054857142
0.037231807 -0.07981032 -0.07751858 -0.04841236 0.030690724 -0.046985205 -0.031657223 -0.08860352
0.012867691 -0.03885991 -0.013763432 0.0046974025 -0.046853773 -0.03744405 -0.047133956 -0.04523649
0.08662467 -0.037372716 0.048126347 0.009751638 -0.04225402 0.07531655 -0.002481369 -0.067302234
-0.10414268 -0.07464263 0.033597726 -0.05769639 0.004158333 -0.029240774 0.077142835 -0.0135744745
-0.023598388 0.04233268 0.070789956 0.090935685 0.06889486 -0.039875533 0.027489167 -0.050562844
-0.0026049688 -0.05343422 0.055303004 -0.041175056 0.05001587 0.05798328 0.033690233 -0.024098909
0.0470543 0.031622935 -0.053298857 -0.06982338 0.011506932 0.04750444 -0.07949243 0.03395094
-0.029232336 -0.055012405 -0.0075249514 0.039798584 0.05479314 0.0096409265 -0.060422454 0.004118997
-0.075743265 -0.0037628186 0.04181205 -0.058185592 0.008808901 0.033558324 -0.041287985 0.015143129
0.050405234 0.053157322 0.020516649 0.026632547 0.004721708 0.014797157 0.033347216 -0.027965976
-0.01807683 0.0532544 0.012688212 -0.0027739296 0.031639498 -0.016909044 0.048304435 0.028662406
-0.078207806 0.021611301 0.102418974 0.09367557 0.02219116 -0.013431534 -0.09583073 -0.055843607
-0.027488017 0.04984804 0.05459015 0.032681353 -0.07548592 -0.0185549 -0.0037884582 0.07122747
0.02734884 -0.02731341 0.0355337 0.03498408 -0.042859092 0.09659308 -0.058606084 0.014859232
-0.100483105 0.05119007 0.0376383 0.015147282 -0.026993394 -0.09604314 -0.057292283 0.047928598
0.029576698 0.11270916 0.057863973 -0.009570403 -0.036576297 -0.023100974 -0.08607496 -0.03411911
0.035805464 -0.02909418 -0.0024399306 -0.050197285 -0.042677622 -0.030783148 -0.064885564 0.027191957
-0.021752976 0.0859654 -0.07040355 -0.041135937 -0.02253915 -0.027359698 -0.030700441 -0.06608203

GNN1.bias f4 [96]
00000000: be2b 5a3b ee13 ccbc facc 5ebd 2cdc 523d
00000010: 437f c13c 7007 d7bb 41ed 55bc dd06 493c
00000020: b079 0f3c 8650 593d dee9 48bd bacb ec3c
00000030: 8fa8 7f3d a100 8b3d 47c8 4dbd d22a 5a3d
00000040: 9da2 6cbd 18c4 1a3d ff23 fa3c cb07 2c3b
00000050: eb6f 3d3d c974 9bbd 978e 08bd 08ea 37bd
00000060: b9b0 aabd 648e 87bb fb22 ad3d f972 a93b
00000070: 0748 753d 4eb8 c5bd 69f9 423d 9b55 5f3d
00000080: a678 c03d 90bc 0ebd 5dd8 75bd 3ae4 4ebd
00000090: a4a8 943d 1e5b f83b c15b 8b3d cd02 39bd
000000a0: b988 8ebd 96b3 b03c c82b 083d 6842 84bd
000000b0: 637c e43d 01fa 56bc 00f4 96bd 6e13 ad3c
000000c0: d827 6cbd 0d01 36bd 33d7 3bbd 9990 3a3d
000000d0: 5653 3d3d 4278 883d 3805 f5bc 6edf b9bb
000000e0: 49ef 883d 2aca 12bd 29e2 debc 695d 353b
000000f0: 384d aebd f41c 6fbd 8cc8 c53d 3d55 913c
00000100: 2037 d7bb f1c3 0f3d 154d 3a3d e091 503d
00000110: b5aa c53d ae26 1b3d d8cf 733d f327 b33d
00000120: 4730 e9bc 56cb df3c d94d 06bd fea4 89bd
00000130: f2cd a93d 0a31 10bd 5a06 53bd 2429 bdbd
00000140: 0758 23bd cc34 a63c d74c 2c3d 0af3 87bd
00000150: cfd1 113c dffd 8dbd e223 723b c8b4 343d
00000160: 5864 fabc 3325 c1bc e8b1 8c3d 6d13 1abd
00000170: 6368 853b 36df a3bd 329c 953d deb8 483d
0.0033290233 -0.024911847 -0.0543947 0.051479504 0.023620253 -0.006562166 -0.013057054 0.012269703
0.00875704 0.05305531 -0.049051158 0.028905738 0.06241661 0.06787229 -0.050239827 0.053263493
-0.057772268 0.037784666 0.030534742 0.0026249762 0.04624931 -0.075906344 -0.03333911 -0.044900924
-0.083344884 -0.0041368473 0.084539376 0.0051711765 0.059883144 -0.09654294 0.047601137 0.054525
0.09398012 -0.034847796 -0.060020793 -0.050510623 0.07258728 0.0075792214 0.0680461 -0.045168687
-0.069596715 0.021570008 0.033244878 -0.064579785 0.111565374 -0.013121129 -0.07370758 0.021127429
-0.057655185 -0.044434596 -0.045859527 0.045548055 0.046222053 0.06663562 -0.029909715 -0.005672387
0.06686265 -0.03583733 -0.027207451 0.0027674085 -0.08510822 -0.05837722 0.09657392 0.01774084
-0.0065678507 0.035098974 0.045483667 0.050920367 0.096517004 0.037878685 0.059524387 0.08747854
-0.028465403 0.027318638 -0.032789085 -0.06720923 0.08291234 -0.035203017 -0.05151973 -0.092363626
-0.03987887 0.020288847 0.042065468 -0.06638153 0.00890012 -0.06933188 0.0036947657 0.04411772
-0.030565426 -0.023577308 0.068698704 -0.037616182 0.0040712818 -0.080015585 0.073051825 0.049004428

GNN2.Theta1 f4 [288, 96]
00000000: aea2 4cbd 63f1 903d d9f4 c13d 7114 173d
00000010: 47aa b6bd e958 d0bc b6eb c13d ff4e 8a3d
00000020: f283 11bd 3eac 983d 2617 82bd 4ff3 a93c
00000030: f7f7 b53d 29b3 c23c eb14 97bd 02ea ad3c
00000040: 4c1d 783d b45a 783d 915c 64bd ea2b 7fbc
00000050: 85b4 b439 edc8 7ebc 212d adbc d397 60bd
00000060: bb41 9d3c 8cd0 433d 58a2 ddbc 304c a43d
00000070: ad05 f2bb ab17 273d 4122 d33c e597 63bc
00000080: a7d2 febb 2c05 dfbc 2ab9 1d3d 4926 49bd
00000090: 2390 7dbd 0a32 a2bd 37f9 3dbd a937 f73c
000000a0: 6a8c ae3d 1424 c6bd 61fd 0abd 15ad 7d3d
000000b0: 0b26 50bd 1a79 803d c2a7 59bc efaf 9ebd
000000c0: c92a 673c 1df2 2fbd 5306 c53c 7809 99bd
000000d0: 6c95 c63d 4057 26bd 4a3d 4b3d daec 6dbd
000000e0: 5634 8ebd db69 403d a981 833d d71b 27bc
000000f0: 7039 b3bd da60 3dbd 53ef 96bd 3c38 193d
00000100: 54f9 e03c 386a 7a3d 8c8c cb3d b8fa 2bbd
00000110: 9e7c 843d bfc5 573d 5db1 673c cd49 a9bd
00000120: 1bdd 95bd d931 e83c e96f 6a3d acea 473d
00000130: 06f0 013b a6b3 94bd 88d2 b8bd 6682 70bd
00000140: 3639 5d3a 0ff7 bb3c 441b 7f3d f43b 68bd
00000150: 2a28 833d ecbe 9c3d f939 a8bd ec8e 90bd
00000160: b025 26bd 64ab c43c 7096 ae3d 8b2d 923c
00000170: 69ce 8b3d f24e 8b3d 2bb1 ca3d 3ec9 c8bd
00000180: 1158 a6bd 1a78 3dbc 9a28 cbbb 98b4 b73b
00000190: 96ed 963d 767b b03d 5a0c a5bc 8c3c 6abd
000001a0: 5b98 793b f190 a03c bf43 803d cac0 f23c
000001b0: 3afd 153d a785 093d e59c 9f3d c540 5d3d
000001c0: 27fb 03bc a92e a7bd 84af 993d ee31 67bb
000001d0: 6df3 8abd 28b4 78bc d1ac 9b3d 7a90 70bd
000001e0: 634d b4bc a971 073d 2eb3 833d cdcc 3dbc
000001f0: 3efd abbd 3089 1cbd 1476 09bd a334 eb3c
00000200: 498a 93bd e1ee 933d 36fc ed3c 2444 74bd
00000210: 6a09 3c3d 92bf c93c 5340 cf3d 5df1 b2bb
00000220: 3f8c cdba bb91 bfbd 787f a3bd adbe 23bb
00000230: da8a b93d bf74 87bd 7d6a 363b efd7 50bd
00000240: 8b96 a4bd 544f b6bc 67d4 81bd 38c7 8dbd
00000250: 6831 e8bc f717 1fbc 1210 0f3d 8678 483d
00000260: 2591 3e3c 0a6b 7ebc c042 c0bc 41c4 acbd
00000270: 0332 893d c35c a13d 3c65 c3bd 24a6 bcbd
00000280: a1f6 c9bd fca3 f4bc 11d2 1bbb 49a6 83bd
00000290: d91d 233d 6478 c1bb 9cea 49bd 105c a9bd
000002a0: 5a37 963d 0bc7 a83d 26ce c2bb e04b 45bd
000002b0: 82d0 5f3d 9aee 5a3d a473 77bc 00f8 ca3d
000002c0: e6bc a0bd 6271 76bb 0647 943d 3b6e 46bd
000002d0: d1ea 9cbc 1f4d 31bd 8a79 16bd 142d a03d
000002e0: 1ae6 563d 6f80 b4bd 8d19 86bd 5150 34bb
000002f0: ca75 e9bc 2583 7bbd c121 b1bd fbd2 913d
00000300: 927e 2e3d 8a87 ca3c e9e5 ebbc e5bf d0bd
00000310: 1606 97bc eb24 063d ca12 a3bc 210b 903d
00000320: f18f 9a3c 73a0 d43a 9ced 233d 42b6 3e3d
00000330: 1973 8fbd 82d1 fe3c 91fd b9bd 53a2 e6bc
00000340: 63d3 febc f744 8a3d 4b97 bcbd 8928 283d
00000350: 89ab b3bd b7b8 3c3d 1544 d43c dfe7 54bd
00000360: 0a46 933c 80d2 c53d 644d 593d 272b b7bd
00000370: f509 18bd 58b6 c63d 32a2 783c d912 f73c
00000380: 06c6 943b 8576 5bbd 6627 c9bc 6140 a93c
00000390: 7636 893d 8c31 18bc 7ad5 cfbc 5c39 833c
000003a0: eaea 19bd 757c c03d c864 a63d 8aba bb3a
000003b0: cd05 7ebd 5136 d13c a209 8e3d 24f9 583d
000003c0: b40f 2a3d b3b7 1ebd 96cd c3bd 63bb bdbc
000003d0: 78a4 cc3b 1a62 c23d b4bb b13b e6bb 88bc
000003e0: c7a9 4fbc 3938 40bc 021d 68bd 532c 31bd
000003f0: 2dcf 753c a6d6 663d 3b50 ae3d 11d9 363d
-0.04995983 0.07077291 0.09470529 0.03688473 -0.089191966 -0.02543302 0.094687864 0.067533486
-0.035526223 0.074547276 -0.063520715 0.020745901 0.08885186 0.02376707 -0.07377037 0.021229748
0.060574815 0.060633376 -0.05575234 -0.015574435 0.00034466773 -0.015550834 -0.021139683 -0.05483229
0.019196382 0.047806308 -0.02705495 0.08022344 -0.0073859305 0.040794056 0.02577317 -0.013891195
-0.0077765766 -0.027224146 0.038506664 -0.049108777 -0.061905038 -0.079197004 -0.046380248 0.030177908
0.085228756 -0.0967485 -0.033933047 0.061932642 -0.05081753 0.06273098 -0.0132846255 -0.077484004
0.014109322 -0.042955507 0.024050867 -0.07472509 0.09696469 -0.04061055 0.049618997 -0.058087207
-0.06943576 0.04697595 0.06421215 -0.010199509 -0.0875119 -0.046234943 -0.07369866 0.037407145
0.027462639 0.061136454 0.099389166 -0.04198715 0.06469081 0.05267882 0.014141408 -0.082660295
-0.07317563 0.028344082 0.057235632 0.048807785 0.0019826903 -0.07260828 -0.09024531 -0.058718108
0.0008439006 0.022944955 0.062281862 -0.0566978 0.06404145 0.07653603 -0.082141824 -0.0705851
-0.040563285 0.024007507 0.085247874 0.017843982 0.06826479 0.06802167 0.09897073 -0.09804009
-0.08122266 -0.011564279 -0.0061999084 0.0056062452 0.07369535 0.08617298 -0.020147491 -0.05718665
0.0038085196 0.019600363 0.062629215 0.029632945 0.03661845 0.033574726 0.07793597 0.054016847
-0.008055485 -0.081631966 0.0750418 -0.0035277563 -0.06784711 -0.015179671 0.076013215 -0.058731534
-0.022009557 0.03306738 0.0643066 -0.011584473 -0.083979115 -0.03821677 -0.033559874 0.028711623
-0.0720411 0.07223297 0.029050928 -0.059635296 0.045907415 0.02462748 0.10119691 -0.0054609017
-0.0015682055 -0.09353968 -0.07983297 -0.0024985478 0.09059687 -0.066140644 0.0027834468 -0.05098718
-0.08036526 -0.022254623 -0.06339341 -0.069227636 -0.028343871 -0.0097103035 0.034927435 0.048943065
0.011631285 -0.01552845 -0.023469329 -0.0843587 0.06698992 0.07879021 -0.09540793 -0.09211376
-0.09861494 -0.02986335 -0.0023776332 -0.06428201 0.039823387 -0.0059042443 -0.049296007 -0.08269513
0.07334776 0.082410894 -0.005944985 -0.048168063 0.054642208 0.053450204 -0.0151032545 0.099105835
-0.078485295 -0.0037604203 0.07240109 -0.048444968 -0.019154938 -0.04328644 -0.036737002 0.07821098
0.052465536 -0.08813559 -0.06547842 -0.0027513693 -0.028498549 -0.061404366 -0.08649016 0.071203195
0.042601176 0.024722833 -0.028796153 -0.10192851 -0.01843552 0.03275005 -0.01990642 0.07033373
0.018867465 0.0016222134 0.040021524 0.046560533 -0.07004375 0.03110576 -0.09081567 -0.028153574
-0.031106656 0.06751435 -0.09208544 0.041054282 -0.08772952 0.046074595 0.02591137 -0.051978942
0.017977733 0.0965929 0.05305232 -0.089437775 -0.03711887 0.09702748 0.015175389 0.030160354
0.004540208 -0.053579826 -0.02455492 0.020660581 0.06699841 -0.009289157 -0.025370348 0.016018562
-0.037577547 0.09398738 0.08124691 0.0014322561 -0.06201725 0.025538595 0.06935431 0.052971974
0.041518882 -0.038749408 -0.09560697 -0.023160642 0.006245192 0.09491368 0.0054239873 -0.01669116
-0.012674755 -0.0117321545 -0.05666829 -0.04325516 0.015003008 0.05635705 0.085113965 0.044640604

GNN2.bias f4 [96]
00000000: 1688 a6bc 3d20 dcbc 13ad fe3b f952 143d
00000010: b31b 42b9 c472 113c dc17 7b3b 06a5 37bc
00000020: c066 843c 4c14 3cbd 69b9 e23c d533 0c3d
00000030: 4b9e 843c 7730 d8bb ff56 54ba dcfc 8abc
00000040: 26ea ef3c 8bce 76ba 8ac9 513c 7359 7bbc
00000050: bc60 953c 2056 aeba b535 6e3d 3008 da3c
00000060: 8391 9bbc d7f5 ffbc a5bb b1bc 6961 fbbb
00000070: 0812 fd3a 1cbd 1dbd 84f4 ea3c 48db ccbc
00000080: 6369 35bc ef38 263c dfbb 1fbb f28a 573c
00000090: 69e3 08bd 50f6 c7bc fa44 b2bb fd11 f8b9
000000a0: 8836 1b3d 94d2 7abc 687d c23c 1239 ed3c
000000b0: 918c f5bb 85af 8ebb 0378 c33b ecc5 3fbc
000000c0: 8d9b 993b 2fd3 88bc 24c9 b83a d4e1 ecbb
000000d0: 1f55 293d 9f4c 70bc f11c 80bb a2de 283c
000000e0: 81d5 79bc cd99 103c cf75 be3c b75c 223d
000000f0: 9806 0e3d c44b a8bc 0620 643c a7f9 d4bb
00000100: d0f9 cfbb adc8 ddbc 4a27 c0bb c511 50b9
00000110: 537e ed3c 6b82 79bc c8c9 993c 3117 023d
00000120: ffc7 3fbc 1f35 4d3b 9706 833c 987e 8fbc
00000130: cf14 953b 4cad 2b3d 826e 90bc fb8d 58bc
00000140: c621 e8bc e64e 4b3c c6a7 c9ba fe68 303c
00000150: cd37 4dbc 1aa7 da3c 1601 0c3d a224 9f3c
00000160: 029d 02bd 472c 9a3c 53ef 073d d7fd d33b
00000170: 3b35 1dbc a1f0 743c 4234 9b3b b90b ad3c
-0.020328563 -0.026870841 0.007772097 0.03621194 -0.000185116 0.00887746 0.0038313782 -0.011208778
0.016162276 -0.045917794 0.027676301 0.03422912 0.016188761 -0.0065975743 -0.00081001216 -0.016966276
0.029286455 -0.00094149326 0.012804398 -0.015341151 0.018234603 -0.0013300814 0.058156688 0.026615232
-0.018990284 -0.031245155 -0.021695921 -0.0076715243 0.0019307742 -0.038510427 0.028681047 -0.025006905
-0.011072489 0.01014541 -0.0024373455 0.013155686 -0.03342 -0.024409443 -0.0054403516 -0.00047315648
0.037893802 -0.015308995 0.023741439 0.028957877 -0.0074935635 -0.0043544197 0.0059652342 -0.011704903
0.0046877326 -0.016702263 0.001409803 -0.0072290692 0.041340943 -0.014666705 -0.0039097 0.010306986
-0.015248657 0.008825731 0.023249535 0.0396392 0.034674257 -0.02054394 0.013923651 -0.0064994874
-0.0063469186 -0.027073229 -0.0058640586 -0.00019843045 0.0289909 -0.015228848 0.018772975 0.0317604
-0.011705398 0.003131218 0.015994353 -0.01751642 0.0045495997 0.041913316 -0.01763082 -0.0132174445
-0.028336417 0.012408948 -0.0015385083 0.01076722 -0.012525511 0.026691008 0.034180723 0.019426648
-0.031888016 0.018819941 0.03318722 0.006469469 -0.009595211 0.0149499485 0.004736454 0.021123754

GNN3.Theta1 f4 [288, 2]
00000000: bf41 0fbf 6344 c83d 0619 093e 0293 143e
00000010: 8e75 d4bd fd62 a8bd ed65 1dbf 1ae8 dfbd
00000020: 029d 06bf dc98 0c3f 6c1d b23e 7739 513e
00000030: e521 a2be 0735 80be 5f15 003e a772 b0bd
00000040: 3a17 0b3d 6443 da3d 4e49 83bd bcb3 01bf
00000050: ef19 1b3f 41d4 4cbe 4fdd df3c 0485 b9be
00000060: f5f4 093f e5be acbe 629d 9d3e 1673 833e
00000070: f7d7 4fbe 4fb8 163e 7847 d8be dc89 14bf
00000080: e5cc f23e 4f1d fb3e 0b43 fcbe 3d57 42be
00000090: acb3 2abf 60d5 0bbf 86ea bc3d 74f5 0abe
000000a0: f9a6 273f 6dd1 0f3f b9df cdbe e346 003f
000000b0: 84c9 da3e 495f 0e3f f574 36be 05df d0bd
000000c0: f039 abbe 5eb3 c2be 3658 2f3f f36a f83e
000000d0: 2356 2abf 5f38 a03e f406 72be 8763 15bf
000000e0: 247e ab3e a2ee 923d 22b5 40be ebd7 283f
000000f0: 1a05 f4be ead2 e33e 3718 cc3e 1549 a4be
00000100: 27ad b23e 3aad a4be 6026 cebe 9280 083f
00000110: 069c 043f df03 d7be 5480 1b3f 77d9 1ebf
00000120: 7a08 753e 70aa 0cbf 7721 42be c5ee 05bf
00000130: 5661 053f 81be b0be 6546 1dbf e39a b7be
00000140: 0943 e93e 9b2a 5e3e 9576 963e 0a42 f03e
00000150: 69ab eebd 2c4a e73e ff02 18bf da68 fcbe
00000160: a586 e13e d93c dfbe 7f02 053e 21d6 103e
00000170: 5eb5 b03e 8995 e63e a249 e73d 5d84 02be
00000180: c92e fabe 675f a5be 5bbf 69bd 1891 a83e
00000190: d134 9fbe d353 1fbe 65b0 f23c 1631 eabd
000001a0: 7963 e7be 8c99 9d3e 5f2a 0a3e 6454 fe3e
000001b0: 8316 e0be 19ee ab3b 0031 9a3e 09c4 ac3e
000001c0: 2b6f e9be 4775 a5be c86a d73c 3a17 b1be
000001d0: 6bbe 08bf 0ed3 3f3e 9dc0 e03e fb6f 16bf
000001e0: df0b 28be dc6e 2abf b6fe 373e 87cf 833e
000001f0: c01d 17bf 469d 4f3e d5bd 3bbe 19f1 95bd
00000200: 387c f5be a92f e5bc 915d c23e e4b4 aabe
00000210: d636 53be 8df4 c8be 4a86 96be 0e22 1b3f
00000220: 8985 033f 91c3 9bbe 71b6 213f abfa 5a3e
00000230: dc86 303e 65e7 16bf 3ca2 6dbe 817d 133f
00000240: d82f d93e 55bb a83e e7f2 c2be f826 56be
00000250: d7f5 803e 8f5c 523e 364b febd 1580 9fbe
00000260: ca0e f7be 23cd 04bf 9023 51be 1ac5 d53e
00000270: a8f3 6bbe af1a 783e fb05 c5be 5bf7 b6bb
00000280: e83d 9fbe aeae 9ebe 5205 ac3e 07ca ec3d
00000290: fdf6 083f 02d3 e03d 3dc2 91bd e5c4 003f
000002a0: c32a d4be 8800 b93e 8c3b 9f3d f4b0 7dbd
000002b0: f7be b7be d076 36bd 034f cebe 65a6 b63e
000002c0: 0369 dabe 03c1 e9bd c090 363f f5f3 cfbd
000002d0: 0348 f1be 01c6 743e dea4 8b3e 20f2 93be
000002e0: 003e 03bf 4ede 24bf 235b a1be ce11 fd3d
000002f0: 9d24 12bf 0269 f7be bdb9 8f3e 266a ecbe
00000300: 945b c6bd 5fa6 a53d ab0a 063f 3d6e d3bd
00000310: 3e6e 903d 3764 e33e 6e0e 553e f09a 053f
00000320: 97d3 a5bd a549 173f 5f73 d4be d826 c53e
00000330: 8f9a 573d 6791 51bd 3f34 1f3f 9d57 a33e
00000340: 7852 5c3d 116e 40be dae1 093f f4b7 a63d
00000350: 2d6c dd3d 8fa1 3ebc 11b1 a3be 5e05 afbe
00000360: 947c a53e f849 e23d c947 643d 3b49 9d3c
00000370: 508d a1be d773 32bd e656 cebe 3c8e 173e
00000380: b685 8b3e 7879 18bf 4e5d 0e3f a109 04be
00000390: 67cc 0a3f 2396 023f 1150 953e 10d3 103f
000003a0: 2895 22bf bc87 35bf 97c9 d83d c62a 99be
000003b0: 6b91 8bbe 3f6d dbbc 8bef ccbe e542 c03c
000003c0: 5294 90be 8899 613e e932 473e fb54 dabe
000003d0: ff3b 5fbe 9f82 013b cba8 aa3e 2f46 033f
000003e0: 394a 523e be84 cbbd 0cc9 a6bd 5117 083f
000003f0: 42b8 dcbe f651 aebe 7f73 e83d 5019 cbbe
-0.55959696 0.09778669 0.13388452 0.14509204 -0.10373984 -0.082220055 -0.6148365 -0.10932942
-0.52583325 0.54920745 0.34788072 0.20432077 -0.31666484 -0.25040457 0.12508152 -0.08615618
0.033957697 0.10657385 -0.06410466 -0.5066488 0.60586447 -0.20002843 0.027327208 -0.36234295
0.538894 -0.3373939 0.30784136 0.2567374 -0.20297228 0.14718746 -0.42242026 -0.58022857
0.47421947 0.49045798 -0.492699 -0.18978591 -0.6668041 -0.5462246 0.09224419 -0.13570195
0.65489155 0.56178933 -0.4020975 0.50108165 0.4273187 0.55614144 -0.17818053 -0.101987876
-0.3344264 -0.3802747 0.68493974 0.48519096 -0.66537684 0.31293008 -0.23635465 -0.5835499
0.33494675 0.07174422 -0.18819097 0.65954465 -0.47660142 0.44496852 0.39862224 -0.32087007
0.3489773 -0.3216341 -0.40263653 0.5332118 0.5180057 -0.4199514 0.6074269 -0.62050575
0.23929015 -0.54947567 -0.18958078 -0.5231746 0.5210165 -0.34520343 -0.6143554 -0.35860357
0.45558956 0.2169594 0.29387346 0.46925384 -0.11653788 0.45173776 -0.5937957 -0.49298745
0.44048038 -0.4360111 0.12989233 0.14144184 0.34513372 0.4503596 0.11293341 -0.12745805
-0.4886382 -0.3229935 -0.057067256 0.32923198 -0.31094983 -0.1555932 0.029625127 -0.11435144
-0.4519308 0.3078121 0.13492726 0.4967376 -0.43767175 0.0052468893 0.3011551 0.33743313
-0.45592627 -0.32316038 0.026296034 -0.34588033 -0.53415555 0.18732855 0.43896952 -0.5876462
-0.16410778 -0.6657541 0.17968258 0.25744268 -0.5902977 0.20274839 -0.18334134 -0.07321376
-0.47946334 -0.027976828 0.3796201 -0.33341134 -0.20626387 -0.39249077 -0.2939933 0.6059884
0.51375633 -0.30422643 0.6316901 0.21384685 0.17238945 -0.5894683 -0.23206419 0.5761338
0.42419314 0.32955423 -0.38075945 -0.20913303 0.2518756 0.20543121 -0.12416689 -0.31152406
-0.4825347 -0.51875514 -0.20423722 0.4175194 -0.23042166 0.24228929 -0.38481125 -0.0055836863
-0.31101918 -0.30992645 0.3359781 0.11561971 0.53501874 0.109777465 -0.07117126 0.5030044
-0.41438875 0.36133218 0.077750295 -0.061936334 -0.35887882 -0.044546902 -0.40294656 0.35673824
-0.42658243 -0.11413767 0.7131462 -0.10153953 -0.47125253 0.23903657 0.2727422 -0.28895664
-0.5126648 -0.6440171 -0.31514844 0.123569116 -0.5708712 -0.48322302 0.28071395 -0.46174735
-0.09685436 0.080883734 0.5236003 -0.10323761 0.07052277 0.44412395 0.20806286 0.5218954
-0.08096998 0.5909675 -0.4149427 0.38506198 0.052637633 -0.051164057 0.62189096 0.3190278
0.053789586 -0.18791987 0.5386025 0.08140555 0.108116485 -0.011635198 -0.31971028 -0.34183782
0.32321608 0.11049265 0.055732522 0.019199958 -0.31553125 -0.043567505 -0.40300673 0.14800352
0.2725045 -0.59560347 0.5561112 -0.12894298 0.54218143 0.5101034 0.29162648 0.56572056
-0.63508844 -0.7091024 0.10585325 -0.29915446 -0.27259383 -0.026785491 -0.40026507 0.023469398
-0.2823816 0.22031224 0.19453014 -0.4264296 -0.2180023 0.0019761694 0.33331904 0.51278967
0.20536126 -0.09937428 -0.081438154 0.5316058 -0.43109328 -0.34046906 0.11350154 -0.3966775

GNN3.bias f4 [2]
00000000: 85c3 fbbc a429 153e
-0.03073288 0.14566666
