trained_models/iS_GNN_Trained_ep_150_bs64_lr_5em04_k_diff_1_kNN_12_kernel_r_0_75_w_0_7em01.pth (torch, 137655 bytes, 6 tensors)

GNN1.Theta1 f4 [54, 96]
000000 cc 4e 6c 3c fd 88 15 3d c7 6b cd bb c3 00 88 3d
       0.0144230835 0.036507595 -0.0062689516 0.0664077
000010 4d 43 59 bc ef 03 02 3c 30 d4 d8 bc eb ca 3b 3d
       -0.013260675 0.007935508 -0.026468366 0.045847815
000020 7e 7c 92 3d 8c 5c d2 bc e9 c2 9c 3d 3e 8a 03 3d
       0.07152651 -0.025678895 0.07654364 0.03211426
000030 b8 b4 66 3d e9 bf 21 3d e3 84 b4 3c 42 6c 09 3c
       0.05632469 0.03948966 0.022036022 0.008387627
000040 33 3a 59 3d 05 39 ea 3c 1c 6f 88 bc 4b 74 0a 3c
       0.05303402 0.028591642 -0.016654544 0.008450578
000050 bf f7 bc bb 9b ff 60 3c 22 d8 c5 bc d4 31 2f 3d
       -0.0057668383 0.013732816 -0.024150912 0.04277213
000060 d5 fb 93 bd 4b d2 d9 bc 2f f5 9e bc 06 84 35 bc
       -0.072257675 -0.026589533 -0.019404022 -0.01107884
000070 53 c6 87 3c 11 40 5c bd 82 1d 7b 3d 8b 4c 32 bd
       0.01657406 -0.053772036 0.061307438 -0.04353003
000080 4b 94 8f 3d f4 be 61 3b 68 2b 15 bd 7e 4a a8 3c
       0.070107065 0.0034446092 -0.03641835 0.020543333
000090 0e ab 01 3c ed 8a 55 3d 74 e4 5a 3c 0e e3 da bc
       0.007914318 0.052134443 0.0133601315 -0.026719596
0000a0 3a 7f 52 3c 80 f6 bf bb 47 77 16 3d 6e fb 11 3d
       0.012847716 -0.0058582425 0.036734845 0.035640173
0000b0 f3 99 25 3d 28 d2 b6 bc 66 1f 0e 3d bb 38 25 3d
       0.04043002 -0.022317007 0.034697913 0.040337306
0000c0 88 33 0c 3d 43 e7 c0 bc 3f 59 7c bd 48 53 52 bc
       0.03422883 -0.023547774 -0.06160855 -0.012837239
0000d0 3b 54 b1 bd 6a e7 b8 3d ba 47 c1 3c bf 88 39 3b
       -0.08658644 0.09028514 0.023593772 0.0028310267
0000e0 99 bd 97 3c fe d3 24 3c b8 13 b6 3c 18 14 11 bd
       0.018523024 0.0100603085 0.0222262 -0.035419554
0000f0 78 88 e0 ba 63 47 37 bd fc 52 c9 3c e2 4a d7 bc
       -0.0017130515 -0.044745814 0.024575703 -0.026280824
000100 8e dd 32 bc e4 87 4c bc 64 19 84 3c be 1c 1e bd
       -0.010917081 -0.012483571 0.016125388 -0.03860163
000110 50 12 0b bd ac 2d eb bc b2 05 4f 3d bf 11 43 3c
       -0.03395301 -0.028708301 0.05054254 0.0119060865
000120 c3 8d 22 3d c5 ad 28 bd 16 e9 58 bd 6a 77 1c bd
       0.039685976 -0.041181345 -0.052956663 -0.03819982
000130 be 4f 5b bd c9 2c f4 3c 66 0c d2 3b bd 27 85 3d
       -0.053542845 0.029806511 0.0064101694 0.0650172
000140 1d ec 05 bd 33 3f 68 bd e4 60 07 3d 13 db c1 39
       -0.03269588 -0.056700896 0.033051386 0.00036975052
000150 29 2e 4f 3d 2a 5e c4 bc 14 b4 97 3c ec ae 40 bd
       0.05058113 -0.023970682 0.018518485 -0.04704182
000160 0d a0 34 bd aa 56 c9 3c 6e c7 0a 3c 81 ac 1c 3b
       -0.04409795 0.024577457 0.008470399 0.0023906531
000170 58 0b 3a 3d 54 96 47 3d b6 0f 46 3b 36 23 20 bd
       0.045420974 0.04872735 0.0030221767 -0.03909608
000180 d9 58 8c 3c 34 7f 7f bd e3 c1 e2 bc 68 e4 b7 bd
       0.01713221 -0.06237717 -0.027680343 -0.08979112
000190 6e 1c 14 bd bb db 3e 3c a2 8d 3c 3c 25 68 96 bd
       -0.036159925 0.0116490675 0.011508377 -0.07344083
0001a0 27 f3 92 3c 24 85 88 bc f7 1e 8f bd 68 ac a2 bc
       0.01793821 -0.016665049 -0.06988328 -0.0198576
0001b0 71 f1 86 bd 9e f0 e2 bc cd b1 91 3d 8a 37 5b 3d
       -0.0658902 -0.027702626 0.07113991 0.053519763
0001c0 f0 de af 3c 98 e1 a5 bd 21 9a 9a bd f4 38 29 bd
       0.02146861 -0.08099669 -0.07548929 -0.04131408
0001d0 4f b3 ee 3c 4a 4d 8f bd 26 e3 13 bd 6f 41 b0 bd
       0.029138235 -0.069971636 -0.036105298 -0.086062305
0001e0 35 a1 95 3c 91 41 f3 bc 1f c7 30 bc cb dd 6e ba
       0.018265346 -0.02969435 -0.010789662 -0.0009112029
0001f0 38 45 50 bd 32 f0 35 bd 3c 45 31 bd b3 9d 44 bd
       -0.050847262 -0.04441852 -0.043278918 -0.048001956
000200 f1 eb a6 3d ba 18 18 bd 7b 1b 53 3d 52 e2 ff 3c
       0.08150471 -0.037132956 0.05153988 0.031235848
000210 e6 39 6d bd 38 02 8b 3d 15 7b 7e 3b cf 4c 7b bd
       -0.057916544 0.067875326 0.0038830687 -0.061352547
000220 87 e7 d6 bd d9 8f 98 bd 31 14 20 3d 4a 97 3a bd
       -0.10493379 -0.07449312 0.039081756 -0.045554437
000230 34 e3 2e 3c 12 d6 1d bd 26 75 a3 3d 28 83 e5 bc
       0.010674287 -0.03853423 0.07981329 -0.028016642
000240 9c 65 92 bc fa 26 38 3d a9 2c 83 3d f5 09 ae 3d
       -0.017870717 0.044959046 0.064050026 0.08497993
000250 74 2c 8d 3d c8 d8 5b bd 27 9d e7 3c bc 55 70 bd
       0.068932444 -0.053673536 0.028273178 -0.058675513
000260 4f 3e 7a bb 50 ea 7c bd b8 59 61 3d 53 e9 36 bd
       -0.0038184111 -0.061746895 0.055017203 -0.04465611
000270 68 22 3c 3d 1c 55 7f 3d 76 c5 1c 3d 8b 1f c8 bc
       0.04593125 0.062337026 0.03827425 -0.024429103
000280 6b 6a 4c 3d 9d 39 cf 3c 71 30 31 bd f4 3e 82 bd
       0.049906176 0.025296027 -0.043259088 -0.063596636
000290 ba 7c 9e 3c 54 0b 2d 3d b8 f7 87 bd 9d e4 3e 3d
       0.019346584 0.04224713 -0.066390455 0.04660474
0002a0 6b 1a e7 bc 06 95 52 bd 7e 2a 83 bb e9 d4 1d 3d
       -0.02821084 -0.05141165 -0.004002868 0.038533125
0002b0 1b 85 73 3d a3 de 87 bb 24 4b 82 bd 4f 99 60 3c
       0.05945311 -0.0041464134 -0.06361988 0.013708427
0002c0 0a 98 8f bd 81 2b f1 3b 3a 3e 3a 3d 77 17 75 bd
       -0.07011421 0.0073599224 0.0454695 -0.05983683
0002d0 33 6f 90 3b e4 f0 2e 3d d0 78 10 bd c1 cd 1b 3c
       0.004407787 0.0427102 -0.035271466 0.009509505
0002e0 94 95 44 3d bc 14 41 3d 25 c9 cc 3c 59 aa 7c 3c
       0.04799421 0.047138914 0.024998257 0.015421473
0002f0 0f 95 8d 3b e1 73 65 3c 19 cf ee 3c 77 e1 1b bd
       0.0043207477 0.014004678 0.029151486 -0.038056817
000300 f8 96 35 bc 9a d5 74 3d ed ea d1 ba cd 89 63 bc
       -0.011083357 0.05977402 -0.0016015448 -0.013887835
000310 82 c8 c2 3c ed 59 a3 bc 00 d2 4a 3d cc 94 ef 3c
       0.02377725 -0.01994034 0.049516678 0.029245757
000320 0d 03 9e bd af 19 7c 3c f5 3c d2 3d e6 db 9b 3d
       -0.07715426 0.015386983 0.10265533 0.07610302
000330 78 66 96 3c 31 a7 c6 bc d3 20 bf bd b2 36 6a bd
       0.018359408 -0.024249645 -0.093324326 -0.057181068
000340 60 28 31 bd 8e 51 47 3d b5 e9 67 3d 02 f0 22 3d
       -0.043251395 0.04866176 0.056619365 0.03977967
000350 41 c6 9d bd 0f 27 2a bd a9 f2 06 bc 0f 14 97 3d
       -0.077038296 -0.041541155 -0.008236566 0.07376873
000360 3d 21 06 3d f0 aa 94 bc 1b ba 1d 3d 0a a5 f0 3c
       0.032746542 -0.018147916 0.038507562 0.029375572
000370 92 e8 3f bd df 89 b7 3d bc 42 60 bd b4 24 46 3c
       -0.046852656 0.08961844 -0.054751143 0.012093712
000380 69 46 d8 bd 22 a8 52 3d db 25 28 3d e4 0a 16 3d
       -0.10560305 0.051429875 0.041051727 0.03663148
000390 29 b8 2e bd 91 ef d3 bd 93 99 50 bd 7b af 5c 3d
       -0.042656098 -0.10348428 -0.05092771 0.05387829
0003a0 f7 cf eb 3c 73 22 e7 3d ae bc 81 3d 5e 88 28 3b
       0.028785689 0.112858675 0.06334816 0.0025716047
0003b0 12 41 f6 bc 10 b0 04 bd fd cf aa bd 38 e8 46 bd
       -0.030060325 -0.03239447 -0.08340452 -0.048561305
0003c0 77 1e 2a 3d c7 d2 d8 bc c8 67 16 bc f9 00 66 bd
       0.04153296 -0.026467694 -0.009180017 -0.05615327
0003d0 c2 a7 2e bd ae 9a 36 bd b8 47 83 bd f7 4b 9c 3c
       -0.042640455 -0.044581108 -0.06410164 0.019079192
0003e0 0f 24 bc bc 98 08 9f 3d 94 c5 90 bd 4f c0 36 bd
       -0.022966413 0.07765311 -0.07068935 -0.044616994
0003f0 fb 19 da bc 20 77 bc bc 5e f2 d5 bc 04 03 88 bd
       -0.026623717 -0.023006022 -0.026116546 -0.066412

GNN1.bias f4 [96]
000000 bf 68 61 3a 3e 29 cd bc ac 18 5e bd 55 f8 59 3d
       0.0008598677 -0.02504408 -0.054222748 0.053215344
000010 28 1c c5 3c a4 01 c5 bb bd f1 55 bc c0 1a 3c 3c
       0.024061278 -0.0060121585 -0.013058123 0.011480987
000020 2c 7e 19 3c 43 97 54 3d e7 0e 4b bd 4d fa dd 3c
       0.009368461 0.051902067 -0.04957476 0.027096892
000030 8d d8 80 3d 79 99 8b 3d d4 4e 4b bd 17 56 62 3d
       0.06291304 0.06816382 -0.049635723 0.055257883
000040 ea 46 7c bd 76 57 18 3d a6 90 f8 3c f1 bf 8b 3b
       -0.061591066 0.037192784 0.030342411 0.0042648246
000050 7c 3c 40 3d 1b a0 a2 bd a6 f5 11 bd 1a 80 3f bd
       0.046932682 -0.07940694 -0.03563466 -0.046753027
000060 95 f3 ac bd 01 13 2d bb bf 68 ad 3d 6d b7 c7 3b
       -0.08444897 -0.0026409032 0.08467244 0.006094864
000070 17 90 6d 3d f6 f4 c6 bd 56 2f 45 3d ad 64 64 3d
       0.057998743 -0.09714691 0.048140846 0.055760074
000080 89 f4 bf 3d 70 a4 0f bd 6e 31 70 bd 3f ba 4d bd
       0.09372813 -0.03506893 -0.05864089 -0.050226446
000090 cc eb 9b 3d 3e 0f ba 3b 7a 43 92 3d 13 98 40 bd
       0.07613334 0.0056780865 0.071417764 -0.04702003
0000a0 a6 63 90 bd 68 a9 ca 3c 72 28 02 3d 67 e0 85 bd
       -0.070502564 0.024738982 0.031776853 -0.06536942
0000b0 d3 6f e8 3d 01 10 58 bc 70 ce 9d bd 2a 3d 9d 3c
       0.11349454 -0.013187409 -0.077053905 0.019194204
0000c0 8f 2c 76 bd 92 d7 34 bd 87 0e 45 bd 6e 38 40 3d
       -0.060101088 -0.044150896 -0.048109557 0.046928816
0000d0 53 bf 3f 3d 73 91 86 3d c2 e3 00 bd d1 c6 d7 bb
       0.04681332 0.06570711 -0.031467207 -0.00658498
0000e0 ba 5c 8e 3d b6 e6 1a bd 2c 9e e6 bc a5 64 dc 3a
       0.0695128 -0.03781768 -0.028151594 0.0016814662
0000f0 57 07 b2 bd ae 05 7a bd 34 89 ca 3d 27 9f a3 3c
       -0.08692806 -0.061040573 0.09889451 0.01997335
000100 9d 69 00 bc 53 9f 16 3d 61 96 42 3d 58 14 51 3d
       -0.00783768 0.036773037 0.047506694 0.051044792
000110 f8 20 c3 3d d8 1c 19 3d 54 8d 7c 3d 44 d9 ae 3d
       0.09527773 0.037381023 0.06165822 0.08537534
000120 69 46 df bc 81 e2 d9 3c 9f 66 18 bd 2b 09 8b bd
       -0.027255254 0.026597263 -0.037207242 -0.06788858
000130 5f cc a7 3d 6b 2a 0e bd 80 df 55 bd 96 2a bd bd
       0.081932776 -0.03470842 -0.0522151 -0.09236638
000140 21 ae 1b bd ff 7a 94 3c dc e3 33 3d af ba 8e bd
       -0.03800786 0.018125055 0.043918476 -0.06969201
000150 be e8 0f 3c ce bd 8e bd 8f 42 8c 3b c3 df 39 3d
       0.008783517 -0.06969796 0.0042803953 0.04537941
000160 0b 2c f6 bc 3f ca b8 bc 66 5b 86 3d 2a 2d 1e bd
       -0.030050298 -0.022557376 0.065604016 -0.03861729
000170 41 dd 43 3b 55 b3 a0 bd 41 89 94 3d 7e b9 3a 3d
       0.0029886516 -0.07846705 0.072527416 0.045587055

GNN2.Theta1 f4 [288, 96]
000000 78 dd 48 bd e2 32 94 3d 65 8d bc 3d 4b 3f 10 3d
       -0.049039334 0.072362676 0.09206656 0.03521661
000010 f1 d0 b1 bd c3 2a cf bc e1 2a bf 3d 06 db 92 3d
       -0.086824305 -0.025288945 0.093343504 0.07170682
000020 d4 7f 0c bd ab b3 8f 3d 75 f6 84 bd c7 7e 97 3c
       -0.034301594 0.07016691 -0.064923204 0.01849307
000030 1a d6 a9 3d af 54 d7 3c a2 11 92 bd 23 b9 aa 3c
       0.0829279 0.026285497 -0.071322694 0.020840233
000040 8d 33 6e 3d 23 b9 87 3d e2 7a 54 bd f1 62 8d bc
       0.05815463 0.06627109 -0.051875003 -0.017259093
000050 b2 0d 5e bb 2b 60 7c bc c8 a3 a8 bc de 39 73 bd
       -0.0033882675 -0.015403788 -0.02058591 -0.05938136
000060 fe c6 aa 3c 4b 0c 4e 3d 65 35 f2 bc e6 e5 9e 3d
       0.02084684 0.050304692 -0.029566476 0.077586934
000070 ce ab ed bb 6c 67 1f 3d 8e 6a d4 3c c7 81 90 bc
       -0.0072531467 0.03891699 0.025929715 -0.017640008
000080 9f 5f 97 bb 54 5e b1 bc 09 d1 1d 3d 44 16 5b bd
       -0.004619553 -0.021651424 0.03852943 -0.05348803
000090 0a 93 77 bd 92 28 a3 bd 7e 0c 34 bd 88 75 ab 3c
       -0.06044296 -0.079667225 -0.043957226 0.020930067
0000a0 23 15 b2 3d 01 24 c7 bd a5 d1 17 bd cc 19 88 3d
       0.08695438 -0.09723664 -0.037065167 0.06645545
0000b0 5c 0f 58 bd 22 c1 84 3d 2b e9 4e bc 2d 63 a0 bd
       -0.052749023 0.0648215 -0.012628834 -0.07831416
0000c0 2f 22 1d 3c 66 57 37 bd 16 0a f3 3c e7 72 9c bd
       0.00959067 -0.044761084 0.029667895 -0.076391034
0000d0 e0 67 b6 3d 68 04 29 bd 13 c7 5e 3d 1d c8 6e bd
       0.08906531 -0.041263968 0.05438907 -0.05829631
0000e0 2c 52 8b bd 60 7e 39 3d 7d 45 8c 3d 1f 9b 73 bc
       -0.068027824 0.045286536 0.06849191 -0.014868527
0000f0 18 ae bc bd 31 46 50 bd fd 5c 9b bd 7d 74 27 3d
       -0.09212893 -0.05084819 -0.075860955 0.040882576
000100 fe 93 12 3d 10 26 85 3d c4 15 b8 3d 28 3e 3b bd
       0.035785668 0.065014005 0.089885265 -0.045713574
000110 0c c9 84 3d 34 36 4d 3d b5 82 66 3c 64 a7 b1 bd
       0.06483659 0.05010052 0.014069249 -0.08674505
000120 33 a4 8c bd 9e 83 00 3d c0 95 61 3d de 31 36 3d
       -0.06867256 0.03137552 0.055074453 0.04448115
000130 e9 56 d5 3a b3 2c 8f bd dd fd a5 bd af 2a 77 bd
       0.0016276512 -0.069909476 -0.08105061 -0.06034344
000140 9b 7c 4d 3b c0 9b aa 3c 7b f4 6e 3d b7 22 68 bd
       0.0031354788 0.02082622 0.058338623 -0.05667373
000150 d5 a0 7c 3d 11 93 8b 3d 47 66 ae bd c4 df 88 bd
       0.06167682 0.0681516 -0.085156016 -0.06683305
000160 cb 59 26 bd 6e 9a bd 3c 0a b4 b4 3d 2e 3c 66 3c
       -0.040612977 0.023144927 0.08823402 0.014052434
000170 1e cf 81 3d 5b a5 82 3d f7 6f cc 3d 24 25 c6 bd
       0.063383326 0.06379195 0.09982293 -0.09675053
000180 85 84 a6 bd 99 ad 37 bc a3 dc 33 bc c1 5c 95 3b
       -0.08130745 -0.0112108225 -0.010977897 0.0045581763
000190 7e 56 9e 3d 05 3f a6 3d 17 0b b8 bc ad 3f 62 bd
       0.07731341 0.08117489 -0.022466226 -0.055236507
0001a0 81 ac 9a 3b 77 46 73 3c 0f e4 7a 3d 12 41 eb 3c
       0.004720271 0.014848343 0.06125265 0.028717551
0001b0 26 76 05 3d 37 e6 12 3d 8a 6c 9e 3d 55 26 60 3d
       0.03258338 0.03586408 0.07735546 0.054724056
0001c0 ce 2e 3c bc a5 a3 9d bd 4e 3c 9e 3d 40 5d 96 bb
       -0.0114857685 -0.07697228 0.07726346 -0.004588753
0001d0 4c ee 92 bd 0f 1e 82 bc 68 f5 94 3d bf 63 80 bd
       -0.07174358 -0.015883474 0.0727337 -0.06269025
0001e0 a2 94 93 bc 05 e2 12 3d 1b 42 7b 3d fd 00 47 bc
       -0.01801521 0.03586008 0.06134234 -0.012146232
0001f0 1d c2 a9 bd e4 c4 27 bd 5c b3 08 bd bb a3 d8 3c
       -0.08288977 -0.040959254 -0.033374175 0.02644526
000200 91 11 91 bd 4a b5 9d 3d 9e 91 f2 3c bd 98 7b bd
       -0.07083429 0.07700594 0.029610451 -0.06142496
000210 b4 59 51 3d 8c 92 b0 3c 54 13 d5 3d 35 ed 52 bc
       0.05111094 0.021554254 0.10404077 -0.012873937
000220 43 c5 3a bb 8b 0c be bd c2 9f a8 bd af e6 92 3a
       -0.0028498925 -0.09279736 -0.082335964 0.0011207665
000230 0c 6d b1 3d ae 32 81 bd 0e 82 7e 3b 48 32 4e bd
       0.08663377 -0.063084945 0.0038834843 -0.05034092
000240 a0 7c ab bd 47 e2 d1 bc 05 6f 67 bd 6c 86 8f bd
       -0.0837338 -0.025620593 -0.05650236 -0.07008061
000250 a5 05 07 bd 48 76 29 bc 7a 52 1f 3d 6c f1 40 3d
       -0.032964367 -0.010343142 0.038897015 0.047105238
000260 47 56 1f 3c 69 31 8a bc 8d de b4 bc fb f1 b0 bd
       0.00972516 -0.016869264 -0.022078777 -0.08639904
000270 54 a1 76 3d 2b 2c 9d 3d 21 ec c5 bd 47 1d b9 bd
       0.06021245 0.0767444 -0.09664179 -0.09038787
000280 8c 33 bb bd f9 8e c5 bc 98 f7 3b bc ed 1d 8a bd
       -0.09140691 -0.024116026 -0.011472605 -0.06743989
000290 31 0c 25 3d d8 af 75 bb 5f 58 42 bd 57 5f b0 bd
       0.04029483 -0.0037488844 -0.04744756 -0.08611935
0002a0 cb 7a 9b 3d aa 90 ae 3d 10 37 e4 bb 12 d7 50 bd
       0.0759178 0.08523686 -0.006964572 -0.050986357
0002b0 27 44 5e 3d c7 ca 6b 3d 0d 4a 05 bc 25 95 cb 3d
       0.054264214 0.05756643 -0.008135331 0.099405564
0002c0 e8 81 9d bd 93 b3 dc bb ab 13 8e 3d 62 f9 4d bd
       -0.07690793 -0.006735274 0.06937345 -0.050286658
0002d0 05 46 b5 bc 3e 12 44 bd bd e2 2d bd 58 a7 ab 3d
       -0.022128114 -0.04786896 -0.042452563 0.08381528
0002e0 15 66 5b 3d 08 13 b6 bd df 09 82 bd 85 15 9b bb
       0.05356415 -0.08890349 -0.06349539 -0.00473279
0002f0 24 71 f9 bc 18 1d 7d bd 6b 99 af bd 85 28 96 3d
       -0.030449457 -0.061795324 -0.08574184 0.07331947
000300 61 25 2e 3d a9 6c cd 3c fd 84 09 bd 5d e5 d2 bd
       0.042516116 0.025076227 -0.033574093 -0.10297654
000310 dc c4 72 bc 42 58 e3 3c 87 11 b6 bc 85 09 94 3d
       -0.014817443 0.027752046 -0.022225155 0.07228378
000320 13 08 a2 3c f5 1c 4d bb 27 4a 1e 3d 3e f6 3a 3d
       0.01977924 -0.0031297777 0.038644936 0.04564499
000330 c0 b6 97 bd 49 c9 08 3d ec 2d bb bd 9f d7 e0 bc
       -0.07407904 0.033395085 -0.09139618 -0.027446566
000340 64 76 0d bd fb cf 93 3d 81 0a b8 bd 13 d0 23 3d
       -0.034536734 0.072174035 -0.089863785 0.039993357
000350 66 a6 bb bd aa d6 39 3d 9f 66 b9 3c 0b 1f 65 bd
       -0.09162597 0.045370735 0.022631941 -0.055937808
000360 c8 fe b3 3c 9d 8a cb 3d 07 29 4d 3d 93 51 b8 bd
       0.021972075 0.09938548 0.050087955 -0.08999934
000370 e1 93 13 bd 65 18 c1 3d 75 ac 7b 3c f1 81 e4 3c
       -0.0360297 0.09428481 0.015360941 0.027893992
000380 b2 53 bc 3b bd e9 47 bd 0e 92 c4 bc 57 97 9a 3c
       0.005747282 -0.048806895 -0.023995426 0.018870993
000390 04 df 93 3d a8 8b 4a bc e5 89 b8 bc 24 fe 0c 3c
       0.07220271 -0.012362398 -0.02252669 0.008605514
0003a0 e2 2a 1f bd a6 01 c2 3d 7e 44 a1 3d b3 87 a5 3b
       -0.038859256 0.09472971 0.07874392 0.005051577
0003b0 b6 20 87 bd 13 3e ea 3c 67 4a 90 3d c4 9e 5b 3d
       -0.06598036 0.028594052 0.07045441 0.053618208
0003c0 8e 43 1c 3d 25 81 2c bd a1 b0 b5 bd 71 b8 c4 bc
       0.038150363 -0.04211535 -0.0887158 -0.02401373
0003d0 61 f4 d4 3a 37 16 c1 3d 63 e7 19 3c 25 ca 97 bc
       0.0016247147 0.09428065 0.009393546 -0.018529007
0003e0 9e e4 6e bc dc 2f 56 bc e8 6a 62 bd 3b 87 39 bd
       -0.014580874 -0.013072934 -0.055277735 -0.04529498
0003f0 ac c5 06 3c 7d 75 5e 3d 56 c9 ab 3d e8 ea 3d 3d
       0.00822584 0.054311264 0.08388011 0.046366602

GNN2.bias f4 [96]
000000 96 21 af bc 0f 31 1c bd 1b f7 33 3a 43 d3 63 3d
       -0.02137832 -0.038132723 0.00068651297 0.055621397
000010 8b 75 ad bb 84 c4 54 3c f3 e0 11 bc 17 bd 78 bc
       -0.005293553 0.012986306 -0.00890373 -0.015181801
000020 5b 98 b6 3c 4b ce 52 bd 09 ce 0a 3d 7a d6 51 3d
       0.022289446 -0.051466268 0.033887897 0.05122993
000030 62 a9 d2 3c 14 e1 86 bb 76 95 bb bb 9d c8 d4 bc
       0.025715534 -0.004116187 -0.0057246042 -0.025974566
000040 19 9e 3d 3d 46 77 05 3c 46 98 bd 3c 27 cf fc bc
       0.04629335 0.008146113 0.023143899 -0.030860497
000050 57 75 d1 3c b1 e7 e5 bb c1 80 71 3d b8 8a 46 3d
       0.025568647 -0.007016145 0.05896068 0.048472136
000060 09 11 d8 bc bc a1 82 bd 2e 43 26 bd c5 ad 6d bc
       -0.02637531 -0.06378505 -0.04059141 -0.014506762
000070 9b a7 ae 3b 02 62 46 bd fc da 29 3d 15 9f 40 bd
       0.0053300387 -0.04843331 0.041468605 -0.047026712
000080 58 6a 7c bc cc 6e 1c 3c 9a 4e 63 bc 3e f1 c2 3b
       -0.015406214 0.0095479 -0.013873721 0.0059491685
000090 45 d7 18 bd 9c 44 2b bd a9 92 95 bb dd 07 a2 bb
       -0.037314672 -0.041813478 -0.0045646024 -0.004944785
0000a0 1d 69 3b 3d 82 ff de bc 75 a6 18 3d 23 44 39 3d
       0.04575454 -0.027221445 0.03726812 0.045230996
0000b0 4a 49 63 bc 51 10 e8 bb b3 37 92 3c 52 31 a0 bc
       -0.013872454 -0.007082023 0.017848825 -0.019554768
0000c0 ae 77 8a 3c 46 f2 a5 bc 66 11 6f ba b9 3d bb bc
       0.01690277 -0.020257127 -0.0009119719 -0.02285658
0000d0 5b 13 48 3d 00 cd e3 bc 5c fa d6 bb 01 21 8a 3c
       0.048846584 -0.027807713 -0.006560607 0.01686144
0000e0 78 a1 00 bd 8c fa 78 3c e5 d4 1d 3d 92 d0 37 3d
       -0.03140399 0.015196454 0.03853311 0.044876643
0000f0 91 d0 59 3d 54 6b e6 bc 03 3b 9c 3c 9e 48 58 bb
       0.05317742 -0.02812735 0.019071108 -0.0033002268
000100 f2 b3 c5 bb d0 16 17 bd 2b 01 58 bc 25 d5 93 3b
       -0.006033414 -0.03688699 -0.013183872 0.004511493
000110 de c5 33 3d 20 06 fd bc 18 65 03 3d c8 e9 51 3d
       0.043889873 -0.03088671 0.032078832 0.05124834
000120 1f bb 92 bc e0 f3 25 3c fd 1d e6 3c 1d 83 16 bd
       -0.017911492 0.010128945 0.028090471 -0.036746133
000130 7c b9 51 3c af 64 88 3d a8 5c e1 bc 99 05 01 bd
       0.012800571 0.06659829 -0.027510002 -0.03149948
000140 ba 50 15 bd d4 dc 9f 3c 61 bd da bb e5 d2 de 3b
       -0.03645394 0.019514479 -0.0066754078 0.006800043
000150 e6 ce 77 bc ac 4f c2 3c d0 ee 42 3d 8e bb 84 3c
       -0.015125012 0.023719631 0.04759103 0.016202714
000160 9c 0b 34 bd 50 f6 01 3d 79 5d 4e 3d 97 17 44 3c
       -0.043956384 0.031729043 0.05038211 0.011968515
000170 2a fc 39 bc e0 2b 92 3c cd c3 0e 3b 39 9d 1f 3d
       -0.0113516245 0.017843187 0.0021784187 0.0389683

GNN3.Theta1 f4 [288, 2]
000000 4d 51 10 bf 07 34 ca 3d e1 ba 01 3e f3 e2 16 3e
       -0.56374055 0.09873205 0.12668945 0.14735012
000010 bb 31 e3 bd e0 c2 a3 bd 4f ce 1c bf 0e ac da bd
       -0.1109347 -0.07996154 -0.612523 -0.10677348
000020 7d 5a 07 bf 36 aa 0c 3f cf a2 b0 3e bc 7e 51 3e
       -0.5287245 0.5494722 0.34499213 0.20458502
000030 76 a5 a5 be 59 8f 7e be c2 0f ea 3d b8 ce b5 bd
       -0.323528 -0.2485937 0.11428787 -0.08877319
000040 7a c2 bd 3c 53 e7 d4 3d 0c 88 6e bd 78 e1 01 bf
       0.023164023 0.10395684 -0.058235213 -0.50734663
000050 12 7a 1c 3f 7c 89 52 be fb f0 05 3d 9a 5f bc be
       0.61123765 -0.20560259 0.03270052 -0.36791688
000060 98 d7 0c 3f 49 67 a9 be 92 5f a5 3e c0 ff 85 3e
       0.5501647 -0.33086613 0.32299477 0.26171684
000070 e4 53 40 be 60 d1 1b 3e 9d 82 e0 be 53 da 14 bf
       -0.18782002 0.15216589 -0.4384965 -0.58145636
000080 fd 1a e8 3e 30 5f f7 3e 7b 7a 03 bf af d3 49 be
       0.4533309 0.4831481 -0.51358765 -0.19709657
000090 a0 41 29 bf 24 e9 09 bf 2b 7b ba 3d ff 8c 08 be
       -0.6611576 -0.5387137 0.09105524 -0.13335036
0000a0 1b 59 27 3f ac 6b 10 3f f7 e6 cb be 93 9b 00 3f
       0.6537034 0.56414294 -0.3982465 0.5023739
0000b0 15 3d db 3e 01 5a 0f 3f 26 8e 35 be 19 09 c9 bd
       0.4282004 0.5599671 -0.17730007 -0.09816188
0000c0 b3 22 ac be c7 0a bc be 02 ca 2d 3f cc 6a fe 3e
       -0.33620223 -0.36726972 0.67886364 0.49690855
0000d0 57 e4 2b bf 1e 38 a6 3e a0 2b 70 be ca 15 10 bf
       -0.67145294 0.3246469 -0.23454142 -0.5628325
0000e0 f6 c0 ac 3e ff d2 a8 3d 45 2f 3e be 75 94 2b 3f
       0.33740968 0.08243369 -0.1857272 0.670234
0000f0 b9 ff ea be 36 bc de 3e cf 22 d2 3e 65 0e a7 be
       -0.45898226 0.4350297 0.41042182 -0.3262817
000100 bf b7 b8 3e 89 72 a7 be e7 10 ce be 2c 67 09 3f
       0.36077687 -0.3270457 -0.4024727 0.5367305
000110 40 bb 03 3f 3e 42 d3 be 8e 9f 1a 3f 91 f8 1c bf
       0.51457596 -0.41261476 0.6039971 -0.6131678
000120 b6 e2 7e 3e a6 1f 0d bf c2 84 36 be 86 51 06 bf
       0.24891171 -0.55126417 -0.1782408 -0.52468145
000130 84 48 08 3f 38 84 b1 be 93 84 1c bf b3 09 af be
       0.5323565 -0.34671187 -0.6113979 -0.34187087
000140 92 55 e8 3e 03 18 6a 3e 1e 89 95 3e e8 38 f6 3e
       0.45377785 0.22860722 0.29206175 0.4809029
000150 8e 81 fc bd 95 e0 e2 3e 17 85 19 bf 4e ff fd be
       -0.12329398 0.44311967 -0.59968704 -0.49608845
000160 4a 82 de 3e 66 d3 e0 be da fc 0b 3e 8f 67 1a 3e
       0.43458778 -0.43911284 0.13670674 0.15078567
000170 a9 e5 b3 3e be f8 ec 3e 9e 0a f4 3d 91 7b eb bd
       0.35136154 0.46283525 0.119160876 -0.11498178
000180 aa 02 00 bf 9f 34 a1 be 4f 77 8d bd 74 62 a8 3e
       -0.50004065 -0.3148546 -0.06907522 0.32887614
000190 d8 5a a5 be 88 b1 1f be 03 a3 92 3c b1 85 c7 bd
       -0.3229587 -0.15595067 0.017899996 -0.097422965
0001a0 85 07 ed be 12 c0 a4 3e f3 c3 fd 3d 56 bd 02 3f
       -0.462948 0.32177788 0.1239089 0.51070154
0001b0 39 c5 e4 be 72 3f 58 3b 38 a4 93 3e a6 b8 ac 3e
       -0.4468172 0.00329968 0.28836226 0.33734626
0001c0 08 fc ef be aa 80 a5 be ef 1e ba 3c f4 3d b0 be
       -0.46871972 -0.32324725 0.022719828 -0.34422266
0001d0 bd f4 08 bf b1 a5 41 3e c7 53 e0 3e 33 fb 15 bf
       -0.5349844 0.18910863 0.43813917 -0.58586425
0001e0 fc 94 2a be 6e 6e 26 bf 63 3f 33 3e ce 4a 89 3e
       -0.16658396 -0.6501225 0.17504649 0.26814884
0001f0 6f 4d 18 bf da 93 5a 3e a8 ef 3f be ea 19 9c bd
       -0.59493154 0.21345463 -0.18743765 -0.0762213
000200 6a 8c f8 be cf 88 0c bd 63 4d bf 3e ed f2 ad be
       -0.48544627 -0.03431016 0.3736373 -0.339744
000210 d0 04 55 be 5f 61 c5 be b1 4d 99 be 28 ee 1b 3f
       -0.20802617 -0.3855085 -0.29942086 0.6091027
000220 c8 21 02 3f 4a 2b 9a be 65 32 1e 3f cd 97 5d 3e
       0.50832796 -0.30111152 0.61795646 0.21639939
000230 4c ec 24 3e 27 cb 15 bf cc 3c 79 be bf 99 14 3f
       0.16105765 -0.5851311 -0.24339598 0.580471
000240 78 0d dc 3e 02 ed ac 3e 88 06 be be 5f 13 4d be
       0.42979026 0.33774573 -0.37114358 -0.2002692
000250 36 e2 85 3e 28 70 5b 3e 9b 3b 05 be 57 cd 98 be
       0.26149148 0.21429503 -0.13011019 -0.29844162
000260 f9 a9 fa be 0c ee 01 bf 2d 5a 58 be 51 83 db 3e
       -0.48957804 -0.50753856 -0.2112815 0.42873624
000270 b3 62 7f be 7a 1c 71 3e 0d 96 d0 be 00 cb 22 bc
       -0.24939995 0.23546019 -0.4073948 -0.009936094
000280 fa cd aa be 2d e9 a0 be aa 4d ae 3e 9b 84 04 3e
       -0.33360273 -0.314279 0.34043628 0.1294121
000290 ec e9 0a 3f 39 f6 fb 3d e2 29 82 bd 5a 29 04 3f
       0.54263186 0.123028226 -0.06355645 0.516256
0002a0 a5 30 d8 be 07 00 ba 3e ff c6 87 3d 70 8b 5f bd
       -0.42224613 0.36328146 0.06629752 -0.054576337
0002b0 39 9c bd be 3f 51 18 bd 0f ac d3 be e8 18 bd 3e
       -0.3703325 -0.037186857 -0.41342208 0.36933064
0002c0 a9 c6 e0 be a6 94 cb bd ff 61 33 3f 9a c7 b1 bd
       -0.43901566 -0.09940462 0.70071405 -0.08680649
0002d0 53 39 f6 be 64 53 71 3e 83 1c 86 3e ff 8e 94 be
       -0.4809061 0.23566967 0.26193628 -0.29015347
0002e0 1c 02 06 bf ec 2c 25 bf 3e 1b a4 be 33 39 e8 3d
       -0.5234697 -0.6452167 -0.32052034 0.11339035
0002f0 bf 90 14 bf 35 20 fb be 57 e1 8a 3e 53 21 f0 be
       -0.58033365 -0.4904801 0.27125046 -0.46900424
000300 f0 ed a1 bd 2d f3 d4 3d 4f c5 09 3f 01 61 a2 bd
       -0.07906711 0.103979446 0.53816694 -0.07928658
000310 af 43 ae 3d 9b a7 ef 3e d4 65 51 3e 98 fa 06 3f
       0.08509003 0.4680756 0.20449 0.52726126
000320 4e e5 ad bd 9a 38 1a 3f 95 77 d6 be df 04 cb 3e
       -0.08491002 0.6024262 -0.4188811 0.39652154
000330 8a 83 64 3d f6 f6 3d bd 4f 72 20 3f d2 03 a6 3e
       0.055789508 -0.0463781 0.6267442 0.3242479
000340 c9 33 70 3d e9 15 3b be 42 c6 0a 3f ce 4a b0 3d
       0.058643136 -0.18270077 0.5420877 0.08608018
000350 75 b6 ef 3d ee a3 e1 bb 6f 1e 9f be 0d 97 ac be
       0.11704723 -0.006885997 -0.31077906 -0.33708993
000360 68 8b a5 3e 59 54 d9 3d ad 24 7b 3d ae 49 76 3c
       0.3233292 0.10611791 0.061314274 0.015032215
000370 ba b1 9e be f6 85 43 bd d6 a3 cc be 6f 2a 12 3e
       -0.3099497 -0.047735177 -0.39968747 0.14274
000380 f0 9b 8a 3e cd f0 18 bf 4a e8 0d 3f f9 e6 05 be
       0.27072096 -0.5974243 0.5543257 -0.1307639
000390 cb 67 09 3f a9 c5 04 3f 8b dc 94 3e ff 7b 14 3f
       0.53674 0.51864105 0.2907451 0.58001703
0003a0 ff ce 22 bf cd de 31 bf 2e df d4 3d eb 11 98 be
       -0.635971 -0.6948059 0.10394131 -0.2970117
0003b0 91 16 8c be 81 08 e0 bc b1 74 cd be d9 a7 bb 3c
       -0.27360967 -0.027347805 -0.4012809 0.022907184
0003c0 d9 b9 99 be 66 f4 60 3e d1 cb 32 3e 42 17 d8 be
       -0.30024603 0.2196823 0.17460562 -0.42205244
0003d0 05 a3 73 be 6c 33 d0 3b ac 42 a9 3e 9f 1f 06 3f
       -0.23792656 0.006353786 0.3305868 0.52392
0003e0 7a b3 55 3e 9f c4 b3 bd 80 f6 9f bd 5a 0f 0b 3f
       0.20869246 -0.08777737 -0.07810688 0.543203
0003f0 74 0a e1 be 5c 5e aa be 99 40 d4 3d 53 cc c9 be
       -0.43953288 -0.33275115 0.103638835 -0.394137

GNN3.bias f4 [2]
000000 63 4b 51 bd c0 0d 3c 3e
       -0.051097285 0.1836462
