trained_models/iS_GNN_Trained_ep100_bs64_lr5em04_z96_k2_kNN_10_ramps_30.pth (torch, 222367 bytes, 6 tensors)

GNN1.Theta1 f4 [80, 96]
000000 6b b3 15 3c 14 61 91 3d b6 d9 5f 3a d1 3a ab 3d
       0.009137015 0.07098594 0.00085392164 0.08360828
000010 1d cf 80 3c 04 52 c6 3c 82 55 0b bd ab 04 67 3d
       0.01572376 0.02420903 -0.034017093 0.056400936
000020 9f b6 9e 3d 4c 3f 88 bc fb 88 ab 3d dd 78 d7 3c
       0.07749676 -0.016631745 0.08375736 0.02630275
000030 94 3a 73 3d b5 8a 6e 3c 71 71 a6 3b b7 ad 73 bb
       0.059382036 0.0145594375 0.0050794412 -0.00371824
000040 d8 b1 49 3d 61 92 f4 3c 17 2d 5f 3b c0 2d 9c 3c
       0.04924187 0.029854955 0.0034053975 0.019064784
000050 b1 15 fa bc e0 8c 77 bb 52 2c 10 bd ba 03 20 3d
       -0.030527921 -0.0037773177 -0.035198517 0.039066054
000060 ce 3d d0 bc 74 bd 02 bd 0a 31 fc bc b9 26 00 bd
       -0.025420096 -0.031918958 -0.030785102 -0.03128693
000070 09 e5 47 bc ee 11 92 bd 82 04 92 3d ca 2a 21 bd
       -0.012200602 -0.07132326 0.07129766 -0.039347447
000080 3d 34 eb 3c 2e 06 3b 3c f1 d9 45 bd 83 19 aa 3c
       0.028711433 0.011415048 -0.04830355 0.020764118
000090 59 9e 3a 3d 97 1e 4c 3d fa 7e 2e 3c de e8 d4 3b
       0.04556117 0.04983386 0.010650391 0.0064974865
0000a0 a5 4d 83 3d 65 2c 38 3c 99 4b 1c 3a 9e cc 74 3d
       0.06411294 0.011241053 0.00059621927 0.05976545
0000b0 06 1c 5a 3d 0a d9 c6 3c 6f e3 89 3c 36 6f 26 3d
       0.05324938 0.024273414 0.016832082 0.040633403
0000c0 b8 af b5 3c 76 09 77 bd e0 8b 65 bd 6f ed 48 bd
       0.022178516 -0.060311757 -0.0560416 -0.04905456
0000d0 4e 0e 8c bd 66 94 96 3d 0f 53 72 3c 33 3a 5b 3d
       -0.06838666 0.073525235 0.0147903105 0.0535223
0000e0 fb 75 1f 3d f8 f4 2d 3d c1 c2 bd 3c 57 76 9e bb
       0.038930874 0.04246995 0.023164155 -0.0048358846
0000f0 3e 12 d8 3c 53 20 6a bd 61 f9 af bc 65 3f a2 bc
       0.026375886 -0.057159733 -0.021481218 -0.01980562
000100 06 53 b0 ba 5b af 21 bd ec 06 87 3d ea cb d7 bc
       -0.0013452477 -0.039473873 0.06593117 -0.026342351
000110 74 2c 79 bd 8c 2a 1f bd 2b 4f a1 3d f7 04 ef bc
       -0.06083341 -0.038858935 0.07876428 -0.029177172
000120 db 75 7c 3d a3 80 4f bc d1 a2 34 bc 01 07 91 bd
       0.061635833 -0.012664947 -0.011025147 -0.07081414
000130 57 80 86 bd 95 66 13 3d 7e ab 09 3d 5f 55 73 3d
       -0.06567448 0.0359865 0.033610813 0.059407588
000140 5e df ec 3c 2f 9e 4d bd d5 77 91 3b 37 7a cd bb
       0.028915104 -0.050199684 0.004439334 -0.0062706727
000150 99 e1 20 3d f7 13 aa bc 9c 55 8e 3d 3b 49 a8 bc
       0.039277647 -0.020761473 0.069499224 -0.020542732
000160 13 ff c3 bc 9f 56 97 3a fa 00 c2 3b 5c 3f d4 3b
       -0.02392534 0.0011546201 0.0059205266 0.0064772796
000170 ac 71 c3 3c 5d d5 50 3d 5a 20 5e bd 9b 85 11 bd
       0.023857914 0.05098473 -0.05423007 -0.035527807
000180 6a 8c cd 3c a8 dc 88 bd d4 11 15 bb 5d 22 a6 bd
       0.025091369 -0.06682712 -0.0022746222 -0.08112023
000190 1c a3 05 bd 67 91 2e 3d 2b c5 95 3a 9b e7 80 bd
       -0.032626256 0.042619135 0.0011426558 -0.06294175
0001a0 7f 9a 85 39 14 63 0a bd 82 c6 d6 bd 34 26 13 bd
       0.00025482845 -0.033785895 -0.10487081 -0.035925105
0001b0 13 76 a1 bd 1e df 30 bd 46 c9 96 3d 1c 25 47 3d
       -0.07883849 -0.04318153 0.073626086 0.048619375
0001c0 c9 78 a8 3c d3 d7 d9 bd a9 74 18 bd 4d 8c 40 bd
       0.020565407 -0.10636868 -0.03722063 -0.0470088
0001d0 fa db 4b 3d 83 d7 46 bd 74 41 ce bc 01 b1 b6 bd
       0.049770333 -0.04854537 -0.025177695 -0.089204796
0001e0 31 b8 3a 3d 22 bc df bc 87 26 9e bc f6 da 0a bd
       0.045585815 -0.027311388 -0.01930548 -0.033900224
0001f0 7d 05 ab bd 7d 8b 7d bd 9b 64 4b bd f1 73 dd bc
       -0.08350656 -0.061900605 -0.04965649 -0.027032824
000200 c4 df 97 3d 4f 3a 07 bd 05 40 76 3d 7a 2d 1d 3b
       0.07415727 -0.03301459 0.060119648 0.0023983405
000210 00 1a 26 bd 94 e6 9f 3d 53 d5 93 3c 20 8b c0 bc
       -0.04055214 0.07807651 0.018046057 -0.02350384
000220 cb ab 9e bd e4 d3 a0 bd 85 21 e3 bb 43 88 12 bd
       -0.07747611 -0.07852915 -0.006931486 -0.03577448
000230 2d c4 3a 3d 5e 0e 78 bc e9 e4 2e 3d 5f 97 f1 bc
       0.045597244 -0.015140144 0.042698774 -0.029491125
000240 e2 3d 03 bd 1c c6 97 3c e2 08 c5 3d 02 60 95 3d
       -0.032041438 0.018527083 0.09620835 0.07293703
000250 d2 93 d7 3d 0a 0e 8d bd 86 c8 0e 3d 22 d8 02 bd
       0.10526241 -0.06887443 0.034859203 -0.0319444
000260 b8 9b 8d 3c 0d 3e 54 bd 10 22 35 3d 47 9c ec bc
       0.017286167 -0.05181699 0.044221938 -0.028883113
000270 07 55 6b 3d f7 38 5b 3d 83 41 c9 3c 6d 32 40 bd
       0.057454135 0.053521123 0.024567371 -0.04692309
000280 02 bf ee 3c 4e 10 fe 3c 8d ea 96 ba 7f 32 40 bd
       0.029143814 0.031013634 -0.0011513993 -0.046923157
000290 b4 b0 21 3d 58 09 98 3c 16 13 7d bd 56 84 2f 3d
       0.039475158 0.018559143 -0.06178578 0.042850815
0002a0 7a 1c 51 b8 40 9f 00 bd ef cb 4c 3c 1b 87 62 3c
       -4.9856004e-05 -0.031401873 0.012499793 0.013826157
0002b0 f3 cd 51 3d 2a f0 e6 bc 2c 87 90 bd f4 9b ec bb
       0.0512218 -0.028190691 -0.07057032 -0.0072207395
0002c0 97 f8 de bc 65 1e 28 3d 21 1b 0b 3d 73 74 6f bd
       -0.027218146 0.04104461 0.03396142 -0.058460664
0002d0 40 c6 1e 3c f0 e7 e8 3c e7 d6 9a 3b 8e fd 87 3c
       0.009690821 0.028430909 0.0047253254 0.016600396
0002e0 7a 7f 6a 3d 17 ac 20 3d 8c a4 d7 3c c0 56 45 3c
       0.057250477 0.039226618 0.02632358 0.012044609
0002f0 e0 2a 22 bd 7a c6 96 3c c2 21 8a 3c f3 36 19 bd
       -0.03959167 0.018405188 0.0168618 -0.03740592
000300 3a c3 0b 3d 18 5a 1e 3d d7 e9 c2 3c 60 2e ba 3c
       0.03412173 0.03866014 0.023793144 0.022727191
000310 e4 ba fd 3b e6 d9 8d 3c 95 ab ea 3c bb 25 51 3d
       0.0077432264 0.017315816 0.02864627 0.051061373
000320 6c 01 a2 bd 0d 3d 36 bd a4 ce 5c 3d 63 48 8d 3d
       -0.079104275 -0.044491816 0.053908005 0.06898572
000330 1d 84 25 3d 86 d5 b5 bc db 8d 4a bd 17 54 4b bd
       0.040409196 -0.022196542 -0.04945169 -0.04964074
000340 3e ba 4a bb 95 7a 2e 3b 95 e2 32 3d c6 f3 ee 3c
       -0.0030933763 0.0026623358 0.043673117 0.029168975
000350 91 45 36 bd b7 66 1b 3c 24 c3 94 3c c8 95 aa 3d
       -0.044499937 0.009484938 0.018159457 0.0832935
000360 b3 7b 01 3d 09 c5 03 bd 3d 03 df 3c 79 85 38 bc
       0.03161211 -0.03217033 0.027223224 -0.011262291
000370 17 43 84 bd b2 28 e1 3c a6 e6 3d bd 05 21 5b 3b
       -0.06458109 0.027485225 -0.04636254 0.003343643
000380 26 22 2f bd e7 ac 53 3d 36 c5 66 3d 82 9f 49 3d
       -0.042757176 0.051678564 0.05634042 0.049224384
000390 4a 7b cc bc d3 9d 59 bd 3f ec a4 bc 88 ba 1f 3d
       -0.024961133 -0.05312903 -0.020132182 0.03899625
0003a0 82 70 62 3c d3 28 89 3d 1c 49 17 3d ea d9 22 3d
       0.013820769 0.0669724 0.036934957 0.0397586
0003b0 cd 77 81 3c 4f e3 24 bd bb 3a a9 bd fe 8a 1d bd
       0.015804196 -0.04025584 -0.08263155 -0.03846263
0003c0 ea 59 3f 3d 49 6a 6f bd 71 6a d2 3a 1e 63 83 bd
       0.046716608 -0.05845097 0.001605345 -0.064153895
0003d0 5c 4e 3c bc 2d 24 cc bc 02 72 00 bd ae 5e 1f 3d
       -0.011493292 -0.024919594 -0.031358726 0.038908653
0003e0 b3 0f c8 3b ba aa 10 3d d6 23 04 bd 99 35 98 bd
       0.006105387 0.035319068 -0.03226074 -0.07432098
0003f0 13 68 1b bd 82 c0 1b bd 64 ce 36 39 67 a9 cf bd
       -0.03794105 -0.038025387 0.00017433759 -0.10139733

GNN1.bias f4 [96]
000000 90 e8 a3 bd 44 7b aa bd 81 29 1b bd dd 1c 81 3d
       -0.08003342 -0.08324292 -0.037881378 0.06304333
000010 24 81 56 3d 58 fd 16 3d 89 96 bf bc b3 5b 82 3d
       0.05236925 0.0368627 -0.02338721 0.063651465
000020 f2 4d 2b bd 38 d9 15 3b bb 74 a4 bd 96 02 c2 3b
       -0.04182238 0.0022865068 -0.08030077 0.0059207184
000030 01 1c aa 3c ac 9a a4 bd 7e bd 9d 3d 80 1f 6b bc
       0.020765306 -0.08037314 0.077021584 -0.014350772
000040 bb 16 b7 3d 75 d3 1b bd b3 b9 0b bc 34 f0 eb bc
       0.08939882 -0.038043458 -0.008528161 -0.028801061
000050 d2 0b c9 3d a5 27 0f bd c9 b5 21 3d 7a 96 84 bd
       0.09816708 -0.034949917 0.039480004 -0.064740136
000060 0c ed 5f 3d 64 5e 88 bd 10 06 1f bd b3 ea 25 bd
       0.054669425 -0.066586286 -0.03882414 -0.04050703
000070 6e 8a 01 bd ec b9 44 3b 24 da 8f 3c 16 f3 82 3d
       -0.031626157 0.0030018045 0.017560072 0.06394021
000080 31 b4 37 3d da 3a 3f bd 7f 1f bb 3d dd c4 04 3c
       0.04484958 -0.046686985 0.09136867 0.0081035765
000090 d3 72 88 bd 41 ca 11 3d 2a ff 0a bd d9 43 d6 3d
       -0.06662526 0.035593275 -0.03393475 0.1046216
0000a0 5c fd 82 3c a0 51 51 3d 3c 26 e9 3c d8 eb 52 bd
       0.015989952 0.051103234 0.028460614 -0.05149445
0000b0 cf 14 f9 3c 0e c9 34 bd 6c 64 ef bc 09 90 37 bd
       0.03040543 -0.044137053 -0.02922269 -0.044815097
0000c0 5d 93 9a bd ea 1b 11 3d 3e c8 91 3d f7 ca af bd
       -0.075476386 0.03542701 0.07118271 -0.08583634
0000d0 55 d5 2e 3d 59 a1 a1 bd 65 d9 d9 bd ad d9 f5 3c
       0.042683918 -0.07892103 -0.10637168 0.030011022
0000e0 f0 1e f3 bc 8d 08 51 bd 7b 8f 9d 3d 47 ac a9 3c
       -0.029677838 -0.051033545 0.07693382 0.020712031
0000f0 9a ed 88 bd 8b 9d 44 3d cc 86 62 3c ec f6 14 bc
       -0.06685944 0.048001807 0.013826083 -0.009092074
000100 bb 94 aa bd 89 2e b0 bb b0 b2 01 3d d0 57 4c bd
       -0.08329149 -0.005376641 0.03166455 -0.049888432
000110 05 df 80 3d f8 b8 cb bd c0 d2 25 bd 98 89 0e bd
       0.062925376 -0.09947389 -0.04048419 -0.03479919
000120 74 27 a9 bd fc 9b 39 3d e8 74 3f bd 21 9e 8e 3d
       -0.08259478 0.045314774 -0.04674235 0.069637544
000130 e8 8e a8 ba 44 1b 87 3b 62 b0 1b bd 02 91 bf bc
       -0.0012859972 0.0041231234 -0.03801001 -0.023384575
000140 12 39 15 3d fe 99 cb 3d 70 99 6e bd 7b a3 38 bd
       0.03643138 0.09941481 -0.0582518 -0.045077782
000150 16 0f 8e bc f2 15 3e bd 1d 9a d9 bc 3d 42 af bd
       -0.017341178 -0.046407647 -0.026562745 -0.08557556
000160 65 75 61 3d e8 77 ad 3d b0 ba 96 bd bf aa e4 3d
       0.055043597 0.08470136 -0.073598266 0.1116538
000170 cd 8a 0c 3d fc 86 3e bd 62 18 06 3d b0 f6 95 bd
       0.03431206 -0.04651545 0.032738097 -0.073224425

GNN2.Theta1 f4 [480, 96]
000000 b5 42 ac bd e3 61 a4 bd 86 04 a6 bc 6f 05 d9 ba
       -0.08411161 -0.08026483 -0.020265829 -0.0016557405
000010 19 62 ad 3c 6e b3 6b 3c e5 6a 08 bd 32 47 8d bd
       0.02116494 0.014386041 -0.033305068 -0.06898345
000020 5e 3d 88 bc 90 ed 9e 3d d0 4a 10 3d ab e3 9e 3d
       -0.016630825 0.07760155 0.035227597 0.07758268
000030 14 2d 0e bd 10 f5 a2 3c 61 79 c1 bd 86 51 34 3d
       -0.03471096 0.019892246 -0.09446979 0.04402306
000040 7b 26 18 bc 04 fb 0d 3c 2c fe 48 bd 24 e5 91 bd
       -0.009286518 0.008665804 -0.049070522 -0.07123783
000050 7c 8b 11 bd 3f 74 f4 3a 05 04 14 bd 59 c3 8f 3c
       -0.035533413 0.0018650367 -0.036136646 0.017549204
000060 c1 bc a1 3b ca f8 08 3c c0 4e b9 bd d3 98 4d 3d
       0.0049358313 0.008360097 -0.090482235 0.050194573
000070 05 c8 2c bd ce d2 6c bd ba 57 3f bd 9a 54 aa bd
       -0.04218294 -0.057818227 -0.046714522 -0.08316918
000080 94 0b 85 bd 9d 47 79 3d bb d4 72 3d f4 62 83 bd
       -0.06496349 0.06085931 0.059284907 -0.06415358
000090 dc 36 0e 3d 0f 54 40 bd 37 ed c9 3d b8 4a 84 3d
       0.034720287 -0.046955165 0.09859698 0.06459564
0000a0 2b 34 18 3d cc 58 8e bd 55 97 48 bd cd f1 66 bc
       0.037159126 -0.069505304 -0.048972446 -0.014095736
0000b0 52 49 cf bd e1 75 3e bd 56 63 b4 3c b6 fe 98 bd
       -0.101214066 -0.046499137 0.022020023 -0.07470457
0000c0 39 58 57 3c 2c 29 27 bc 3d d0 02 3d f5 77 49 bd
       0.0131435925 -0.010202687 0.031936873 -0.049186666
0000d0 b8 1a 07 bd ff 38 8e bd 8f c1 8f bd 45 50 25 3d
       -0.032984465 -0.06944465 -0.0701934 0.040359754
0000e0 ba b2 e4 bc 17 b1 c6 3d 23 fd 86 b9 66 7c 1f 3c
       -0.027917255 0.09701746 -0.00025747073 0.009734249
0000f0 ab a0 35 3d 13 f8 ab bd 7a ab a0 bd 6a b5 33 3d
       0.044342678 -0.08396926 -0.078452066 0.04387418
000100 ec a2 e8 bc 59 36 5d 3d ac 16 be bb 10 d7 58 3d
       -0.028398 0.054006908 -0.0058010425 0.052939475
000110 24 3d 89 3a 8e 03 3e 3c 64 30 6d bd ca 1b 4e bd
       0.0010470492 0.011597527 -0.057907477 -0.05031947
000120 10 1e c2 bc c2 2f 40 3d 64 e4 8e 3c ab 2c c4 bc
       -0.023695976 0.046920545 0.01744289 -0.02394708
000130 94 ec 93 3c 84 e9 aa 3d 05 a2 2e 3d 82 d1 ce 3b
       0.018057145 0.08345321 0.042634983 0.0063115964
000140 2d 40 45 bd 9b c2 2a bd 2d e4 32 3d a0 4c d2 3d
       -0.048156906 -0.041689496 0.043674637 0.10268521
000150 3b c8 4a bd 9e 83 fc 3c 56 08 d0 bc ef b0 9a 3d
       -0.04950736 0.030824479 -0.0253946 0.07553279
000160 1b 34 b4 bb 0f 43 a1 bd 13 45 ce bd 19 bb 91 b9
       -0.0054993755 -0.078741185 -0.100717686 -0.00027795954
000170 cf 74 3d 3c 88 07 53 bd eb ce 99 3d 2d 3f a3 3c
       0.011563494 -0.051520854 0.075101696 0.019927585
000180 40 4b 2f 3d e6 15 14 3d 7b fc 80 bd e9 c4 10 3b
       0.042796373 0.036153696 -0.06298157 0.0022090024
000190 ef 93 54 3d b7 e2 3f 3d 36 e9 1d bd a5 d5 56 bd
       0.051898893 0.04684707 -0.038552485 -0.05244984
0001a0 93 0c a0 3d 1c 9e ad bd d5 70 8d 3d 84 74 e5 bc
       0.07814898 -0.084774226 0.069062866 -0.02800966
0001b0 33 76 89 3c 9e 83 29 3d fc 78 e9 3c 4e 6e a5 bd
       0.016779995 0.041385286 0.028500073 -0.080776796
0001c0 d7 b3 bd 3c 76 f4 99 bd 83 ad 45 bd 89 e5 29 ba
       0.023157043 -0.0751733 -0.048261177 -0.0006481042
0001d0 2c 71 dd bc 94 a4 b5 3d 80 11 2d bd 5b 8f 92 3d
       -0.027031504 0.088692814 -0.042253017 0.07156249
0001e0 4a c3 7b 3d 28 3d 1e 3d 64 2b a2 3d 10 18 30 bd
       0.06146554 0.038632542 0.07918432 -0.042991698
0001f0 bd b8 ad bd 6a 43 82 3c 04 4a 32 3d fd fe 83 3d
       -0.08482502 0.015901286 0.043527618 0.064451195
000200 35 26 75 3c 7c cd a6 3d 99 cd 82 3c 1c f7 3e 3d
       0.014962723 0.08144662 0.015967177 0.04662238
000210 88 2a 1b bd eb 5d 23 3d 40 0e fe bc 85 79 9e bd
       -0.037882358 0.03988449 -0.031012654 -0.07738022
000220 e7 de 6e bd c1 2e 1f bd d3 cd 1a bc 5d 38 34 bd
       -0.058318045 -0.038862947 -0.009448486 -0.043999065
000230 1a 02 ac 3d 1e d6 62 3d b9 ff b1 bd cf 0e 08 3c
       0.08398838 0.05537998 -0.08691353 0.008304312
000240 bf b8 a7 3d a0 05 2c bc 54 7c 0b 3d d6 50 53 3c
       0.081895344 -0.010499388 0.034054115 0.012897691
000250 47 0d f7 bc 59 90 2a bd a9 59 29 bd fe 74 5d bd
       -0.030157698 -0.041641567 -0.041345272 -0.05406665
000260 e7 0e 8c 3d 53 a8 b0 bd e9 85 9c 3b 7e 54 7e bc
       0.0683878 -0.08625855 0.0047767055 -0.015523074
000270 df 3a 8c bc 79 f7 8f ba 92 53 14 bd 92 1c 73 3c
       -0.017117916 -0.0010983787 -0.03621251 0.014838355
000280 fd 3c 80 3c 3a d2 b0 bd fe f9 94 3d 43 d3 85 3d
       0.015654081 -0.086338475 0.07274245 0.065344356
000290 b5 e0 3e bd 5c 72 bd 3c 1e aa 8d bc 24 59 5b 3d
       -0.046601016 0.02312582 -0.017293032 0.053551808
0002a0 21 0c b9 bc cc ea d7 bd fc 99 a3 3c b2 5b ad 3d
       -0.022588791 -0.10542831 0.019970886 0.08464755
0002b0 db 27 8d 3c d8 0f f6 bc f4 87 be bc cc 54 2c 3d
       0.017230919 -0.030036852 -0.023258187 0.042073056
0002c0 eb 60 e1 3d dd 97 ce bc a9 15 0c 3d ca 04 8b 3d
       0.11004814 -0.025218898 0.034200344 0.06788023
0002d0 c4 13 a2 3d a2 73 79 3d 74 bb 8d bd 03 b5 8a bd
       0.07913926 0.06090129 -0.069205195 -0.067728065
0002e0 f8 e5 a1 bd 85 33 7c 3d 2b 7e 47 bd 6f bb 61 3d
       -0.07905191 0.06157257 -0.048704308 0.05511039
0002f0 d6 69 27 bd de 40 2b bd 4f 35 8a 3d 18 68 15 bd
       -0.040872417 -0.04180991 0.06748449 -0.036476225
000300 dc ac 5f bd ad 5a ef bc f5 2e 04 bd f5 1f a7 bd
       -0.05460821 -0.029218042 -0.032271344 -0.08160392
000310 e4 ee 8e bc 8a 40 0e bc 1b f8 c2 bc 35 68 4a 3d
       -0.017447896 -0.0086823795 -0.023799947 0.049415786
000320 f3 03 61 bc 24 c9 72 bc c7 16 87 3d a4 c9 3d 3c
       -0.013733852 -0.0148184635 0.06596141 0.011583719
000330 86 1f d6 bc ec 22 90 3c 4d 9b a4 bd 95 9c a3 3d
       -0.026138078 0.017594777 -0.08037434 0.0798885
000340 57 14 44 3c 45 07 27 3d a0 1b a1 bd 5f 9b c2 3d
       0.01196774 0.040778417 -0.07866597 0.09502291
000350 09 c6 d4 bd c8 1a a0 bc b2 ee 7f bd 58 73 20 bd
       -0.10389335 -0.01954402 -0.062483497 -0.0391725
000360 57 fb d1 3c 6b 15 b3 bd f9 c8 c1 bd 30 b9 f8 3c
       0.025632543 -0.087443195 -0.094621606 0.030361742
000370 e2 a7 ef 3c bc 34 2f 3b 3a b7 32 bd 5b 27 8f bc
       0.029254857 0.0026734313 -0.04363177 -0.01747482
000380 78 26 19 bc 05 73 0d bd 79 ad 9a bd 9e 78 98 3d
       -0.009347551 -0.03453352 -0.075526185 0.07444881
000390 de 43 fa 3c 99 dd 67 bd 3b bd 18 bc 3b 7a 89 bd
       0.03054994 -0.056607816 -0.00932246 -0.06712767
0003a0 5f 88 29 bd bb ac d1 3d dd 16 2c 3d cc 8a f1 3c
       -0.04138982 0.10238024 0.04201399 0.029485129
0003b0 1c c9 c0 bc 2d 23 5a bc 6a a1 99 3c 1b 1d 96 bd
       -0.023533396 -0.013314051 0.018753726 -0.0732977
0003c0 bc db c2 bd e0 d4 87 3d 2b 76 83 bc 67 41 5a 3d
       -0.09514567 0.066323996 -0.016047558 0.05328503
0003d0 30 2e 52 3d 91 4f 75 3d 6b 42 0c bd 52 09 92 bc
       0.05131358 0.059890334 -0.03424303 -0.01782671
0003e0 80 25 4a bb 91 b9 0b 3c e2 75 1a bc b2 ab 76 bd
       -0.0030845106 0.008528129 -0.0094275195 -0.060222335
0003f0 b9 f8 3a bd 90 81 99 3d d3 35 01 3d 63 d8 3b bd
       -0.045647357 0.07495415 0.03154547 -0.04586066

GNN2.bias f4 [96]
000000 a6 ad f8 3c 46 7a 3b 3c 52 c7 c1 3c 06 2f b3 3c
       0.03035624 0.0114427265 0.023654614 0.021873008
000010 df a1 04 3d 33 0a 25 bd 33 91 b0 3c c1 eb 98 3c
       0.032380935 -0.04029293 0.021553611 0.018667104
000020 91 83 a9 3c 90 12 92 bc a5 b9 23 3c 88 3a fc bc
       0.020692619 -0.017831117 0.009992992 -0.030789629
000030 7f aa c3 3c b4 de 32 3c 0c 83 84 3c d2 b6 ca 3c
       0.02388501 0.010917354 0.01617577 0.024745379
000040 db 88 ec bb 60 82 8f 3c b2 cc 2a bc fb 39 2f 3d
       -0.007218463 0.017518222 -0.01042478 0.042779904
000050 70 e0 e8 3b df 32 df 3c 32 a8 8c bb 71 28 84 3c
       0.007106833 0.027245937 -0.0042925114 0.016132565
000060 b4 10 d9 3c fc 69 ce 3b 32 db 29 3d be 61 b9 3c
       0.026497222 0.0062992554 0.041468807 0.022629615
000070 b3 86 98 bc b6 35 ef 3c f4 23 d2 bb 20 53 36 3c
       -0.018618917 0.029200416 -0.0064129774 0.011128217
000080 df 00 95 3c 3f 4e 35 bc 1c 46 7a 3c 78 43 21 bb
       0.018188892 -0.011066019 0.015275504 -0.0024606865
000090 bf 9d 6f 3c 36 03 d0 3c a2 6e 67 3c 4f 3c 9e ba
       0.014625012 0.025392156 0.014125498 -0.0012072417
0000a0 c6 a6 85 3c 8b 8b 7e 3c 01 6c 86 bb a2 c6 8b bc
       0.016314875 0.015536199 -0.0041022305 -0.017062489
0000b0 f2 c7 ce bc e2 4f ea 3c f1 95 c8 bb 59 f6 d0 39
       -0.025241826 0.028602544 -0.00612139 0.00039856395
0000c0 19 45 dd 3c ff 99 86 ba 8f 06 4c 3c 28 1a f0 3a
       0.027010487 -0.0010269283 0.012452736 0.0018318342
0000d0 3e e9 87 3b 02 28 fc 3c f2 36 d9 3c 80 18 00 3c
       0.0041476777 0.030780796 0.026515458 0.007818341
0000e0 03 ea 22 bc 9c 05 f8 3c 9c 98 f9 3c df 56 ad 3c
       -0.009943488 0.030276112 0.030468278 0.021159587
0000f0 6f 67 b0 3c 7a 4d 89 bb a8 6f e1 3c 77 c9 92 ba
       0.021533696 -0.004190144 0.027519062 -0.0011198957
000100 fc 0d c2 3c 50 61 2f bc d2 46 d0 3c 46 98 30 bc
       0.023688309 -0.010704353 0.025424395 -0.010778492
000110 81 99 6b bc 56 d5 7e 3c 7a 3b c4 3c 49 d1 30 3c
       -0.01437986 0.015553793 0.023954142 0.010792085
000120 b4 81 e0 3b a6 ca 10 bc a2 c5 ac ba 83 1f 8e 3b
       0.0068513993 -0.008837378 -0.0013181458 0.0043372526
000130 e0 63 f3 3c 51 9f 00 3c c3 e8 89 3b 08 f1 10 3b
       0.02971071 0.007850484 0.0042086556 0.0022116322
000140 12 f9 df 3c ba 48 a9 bb 95 4f a3 bc d0 38 cb 3c
       0.027340446 -0.0051661404 -0.019935409 0.024807364
000150 71 f3 ba bb 4e 5a 78 3c fd 33 94 3b e6 3b 07 3b
       -0.00570529 0.015158249 0.004522799 0.0020635067
000160 73 64 5f 3c f9 ec b6 3b 73 17 6e bc 00 fb cd 3c
       0.013634789 0.0055824486 -0.014531958 0.0251441
000170 40 2d 12 bb ba a9 44 3b 30 df 2c 3c 06 14 89 3c
       -0.0022304803 0.0030008391 0.010551259 0.01673318

GNN3.Theta1 f4 [480, 2]
000000 5c 92 f6 3e 42 f1 b8 3e 1e e2 17 3f 2c f6 02 3f
       0.48158538 0.36121565 0.593294 0.5115688
000010 62 07 50 3e 74 0e 84 3e a4 3c fc 3e 5e ba 02 bf
       0.20315316 0.25792277 0.49265015 -0.51065624
000020 6f 98 02 3d 2f 4f a0 3d 9d ae a4 3e 5c d2 85 3e
       0.031883653 0.07827603 0.3216447 0.26137054
000030 ed 91 07 be cf b8 21 3e 34 c9 71 3e 54 1a 6b be
       -0.1323926 0.15793155 0.23611909 -0.22959262
000040 3b 13 b7 3e 0b 15 29 be 23 6a 69 bd 8e 60 f9 be
       0.3575686 -0.16511934 -0.056985985 -0.48706478
000050 bf 41 98 3c 87 85 15 3f c3 e5 4b be 99 ca 07 bf
       0.018586038 0.5840687 -0.19911866 -0.53043514
000060 97 92 27 3f 1e 3c 62 3e 08 a3 6c 3e 42 c6 c7 3e
       0.65458053 0.22093245 0.23109066 0.39018446
000070 de cb c5 be 23 86 e3 3e 2a 57 b7 3e 18 98 42 be
       -0.386321 0.44438276 0.35808688 -0.19003332
000080 ee c4 f6 3d 44 87 f8 3e 8a b0 ef 3b ac 83 3b be
       0.1204928 0.485407 0.0073147463 -0.18311948
000090 99 26 f7 3e fc 8b 1a 3f eb 36 08 bf 5d ed b3 bc
       0.48271635 0.6036985 -0.532088 -0.02196377
0000a0 8e 71 c1 3e 3f 4b d5 3e 8f f3 16 3f 89 8c 27 3e
       0.37781948 0.4165897 0.5896539 0.16362204
0000b0 4b d0 f4 bc 46 40 f6 bd a3 d2 ce 3e 49 de f5 3e
       -0.029884478 -0.12023978 0.40395078 0.48021153
0000c0 9b d6 91 be 33 ea 3f be 8b 5b c1 3e f2 1c 97 be
       -0.28484043 -0.18741684 0.37765154 -0.2951427
0000d0 63 68 b5 be b4 8a 75 be 1b bc 95 be 73 7c b0 bd
       -0.35431203 -0.23978692 -0.29245076 -0.08617487
0000e0 05 9c 02 bf 7a 72 85 3e 4b 3a 0d 3f 64 8b 9a 3e
       -0.51019317 0.260639 0.55167073 0.30184472
0000f0 20 fc 18 3f b6 fb 24 bf 7a 12 14 3f 42 58 39 be
       0.5975971 -0.6444658 0.57840693 -0.18100074
000100 70 1e 86 3d 10 2d d0 be 2b 73 01 3f e3 8a 06 3f
       0.06548774 -0.4065938 0.5056636 0.52555674
000110 ca 4d b9 be 13 2d 11 bf 8f 90 12 3f 70 4c 08 bf
       -0.3619216 -0.567094 0.5725183 -0.53241634
000120 c3 eb 40 3e 1f e8 0f be 67 fd 1a bd 45 b1 2f 3f
       0.18839936 -0.14053391 -0.03783932 0.68629867
000130 12 57 ec be b2 43 8f bd 7c f3 8b be cb 48 8e 3c
       -0.4616018 -0.06995334 -0.273342 0.017368695
000140 76 bc 27 3f d2 ab 28 3e 3c cc 31 bf 40 02 21 3f
       0.65521944 0.16471794 -0.6945226 0.6289406
000150 8c 33 2d bf 90 c0 1b bf 28 4a f9 3e 0b 0e 1d bf
       -0.6765678 -0.608407 0.4868939 -0.6134955
000160 d8 60 9b 3e a2 94 f7 3d 32 98 a4 bc c3 82 09 3f
       0.30347323 0.12088896 -0.020092104 0.5371515
000170 25 a4 06 bf 04 78 15 3f f5 a5 e7 bc 1e 00 1a 3e
       -0.52594215 0.58386254 -0.028277377 0.15039107
000180 53 18 1b 3f 3f 18 0a bd 5b fe 66 3e 58 fd 57 be
       0.6058399 -0.03371453 0.22557966 -0.21092737
000190 c2 74 b2 be 59 e5 95 3e a4 31 26 bf 4f 31 0c be
       -0.34854704 0.2927654 -0.64919496 -0.13690685
0001a0 72 e5 00 3f 55 d3 03 3d 0a 1d 0b 3f 6b 26 11 bf
       0.50350106 0.032183964 0.54341185 -0.56699246
0001b0 90 54 52 3d e9 8e a3 3e 81 d9 06 bf e5 8b 8d 3e
       0.051350176 0.3194497 -0.52675635 0.27645794
0001c0 9a db ba 3e c1 db f8 be 7e 85 e3 bc 05 0b ad be
       0.36495668 -0.4860516 -0.027773615 -0.3379747
0001d0 0e c4 8c be 65 b8 09 bf d2 d9 d2 be aa 22 0a 3e
       -0.27493328 -0.5379699 -0.4118181 0.13489786
0001e0 9b a4 88 be ed bd 08 3e 2b 93 9f be 21 3d ef 3e
       -0.26688084 0.13353701 -0.31166968 0.46726325
0001f0 a7 52 ed 3e 89 89 36 3e d0 15 a1 3d 1b 41 96 be
       0.4635212 0.17825903 0.078654885 -0.29346547
000200 2c 60 ff 3e eb a5 dd 3d 2c a7 4b 3e df 32 13 bf
       0.4987806 0.10822662 0.1988799 -0.574995
000210 28 ea 9d be 9b a3 1a bd db 0e d0 3e f6 66 13 3e
       -0.3084271 -0.037753683 0.40636334 0.14394745
000220 af 3c 45 3e bc d8 f0 3e bd 6c 0d bf 83 f9 fa be
       0.1926143 0.47040355 -0.55244046 -0.49018487
000230 9d 8f a0 bd 26 f7 f3 3e 2d 8d ec 3e 3a a8 7e 3e
       -0.07839892 0.47649497 0.4620146 0.24868861
000240 82 36 f0 be e1 5c 0b bf 83 a3 70 3e 77 0d 76 3d
       -0.46916586 -0.54438597 0.23499875 0.060071435
000250 ad 84 da be 27 66 02 3f 6f 56 e2 bd 2c 7e a4 bd
       -0.4267935 0.5093712 -0.11051642 -0.08031878
000260 93 96 f5 3d 7e ce 23 3f aa e8 1f bf d1 cc 1b bf
       0.119916104 0.6398696 -0.6246439 -0.608594
000270 b6 f8 74 3e 30 80 1f be 80 fd 86 be 06 ff 19 bd
       0.23923 -0.15576243 -0.2636528 -0.037596725
000280 7e 9b a0 3d 12 09 c4 3e 55 c8 b4 3e ee 41 94 3e
       0.07842158 0.3828817 0.3530909 0.2895655
000290 ea 60 9b bd bb 6e 14 be e5 88 1c bf 4a 7d 00 bf
       -0.07586844 -0.14495365 -0.61146384 -0.50191176
0002a0 42 b8 47 3e ce dc 1e 3f 2a b1 e5 3d d8 6e a2 be
       0.19503883 0.6205567 0.11215432 -0.31725192
0002b0 9e 50 24 3d 25 82 ac be 72 76 c5 be 66 e6 e9 bd
       0.040115945 -0.33693042 -0.3856693 -0.11420898
0002c0 94 eb 64 3e 2e b4 3e 3e 29 44 38 3d cf 9b 13 bf
       0.22355491 0.1862342 0.044986878 -0.5765962
0002d0 aa 43 e4 be 01 9b 96 be ce b9 27 3e 93 2a da be
       -0.44582874 -0.29415134 0.16379473 -0.42610607
0002e0 7b 1a 03 bf f0 51 28 3f ce 52 88 3d da 75 7b 3e
       -0.5121228 0.65750027 0.06656419 0.24556676
0002f0 9e 09 b9 3e 55 27 07 bf ff d4 22 bd de d8 96 3e
       0.3614015 -0.5279439 -0.03975391 0.29462332
000300 73 4c 63 3e ed 40 8d 3c 35 70 6c bd 8e 88 8f be
       0.22197132 0.017242873 -0.057724196 -0.2803387
000310 34 7e 03 3e f0 cf 88 ba 55 05 b1 3e c9 08 8e bd
       0.12841111 -0.0010437947 0.3457438 -0.069352694
000320 1c aa 15 3f c2 67 dd 3e 2e cf 5c be 93 60 27 bf
       0.5846269 0.43243223 -0.21563408 -0.65381736
000330 79 a3 ea 3e 81 7a 28 3f 85 36 ad be 6e 10 dd be
       0.45827845 0.65811926 -0.33830658 -0.43176597
000340 c6 ad 1b 3e 01 d3 20 be ab fb 26 bc fc 5b 27 3e
       0.15203008 -0.15705492 -0.010191838 0.16343683
000350 f3 5b f7 3e 92 1a 1c bf 5f 08 e2 3e 27 5b 15 bf
       0.4831234 -0.60978043 0.44147012 -0.5834221
000360 23 c9 f9 bd f8 56 f1 3e 04 1c 10 3e 4c 8e 06 bf
       -0.12196567 0.47136664 0.14073187 -0.5256088
000370 03 67 71 be c9 5e 73 3e 13 e3 19 3d 29 14 f0 3e
       -0.23574452 0.23766626 0.03757007 0.4689038
000380 56 c5 15 3f 0d e0 f5 be 19 b1 40 3e 1e 39 01 3f
       0.58504236 -0.480225 0.18817557 0.5047778
000390 b9 df fe 3e a1 37 f1 3e 74 2e ee be 50 73 e5 bc
       0.49780062 0.47112754 -0.46519816 -0.028009087
0003a0 74 5d 64 be e1 de 12 3f fa 42 11 3f 29 48 e4 be
       -0.22301275 0.57371336 0.56742823 -0.44586304
0003b0 a9 9f 0b 3f 1b 9e 48 3e 0f e7 ba be a8 55 0d bf
       0.545405 0.19591562 -0.3650441 -0.55208826
0003c0 09 fb 79 3e c0 33 60 be e9 58 1a 3e 15 58 fa be
       0.24412169 -0.21894741 0.15072979 -0.48895326
0003d0 dc 81 f0 bc 98 89 9b be 57 86 c4 3e 98 7a 12 3f
       -0.029358797 -0.30378413 0.38383743 0.57218313
0003e0 6b 3f 0f be d3 a4 f8 3e f2 30 11 be 99 4a f8 3e
       -0.13989036 0.4856325 -0.14178827 0.48494413
0003f0 e9 f5 64 3d d1 34 78 be 48 a4 d0 be a1 d5 a2 be
       0.05589858 -0.24238898 -0.40750337 -0.3180361

GNN3.bias f4 [2]
000000 46 59 f7 be 09 6d fa be
       -0.48310298 -0.48911312
