trained_models/iS_GNN_Trained_ep_100_bs64_lr5em04_z96_k_diff_1_kNN_5_ramps_30_b_cap_10.pth (torch, 134999 bytes, 6 tensors)

GNN1.Theta1 f4 [48, 96]
00000000: 0623 1d3c 91fa 913c da91 0dbc 223d 9cbc
00000010: 4a0d 2bbd 6aca 79bc a67b a7bc f2a1 243c
00000020: 0955 043d 92bb 92bc 6db1 183c 2fec 14bc
00000030: 7d83 d5bb 91d0 b5bc 9699 86bb a064 d43c
00000040: be1b c5bb 8868 84bc d1ef 633d f753 f3bc
00000050: 1ac4 573c 7888 eebb 647b 653d 6dca b2bc
00000060: f4db 233c 143c a43c 7d27 bc3a f522 a93c
00000070: dda1 8fbc 6b2c 10bd 8c0c 183d 9a09 5d3d
00000080: ed43 abbd d5af 253c 1749 a5bd 9a74 b9bc
00000090: 5d8f bb3b 3662 ecbc 5134 453d 0e2d 1f3d
000000a0: 8247 d6bc 32b9 293d fa17 003d 2a46 1b3d
000000b0: 73f5 8ebc 1c05 58bb fd0b 11bd 392b 50bd
000000c0: ddb2 913d 429c 373d 9870 45bd 74fa 723c
000000d0: 6fd1 083c 889a 32bd 6bcd d43c 6b9e 593c
000000e0: 7ebb 0f3b f74f 253d 6926 d5bb 6c71 f03c
000000f0: 397a 0c3d a32c 98bc 82c2 843c 31b3 9bbc
00000100: 5f49 f9bb 54ca c63b bb16 303d 191d 19bd
00000110: 0935 673d f1d0 8dbd 1cc8 093d 15bc 90bd
00000120: b0da 923c 7290 2abd 8f70 8a3d ee35 24bc
00000130: 991b 35bd edb2 50bd e6d9 ad3c 5e2a d13c
00000140: 9bc3 1a3c 1000 853d c792 b0bc c380 163c
00000150: fd05 20bd 5ba1 5cbd 61da 483d e90a 8ebb
00000160: 5e90 f03b 0368 8cbc 8c01 053d 7f4b 633d
00000170: d759 cbbb 5c13 283c 6bff e7bc a285 eebc
00000180: ffe5 59bd 399c b83c 0279 30bd ac7f 70bd
00000190: ba50 be3b 5539 05bd 1e9c f4bc f8d5 883a
000001a0: 2c7d ef3c c0b2 253d 98f6 4ebd 15d2 3f3b
000001b0: 6bb2 1dbb 6f3d be3c 3df6 83bd 7ca5 d1bc
000001c0: fec3 88bc 7e1a 19bd 39f9 a2bd c72a d73b
000001d0: 6399 0f3d 5fbf 44bd 526e 4dbd d638 58bd
000001e0: 6326 67bb 8e06 ec3c f118 46bd 7894 433c
000001f0: b9e1 5d3c beff 9a3c 92af a1bd 0eba e73c
00000200: f462 0b3d b95e 31bc cf95 1dbd a674 83bd
00000210: 2fb2 42bd 9545 c93c 644b 9e3d 1067 f7bc
00000220: 6800 863d 0b32 783c 71b9 e13c 3d47 61bd
00000230: 5376 e73b c5c8 993d 3a0d a63d 2308 173d
00000240: 969b 16bd df4d 373c a9d3 8d3d d2ab 2f3c
00000250: 4d97 28bd 0557 62bd bbea 93bd c0b1 78bd
00000260: 450c c6bc eb5b 2cbc a731 b4bb b4dc ce3c
00000270: e78e 81bd 06ae 183d c5b9 a4bd c089 b93a
00000280: 76b5 853d 30d4 77bc 0b24 033d d572 3abb
00000290: 77a0 c2bb 2394 8f3d 36e6 7fbd fc04 143d
000002a0: 2acb 0b3d e0ed 89bb 4a5e 64bd 1d3d 4e3c
000002b0: 1aaf 37bd 0fa9 953c b39e b0bd b015 12bd
000002c0: f214 803d a90b 0c3c 0740 8cbd 69eb 68bc
000002d0: 6a95 dd3c 72c2 41bd 8d53 7dbd f927 4fbd
000002e0: e3bc 80bd 8817 11bd f187 20bd 4b2f b2bd
000002f0: e6ac 00bc 0b95 6ebd 16b1 87bc 7fcb 8b3c
00000300: 77d3 813d 5792 a7bc f84f 373d 94a5 413d
00000310: 037f 0c3d ad99 743d e0b2 db3c 61a4 2c3d
00000320: 8f80 40bd 7647 c93c 20c4 2d3d f9f4 f5ba
00000330: e494 863d 5bc3 c73c 5ca5 fd3c ea99 13bb
00000340: b15e 913d e0ab 083d ef22 cf3c 2a67 59bc
00000350: 2c23 7fbd 20ab 70bb c6b3 1b3d 9a49 883d
00000360: 4fb9 aabb fd80 87ba 68dd f53b 6340 9cbc
00000370: 90a9 6abb 235f 463d cb03 353d ff27 6bbd
00000380: 63c6 973d b16b 743c 8d9a a03d d1d8 a33d
00000390: 73ea 343d 5c89 f73c 069d a6bd 3610 9ebd
000003a0: 9990 f1bc d1b9 96bd 349c 60bd efa7 4a3c
000003b0: 5be7 10bd 9bc7 97bc 1bbc 29bd a7ea 1d3c
000003c0: 4028 da3c 948e 02bd c923 95bc bb90 f8bc
000003d0: cde3 433d 377e b53d d5f2 433d f0a0 c43c
000003e0: 2cac 6a3c 3cdb f63c 27ac 66bc c6b0 8ebd
000003f0: 1369 eb3c 6544 e9bc 04a7 a73d 5766 08bc
0.00959087 0.017819675 -0.008640731 -0.01907212 -0.04176072 -0.015246013 -0.020444702 0.010048376
0.03230766 -0.017911706 0.009319645 -0.009089514 -0.0065159188 -0.022194179 -0.0041076643 0.025926888
-0.00601527 -0.016163126 0.05564863 -0.029703123 0.013169313 -0.007279452 0.056025878 -0.02182504
0.010001171 0.020048179 0.001435503 0.020646552 -0.017533237 -0.03519861 0.03712134 0.053964235
-0.08362565 0.010112722 -0.080705814 -0.022638608 0.0057238773 -0.028855424 0.048145596 0.038861327
-0.026157144 0.04143638 0.031272866 0.03790871 -0.017451024 -0.003296203 -0.035411824 -0.05082247
0.071141936 0.044826753 -0.04820308 0.0148302205 0.008350714 -0.043604404 0.025976857 0.013282399
0.0021931822 0.040359464 -0.006504823 0.029350959 0.034296248 -0.018575972 0.01620603 -0.019006344
-0.0076076235 0.0060666 0.042990427 -0.037381265 0.056447063 -0.06924618 0.033638105 -0.07067124
0.017926544 -0.04164166 0.0675975 -0.010022623 -0.044215772 -0.050951887 0.021222066 0.025532898
0.00944605 0.064941525 -0.021554364 0.009185973 -0.03906821 -0.053864818 0.049036387 -0.0043347967
0.0073414287 -0.01713944 0.03247218 0.05549192 -0.006205778 0.010258522 -0.028320035 -0.029116455
-0.053197857 0.02253543 -0.043084152 -0.058715507 0.005807963 -0.03252538 -0.029859599 0.0010439744
0.029234491 0.040453672 -0.05052814 0.0029269506 -0.0024062644 0.023222653 -0.064434506 -0.025591604
-0.016695019 -0.03737878 -0.07957692 0.0065663788 0.03505839 -0.04803407 -0.050154038 -0.052788578
-0.0035270683 0.02881172 -0.04836363 0.011937253 0.013542586 0.018920776 -0.078948155 0.02828696
0.034029916 -0.010825806 -0.038472947 -0.06418733 -0.04753321 0.024569312 0.07729223 -0.030200511
0.06543046 0.01514865 0.027554246 -0.05499958 0.007063666 0.07508997 0.081079915 0.036872994
-0.036769472 0.0111879995 0.069251366 0.0107221175 -0.041159917 -0.05525877 -0.07222506 -0.06071639
-0.024175772 -0.010519962 -0.005499083 0.025251724 -0.063260846 0.037275337 -0.08043245 0.0014155433
0.065287516 -0.015126273 0.032016795 -0.0028449793 -0.005939539 0.07010677 -0.062475406 0.036137566
0.0341293 -0.004209265 -0.055753984 0.012587813 -0.044844724 0.01826909 -0.086240195 -0.035665214
0.06253995 0.008547702 -0.0684815 -0.014216282 0.027048785 -0.047304578 -0.06184726 -0.05057523
-0.06286027 -0.03542283 -0.039192144 -0.08700427 -0.007853722 -0.058247607 -0.016563933 0.017064808
0.06339162 -0.020455522 0.044754 0.04727705 0.034300815 0.05971687 0.026818693 0.04214895
-0.046997603 0.024570208 0.042423368 -0.0018765024 0.065713674 0.024385145 0.030962639 -0.002252216
0.07098139 0.033367038 0.025285212 -0.013269225 -0.062289402 -0.0036723092 0.038013242 0.066546634
-0.005210079 -0.0010338124 0.0075032003 -0.01907367 -0.0035806634 0.048430573 0.04419307 -0.05741119
0.07410886 0.014918254 0.07841978 0.08000339 0.0441689 0.030216865 -0.081354186 -0.07717936
-0.029487895 -0.073596604 -0.054836467 0.01236914 -0.035376888 -0.018527796 -0.041439157 0.009638465
0.02663052 -0.031874254 -0.01820554 -0.03034245 0.04782467 0.08861964 0.047839005 0.024002522
0.014323276 0.030133836 -0.01407913 -0.069673106 0.028736627 -0.028474996 0.081861526 -0.008325181

GNN1.bias f4 [96]
00000000: a62a f8bc a8d0 c13d 3b51 e1bc 979d 953d
00000010: b5c1 6ebd 68ed bbbd a6ff 69bd 2991 cc3d
00000020: 44aa 01bd c9e5 82bd 7f51 473c cc46 8f3d
00000030: 18ef 92bd 50da 0b3d ddb5 3ebc 5e1d 2ebd
00000040: 11ab 6fbd c35e eb3c 53ab a03c 56b4 bc3d
00000050: e2e1 52bd cba7 143d c3a4 343d 52d3 9cbd
00000060: 4060 133c c1d1 b83d e056 983d 727e 47bd
00000070: e185 9bbd ae76 0dbd 214f b13d cd0f 65bd
00000080: 323a 2bbd ff04 c9bd f1b9 213c 74f7 e9bc
00000090: 5b83 cd3d 1d7e 9fbc 8655 37bd 5fc3 16bd
000000a0: 22ab 233d 76a9 86bd deff 2a3d a6c3 503d
000000b0: 5100 a33d 8ce8 753d 5f91 acbd 1312 6c3d
000000c0: 1374 5bbd 1e94 b43d f24e 813d 792e 8abd
000000d0: 60a6 39bd b73f 3f3d 44ef de3c d1af 31bd
000000e0: 6fb2 633c 5d74 6cbd 0a38 a83b 4e44 f5bc
000000f0: 12d6 f6bc 2a70 133c bb8f 073c fa1e c33d
00000100: 1dca 59bc c4bd b739 c96a 373d 75c5 cfbc
00000110: f5bf 1c3d bd8f 823d bb74 8c3c c209 79bd
00000120: b7c7 a73c 4653 943c c3c8 8fba ea66 1abd
00000130: 2d00 04bd bd21 da3c 9c3b 99bd 5743 563d
00000140: d940 053d 4f9d 8bbb 148d 813c 2631 653d
00000150: cb30 383d c4e3 a33d 1eab e8bc 36fb 22bb
00000160: 1248 b0bc 2382 46bd 21a3 59bd cbe9 87bc
00000170: 693c c7bc a4b2 c33d effe a53d 2c01 b83d
-0.030293774 0.09463626 -0.027504554 0.073054485 -0.058290202 -0.09176141 -0.05712857 0.099886246
-0.03165652 -0.06391484 0.012165426 0.06995925 -0.0717451 0.034143746 -0.011640039 -0.042508475
-0.05851275 0.02873171 0.019612944 0.09214084 -0.05148495 0.036292832 0.04410244 -0.07657494
0.008995116 0.090243824 0.07438445 -0.048704572 -0.07593895 -0.03453701 0.08657671 -0.055923272
-0.041803546 -0.09815406 0.009870992 -0.028560378 0.1003482 -0.019469315 -0.044759296 -0.036807414
0.039958127 -0.06575291 0.04174792 0.050967835 0.07959045 0.060036227 -0.08426165 0.057634424
-0.053577494 0.088173136 0.06313886 -0.06747145 -0.045324683 0.046691623 0.0272137 -0.043380562
0.013897522 -0.05772816 0.0051336335 -0.029939797 -0.030131374 0.00899891 0.008274014 0.09527393
-0.0132928165 0.00035045866 0.044779573 -0.02536271 0.038269002 0.06375072 0.017145505 -0.06080032
0.020480974 0.018106114 -0.0010969866 -0.037695803 -0.03222673 0.026627416 -0.07482073 0.052310314
0.032532547 -0.004260696 0.015814342 0.055955075 0.044968408 0.08002427 -0.028401908 -0.0024868972
-0.02151874 -0.04846395 -0.053134087 -0.016590973 -0.024320798 0.09555557 0.08105265 0.089845985

GNN2.Theta1 f4 [288, 96]
00000000: 206a ec3c ea20 64bd 2291 30bd fd18 b1bc
00000010: f63e d2bd eacc a43d 3116 ae3d b680 643d
00000020: 8dca b23d 5c43 20bd 4bee 953d d418 a3bd
00000030: cda2 973d 4658 f53c 3db0 c03d 72d3 5d3d
00000040: c27d 94bd c752 1dbd 52da cbbc d9f7 17bd
00000050: f4bd 573d b46f e7bc dad6 8c3d 46c7 50bc
00000060: 0fcd 083d dfb3 3a3c 9a23 44bd cc2d 68bc
00000070: b130 1a3a e446 a9bc f2a1 2abd 5972 a1bc
00000080: 682a fe3b 7ba1 773d 6c92 3bbd e07c 13bd
00000090: 81d3 a3bd 7126 9d3d 7f91 6abd 3f79 0c3d
000000a0: cebf 2dbc ac64 53bd f6cd ce3c 6a3f c83d
000000b0: 4a95 9c3d cf36 6e3d 459c 623d 361b 8a3c
000000c0: 4efb 923d 6e6c cebd 6795 81bc 8eea 28bc
000000d0: 275c b13b 8df4 95bd c4d2 6ebc 36c5 18bb
000000e0: b103 763d bb1d b53c 76bd a63d b52d a3bd
000000f0: 9e6f 523d dc55 12bc 6f2d 7dbd f4d6 c03b
00000100: f646 af3d 84bf 7e3d 97fa 9fbd 5f2f 72bd
00000110: 17dc a0bd fca8 ae3d eb6e 72bd b49a 823d
00000120: 45b7 293d 0623 54bd 4224 cb3d fa83 8fbb
00000130: 56dd bcbd 1f51 613c 54be 803c d7ed 573d
00000140: d9b6 2ebc 8f63 963d 9b68 a1bd 159f 893c
00000150: 9061 c03c 183c 833d d511 69bc 2124 96bd
00000160: a9d3 a33d 33b7 41bd cde0 c6bd 1171 d83c
00000170: 2d0b 10bd b1b8 183d 942a a03d aee6 203d
00000180: 85a4 883d 6790 473c 32c9 3c3d 5f79 b7bd
00000190: dc05 823d 79f6 5e3d 29cc 5d3d f8cb a6bd
000001a0: 273f bbbd 08a1 f13c 5ebb 053d ebc3 8cbd
000001b0: 60df 323d 1eb7 703d c25c b6bd ff0e 51bb
000001c0: df65 9dba 45df 76bd 3284 303d 528e a9bd
000001d0: 8736 9d3d 8ea7 a53d 1908 a8bd 57bc 253d
000001e0: 1a5e 8f3c 908e 4dbd 4e89 e7bc 9eef 0bbd
000001f0: 3a9b 15bb 6974 26bc a7f5 18bd f6de a2bd
00000200: b69b a23d 9ada 8cbd 94a9 14bd 22d9 c4bd
00000210: c6c0 d83d f9fb cebd 09bd a63d cda5 25bd
00000220: 438f d4bb 70d1 9a3d 4b68 c4bd 4e41 3dbc
00000230: 61b0 333d e585 33bd 3acd 783c e356 45bd
00000240: d3df a1bc e377 573d 9e5f 393d f237 e73c
00000250: 18a6 14bc 131b d83c 520f 903d 9585 f2bc
00000260: 887e 08bd e888 913d a48e b8bd 3062 a0bd
00000270: 79f8 a6bd c48d 053d 9c18 073d ef94 e33c
00000280: a233 49bd 5979 a33d 2832 733b 6e11 2c3d
00000290: b7f9 563d 1993 a03d 841d 523d 8ca1 b0bd
000002a0: aa78 95bd c53e c1bd e864 6a3b c62e 73bd
000002b0: 8c90 70bd 7cb2 69bd edf5 c3bc 3b9b 2b3d
000002c0: 8508 c93d d152 b6bd 2ab4 12bd 8cf4 833d
000002d0: 6bf8 493d 751c d8bc d130 a73d b586 9dbc
000002e0: da24 b1bc f714 0e3d 560a cfba 5793 d93c
000002f0: 3c59 973d 2986 a83d f920 a13d a9d7 75bd
00000300: 457c c6bd 7faa 5c3c 56be 20bd 0716 89bd
00000310: feec c93d 26f4 81bc 6d12 d5bb a394 11bd
00000320: 77ae d43b d62a 8bbd 782e 9c3c 7f77 78bd
00000330: aea8 19bd 6f4c 87bd 793d f7bc 0288 afbd
00000340: 94a7 e0bc a948 7fbd 3a84 f3bc 7173 a43d
00000350: feae 02bd 1a0c 9c3c 92db d7bc 1ca0 d8bd
00000360: 8a5f 16bd f121 18bd 7fc9 213d 0a61 01bd
00000370: 7007 133c 0e0a 263d 4bd6 933d c80d 06ba
00000380: 3d1f 343b f2a7 c73d 4e52 ce3d e725 17bd
00000390: bb80 83bd a643 983d 7b60 1d3c 827f a13d
000003a0: bf2d 163b f8b1 b03c 7b47 f73b e4d3 6fbd
000003b0: 54a7 133d 299c 5bbd a699 1cbd c9c2 403d
000003c0: 5ca8 a63d d5cd bc3d 7c4c 1cbd 7a71 8b3d
000003d0: fd30 7e3d 1e67 92bd c40b bebd 6fa4 aa3d
000003e0: 1145 983d 82a7 ba3d 29b8 163d 7eb1 813d
000003f0: 1ae9 683d 439b 803d 7a7d d93d ef86 5dbd
0.028859198 -0.05569545 -0.04310716 -0.02161836 -0.10265915 0.08046897 0.085003264 0.05578681
0.0873004 -0.03912674 0.073208414 -0.0796372 0.07404099 0.029949319 0.09408615 0.054156728
-0.07250549 -0.03840902 -0.024884377 -0.0371016 0.052671388 -0.028251506 0.06876917 -0.012742823
0.033398684 0.011395424 -0.047885515 -0.014171075 0.00058818894 -0.020663686 -0.04165835 -0.019707846
0.00775652 0.060456734 -0.045793936 -0.036007762 -0.079993255 0.07673348 -0.057267662 0.034295317
-0.010604812 -0.05160968 0.025244694 0.0977772 0.07645662 0.05815774 0.05532481 0.016858678
0.07176839 -0.10079275 -0.01581831 -0.010309828 0.0054125967 -0.07322035 -0.014576618 -0.0023310906
0.060062114 0.022108903 0.081416056 -0.07967702 0.051375978 -0.008931603 -0.061810907 0.0058849994
0.085584566 0.062194362 -0.07811468 -0.059127208 -0.07854479 0.08528325 -0.05918781 0.063771635
0.041434545 -0.051791213 0.09919025 -0.0043797465 -0.09221904 0.013752251 0.015715756 0.052717056
-0.0106637115 0.07343208 -0.0788128 0.016799489 0.023484021 0.06407946 -0.014225443 -0.0733111
0.07999355 -0.047293853 -0.09710846 0.026421102 -0.035166908 0.03728551 0.07820621 0.039282493
0.066720046 0.012180424 0.046090312 -0.089586966 0.06348774 0.054434273 0.05414978 -0.08144373
-0.09142905 0.029495731 0.03264939 -0.06873306 0.04367006 0.058768384 -0.08904411 -0.0031899808
-0.0012008509 -0.06027152 0.04309482 -0.082790986 0.07676416 0.08088599 -0.082046695 0.040462818
0.017500926 -0.050184786 -0.028263714 -0.034164064 -0.0022828118 -0.01015959 -0.037343647 -0.07952683
0.07939856 -0.068776324 -0.036294535 -0.09611727 0.105836436 -0.10106654 0.08141524 -0.040441323
-0.0064868047 0.07559478 -0.09590205 -0.011551214 0.04386938 -0.043828864 0.015185649 -0.048178565
-0.019760048 0.052604567 0.045257203 0.028224919 -0.009072803 0.026380097 0.07034172 -0.029604713
-0.033323795 0.07106191 -0.090115815 -0.07831228 -0.08152861 0.0326059 0.032982454 0.027780978
-0.049121507 0.079821296 0.0037108753 0.04200881 0.05248424 0.07840557 0.05129768 -0.086245626
-0.072984055 -0.094358005 0.0035765711 -0.05937078 -0.0587316 -0.05705498 -0.023920977 0.041896086
0.09816078 -0.08902515 -0.03581635 0.06443128 0.049309175 -0.026380757 0.08163608 -0.019229272
-0.021624018 0.034687962 -0.0015795927 0.026559515 0.07390067 0.08228714 0.07867617 -0.060020123
-0.09691671 0.013468384 -0.03924402 -0.066936545 0.09859656 -0.01586349 -0.0065024407 -0.03554214
0.0064905244 -0.0679528 0.019065127 -0.060660835 -0.03751438 -0.066063754 -0.03018068 -0.08570863
-0.027423657 -0.062325153 -0.029726136 0.08029831 -0.031905167 0.01904874 -0.026349816 -0.105774134
-0.036712207 -0.037141744 0.039498802 -0.031586684 0.008973941 0.040536933 0.072186075 -0.0005113748
0.002748444 0.0974883 0.10074292 -0.03690138 -0.06421038 0.07434778 0.009605522 0.07885648
0.002291545 0.021569237 0.007546363 -0.058551684 0.03604825 -0.053615723 -0.038232468 0.04706076
0.08137581 0.09218947 -0.03815888 0.06808753 0.062058438 -0.07148574 -0.09279588 0.083321445
0.07435048 0.09113981 0.036796723 0.06332682 0.056862928 0.06279614 0.10619636 -0.05408376

GNN2.bias f4 [96]
00000000: 4783 cdbc 432d bb3c 5c64 0e3d cbcc 3d3c
00000010: 7fc7 06bc 225c 223a ec60 c0bb 9186 e2bc
00000020: e810 ef3c 774d b1bb ea44 d5ba c931 293c
00000030: 01e3 8bbd 9217 293d 664d a7bc f6df e8bb
00000040: 3bde 833b 58d2 0cbc 0da3 633c edc2 2e3d
00000050: 480f 4e3d bda1 0fbc 387c f2bc a3e2 06bb
00000060: e782 9e3b 4800 213c 0e0a 343c 58ba d83c
00000070: 2f02 123d a6fb 183b b9e3 ad3b 2a2f 9e3c
00000080: a3f0 70bc 0f4e 8d3a 3faa 8f3c 4e25 8e3d
00000090: 0ef6 c939 b488 383c f9bc 71ba ea7f 3dbb
000000a0: 35ab 60bb 5e8e 893c 60c9 5b3b d988 423c
000000b0: 8ebf af3c 4613 65bc eab6 0ebd 612e 9e3c
000000c0: 076e afbc 319c 7dbc 7d0e 78bc a38d 95bb
000000d0: fa3e 373b e26e 623c c9f3 043d afab 233d
000000e0: 9a00 fcbb bd2f efbc b86b c23c 77f5 1b3b
000000f0: 59c6 423c 89e3 27bc c02c 323c 1ad3 013d
00000100: d5e6 d63a 723d 65bc 0c90 823c 5bd9 85bb
00000110: c97e 893c 9c79 f3ba bdff a9bc ec0d f73c
00000120: 90c2 19bc 6545 93bb 0d6c 2a3c 9a75 ccbb
00000130: 595c 11bb 410e 653c 5329 1e3c 43df abba
00000140: 4217 ecbc 8342 3cbc c557 4e3c eacb ba3c
00000150: 988f 4b3c cb25 c63c 3f9e b33b 3082 d93c
00000160: e808 8e3c d1bd c43c 5982 bf3c a198 ee3b
00000170: 5986 47bb 2e3b 8abc 9f80 283c 3563 edbb
-0.025087012 0.02284873 0.03476368 0.011584471 -0.0082262745 0.00061935384 -0.005870929 -0.027652057
0.029182866 -0.005410846 -0.0016271148 0.010326811 -0.06830407 0.041282244 -0.020422649 -0.0071067763
0.0040242947 -0.008595072 0.013893855 0.042666364 0.050307542 -0.008766589 -0.029600248 -0.0020581863
0.004837382 0.009826727 0.010988725 0.026456043 0.035646614 0.0023343354 0.0053066877 0.019309599
-0.01470581 0.001078071 0.017537234 0.06940709 0.00038521033 0.011263061 -0.00092215795 -0.0028915354
-0.0034281735 0.016791519 0.0033536777 0.011873447 0.021453645 -0.013981646 -0.03484241 0.019309225
-0.02141477 -0.015479133 -0.015140173 -0.0045640036 0.002796112 0.013820382 0.032459054 0.039958652
-0.0076905014 -0.029197568 0.023733005 0.0023797431 0.01188811 -0.01024712 0.010874927 0.031695463
0.0016395698 -0.0139917005 0.015937828 -0.0040847487 0.016784089 -0.0018575671 -0.020751828 0.030158006
-0.009384766 -0.0044943565 0.010401738 -0.006239605 -0.0022180288 0.013980449 0.009653407 -0.0013112802
-0.028819684 -0.011490467 0.012594168 0.022802312 0.012424372 0.024187943 0.005481511 0.026551336
0.017338231 0.024016293 0.023377584 0.0072813784 -0.0030445068 -0.016873922 0.010284572 -0.0072444924

GNN3.Theta1 f4 [288, 2]
00000000: c7e1 93be 5f20 92be b80f 8e3e e0de 7f3e
00000010: 045e cc3e 8ce7 14bc d5dd 26bf eea1 073f
00000020: 90b3 a03e 2681 e23d 2843 173f 0b58 eb3e
00000030: df8f 4abd 8e49 803e 9391 5abd e130 f33e
00000040: 09fb c9be 88d6 11bf cff9 543e 3f03 f23b
00000050: 89f6 a33d 2d13 abbe 2615 06bf 0394 853d
00000060: 7137 e9be 416d 9d3d d2da 04be 9021 5cbd
00000070: 93a4 823e 19cc 18be b768 2e3e 3924 c03e
00000080: 83ce 9b3e 62e3 b73e 58f8 c7be 88f9 103f
00000090: ed4f 13bf c135 293e 0e55 bc3d 92e9 1a3f
000000a0: c1a7 eb3e 8287 1cbf a9f0 763d e584 f7be
000000b0: c085 bcbe 7662 0b3f 0185 8e3e aead 24be
000000c0: 77c6 fcbe 7c64 18be 65a6 26be 354b 08be
000000d0: 7696 d3be 42ea ff3e f4a3 403e dff9 973e
000000e0: 3a06 c63e 993f 90bd 6719 233e 67d4 44be
000000f0: 73f2 ff3d 3964 8bbe f628 663e 2cca fc3e
00000100: 533d fd3e de1b ce3d c656 ddbe 1869 1d3d
00000110: 1100 b13e 6c97 14bf 703c d6be e608 283f
00000120: c2ba 803d bb8f 043e bf3d c33d 472b 4e3e
00000130: 8140 94bd 738d cdbe d792 49be 33fa 813d
00000140: 73df 9f3d e24a 8e3e 6f5c b43d 8b99 7abe
00000150: cde9 c03e 9fce 453c 77a2 d53e a6ca b8be
00000160: 5bb5 f8be 0f75 f6be 348e 4abd 0cd7 1dbf
00000170: f98f 033f 96e6 a13e 3623 8abe 66ee b23e
00000180: 0455 f03e 699e 0fbf d8cc 583e 93b4 0bbf
00000190: 91fd b43e a29a 063f 444a c43e 7c19 47bc
000001a0: 952c 0b3c 8768 dcbe 72ba 9d3e 0613 0abf
000001b0: 2bce 87be cf03 eabd 454a 833e d2ba 213e
000001c0: 6cd0 4abe d32b 16be 5193 463e ad58 943e
000001d0: 60a1 473e 8e38 25bf fe7d e7be 015b 1c3f
000001e0: 618f b6be c725 b8be b98f 083f 68fb 373e
000001f0: 453f bdbe ee50 b33e e5ba 5a3e b05c 18bd
00000200: 5a1f 14be 6b20 9c3d 41e1 b6bd cea7 c3be
00000210: 75d7 28bf 0e3f 09bf f5a5 283f 31f0 033f
00000220: 7207 603e d9bd 133e 1fef e53e bb4c 043f
00000230: 3305 833e efee 49bd 3895 5c3e 5016 c1be
00000240: a202 913e a9cb ed3e 0d72 ed3d 2a39 eebe
00000250: 26e5 ea3d d501 053f 8251 a0bd f09e 713e
00000260: fde1 4f3d 2380 8a3e 17e5 633e 35ea ee3b
00000270: 8a0e 0cbf fe59 1f3f 78ce 0cbf efd1 0dbf
00000280: 00ff 373f c931 07be 52b3 1abf 2e78 fe3e
00000290: fe6b 4fbe 923a f73e 611a 143f 8ca8 33bf
000002a0: db43 17bf 7dbb 853d af94 d5bd ab49 23bf
000002b0: d5b6 a9be 3176 053f c52a 803e aed2 543e
000002c0: 4f10 873e 1e6f 933e cf6b c83e 91e6 ffbd
000002d0: ec42 b2bd 49d7 173f 9e57 203c 1c95 4bbe
000002e0: a3c2 f73e 4fc4 9f3e a886 a13c 71b8 a83e
000002f0: 3787 1c3f 4288 9ebd 14ba bfbe f419 df3d
00000300: d563 203f 8eb1 8abe b15b 21bf eb48 13be
00000310: d47f c83d 5ad8 e1be ad9b 00bf 0dc7 bdbc
00000320: ada2 013f 94be 843e ebd6 ba3e f7ac 443e
00000330: b173 273e 51bd 113f bf85 83be 5146 0dbe
00000340: a753 a53d 6238 44bc 479d f9bc eba1 a3be
00000350: 0c4d 113f 54a6 bb3e ef03 19bf 91db c33d
00000360: 0a4f 2fbf b06e fc3e cc00 653e 8ed7 803e
00000370: 8798 293f 547d f23e 0938 b63e 0e41 5dbe
00000380: fe14 f7bd 9710 e93e f52f 013f b40c 49be
00000390: f790 023f cccd e63e 7715 023f d52a 82bd
000003a0: 6179 78bd 6de5 c9be 23ff 1cbf ca49 b13c
000003b0: d629 353e 54c5 c4be 6c03 6e3e 171d 02bf
000003c0: f93f 04bf e7ac 073f 051c d1be ed45 0abe
000003d0: c06d a9bd c339 463e 3cc6 103e 99dc 39be
000003e0: f7df afbe b807 f0be 86f5 febd 0a5f e63e
000003f0: c947 99bd 744d f3be f8b1 723e c992 1cbf
-0.28883192 -0.28540322 0.27746367 0.24987364 0.39915478 -0.009088408 -0.6518224 0.5298146
0.31386995 0.11059789 0.5908685 0.4596561 -0.049453612 0.25056118 -0.053361487 0.4749823
-0.39449337 -0.56967974 0.2079842 0.007385641 0.08006007 -0.33413067 -0.5237602 0.065223716
-0.4555011 0.07686854 -0.12974098 -0.053742945 0.25516185 -0.14921607 0.17032133 0.37527636
0.30430993 0.35915667 -0.3905666 0.56630754 -0.5754383 0.16524412 0.091959104 0.6051265
0.46026424 -0.6114427 0.060288105 -0.48343578 -0.36820793 0.54447114 0.2783585 -0.16081879
-0.49370167 -0.14882082 -0.16274412 -0.13309939 -0.4132573 0.49983412 0.18812543 0.29682824
0.38676625 -0.0704338 0.15927659 -0.1922165 0.124974154 -0.272249 0.22476563 0.49372995
0.4946085 0.10063909 -0.43230265 0.038430303 0.34570363 -0.5804355 -0.41842985 0.6563858
0.06285621 0.12945454 0.095332615 0.20133696 -0.07238866 -0.4014698 -0.19684921 0.0634655
0.078062914 0.27791506 0.08806693 -0.24472634 0.37678376 0.012073188 0.41725513 -0.36092108
-0.48575863 -0.48136184 -0.04945202 -0.6165626 0.5139156 0.31621236 -0.2697999 0.3494751
0.46939862 -0.5610109 0.21171892 -0.5457241 0.35349706 0.525797 0.3833791 -0.012152072
0.008494516 -0.43048498 0.3080631 -0.5393528 -0.2652448 -0.11426508 0.256426 0.15793923
-0.19806069 -0.14665155 0.19392134 0.28973904 0.19495153 -0.6453942 -0.45213312 0.6107636
-0.35656264 -0.35966322 0.53344303 0.17966998 -0.36962333 0.35022682 0.21360357 -0.03719777
-0.14465085 0.07623371 -0.089296825 -0.38213962 -0.6595376 -0.5361184 0.6587823 0.5153838
0.2187784 0.1442789 0.44908997 0.5167958 0.25589904 -0.04930013 0.21541297 -0.37712336
0.2832232 0.46444443 0.11594019 -0.46527988 0.11469488 0.5195592 -0.078280464 0.23595786
0.05075263 0.27050886 0.2225536 0.0072911032 -0.54709685 0.6224669 -0.55002546 -0.5539846
0.71873474 -0.13202585 -0.6042987 0.49701065 -0.2025604 0.48286873 0.5785275 -0.7017906
-0.59087914 0.06529901 -0.1042875 -0.63784283 -0.33147302 0.5213347 0.2503263 0.20783493
0.2637963 0.28795713 0.3914475 -0.12495149 -0.087041706 0.59312874 0.009786515 -0.198811
0.48390684 0.3120446 0.01971753 0.32953218 0.6114382 -0.07740833 -0.37446654 0.10893622
0.6265233 -0.27088588 -0.63030535 -0.14383285 0.09790006 -0.44110376 -0.5023754 -0.023166204
0.5063885 0.2592665 0.36492094 0.19206606 0.16352727 0.569295 -0.25687978 -0.13796355
0.08072596 -0.011976333 -0.030470503 -0.3195947 0.5675819 0.36650336 -0.5977163 0.09563363
-0.6847998 0.49303198 0.22363585 0.25164455 0.66248363 0.47361243 0.35589626 -0.21606848
-0.12064551 0.4552047 0.504638 -0.19633752 0.5100245 0.45078886 0.50814 -0.06355826
-0.06066263 -0.3943285 -0.6132681 0.02164163 0.1769174 -0.384318 0.23243493 -0.5082564
-0.51660115 0.52998203 -0.4084169 -0.13503237 -0.08272886 0.19357972 0.1413812 -0.18150558
-0.3435056 -0.4688089 -0.12449174 0.44994384 -0.07484395 -0.4752003 0.23700702 -0.61161476

GNN3.bias f4 [2]
00000000: 0489 0e3f a8d4 f2be
0.5567782 -0.4742787
