trained_models/iS_GNN_Trained_ep100_bs64_lr5em04_z96_k5e+00_ramps_50.pth (torch, 484999 bytes, 6 tensors)

GNN1.Theta1 f4 [176, 96]
00000000: a9a0 cc3d 5ba9 803d 331d 04bd a307 a53d
00000010: 48eb 99bc 311a 433d 4065 79bd b0d7 3e3d
00000020: 02b6 903d 6358 99bd 34ff b33d 391e 8d3d
00000030: d5e5 803d 4c3f e63b 2791 763c d802 1abd
00000040: 2301 1a3d 4932 283b 5bf8 11bd 3b5f e33c
00000050: 04ca 5dbd 0db8 07bc 542e 25bd 67b4 973d
00000060: e799 5abd 1680 39bd 1edc 21bd 04ea 4dbd
00000070: 6b99 17bc ee0b dfbd ec72 613d d32b b5bd
00000080: 5a06 5d3d 3275 703c 4fc6 abbc e8a7 a83d
00000090: a5de d9bb 2e7c 3a3d be90 febc df06 8cbc
000000a0: a719 433d 5361 f9bc 570a 283d 15e9 ce3d
000000b0: 048c 2e3d 333d 73bd 059a 8f3d f8d2 39bc
000000c0: 41b7 753d e336 80bd 3cee aabd 8796 e2bc
000000d0: fe36 a1bd dd64 8f3d bfa3 423c a713 47bc
000000e0: 0f92 873c 01d0 acbc 01a6 cc3d af72 aebd
000000f0: bffb 8ebc dd31 aabd 4464 673d 698f 58bd
00000100: 1e04 443d dcd8 3abd 6c23 cb3d 6934 c3bc
00000110: 3b6c 25bd 7f71 49bd 4856 3e3d 1b18 113d
00000120: e90b c03d c569 f1bd 1112 adbd a2df 8fbd
00000130: 714e 8abd f882 2c3d edee 613d 5670 5e3d
00000140: 30df 42bd 84d8 5dbd 71b1 883d d519 d9bc
00000150: 4703 233d 0f41 0fbd 06ce 5e3d 6f83 9dbd
00000160: 235a aabd dfeb 863c 9bc1 b03c 48be 73bb
00000170: c76d cb3c 5901 823d 314c d2bd 3ce5 9cbd
00000180: 6fa6 a63d 4fc8 dfbd 21aa 44bd 5633 e2bd
00000190: f4d9 dabd d24c 993b b88c 5c3c 068d acbd
000001a0: 5d4b 5cbc e3f0 98bd 935f ddbd 86f7 cfbd
000001b0: 4f12 fabd aff0 b9bd 99b5 db3d 16f8 ab3c
000001c0: 0c19 1b3c 4344 b3bd 9960 aebd 0c08 41bd
000001d0: fa09 d43b 406a d9bd 6ef4 4cbd 903e 88bd
000001e0: 245f 81bc 62e2 84bd de8f edbc 60ef 8bbd
000001f0: c555 a3bd ad15 8dbd c582 68bd aceb abbd
00000200: f680 513d 3f71 10bd b167 ad3d 8bb6 853d
00000210: 5b54 cbbd 3817 313d 64e7 86bd fc11 47bd
00000220: 9d28 c0bd 6815 d3bd ffba 253b 8ae4 52bd
00000230: 6073 dd3c 1686 cabd 8f3e bd3d 8e61 adbd
00000240: d2dc 14bd 940b 6a3b c975 103d 7c04 873d
00000250: c909 9f3d 9c0d c5bd 65f0 8ebb e953 80bd
00000260: 450b dfbc 5694 c5bd 155b a83d cce4 a6bd
00000270: d0bb 14bb cf4e 073d 7f8c dc3c f6bd 8abd
00000280: b9f2 a83d f9a8 3c3c c284 0f3d 1a70 9ebd
00000290: 308c 5d3d 8d25 c7bc 20ba b3bd c5ec 9b3d
000002a0: dadd 203c 5b52 3ebd 08a5 de3c 34ef 02bc
000002b0: f9a6 533d d10c 05bd d1b8 d1bd 25fa 85bd
000002c0: 44dc a1bd 6dbe 993c a481 963d 02b1 f0bd
000002d0: 05ce f63b 722c 4b3d c98a 9e3c c86e 2bbd
000002e0: cf15 973c 8426 8abc a251 1c3d dd41 ea3a
000002f0: 55ea b5bc e3cb 8c3b 686a aabc ca40 1abd
00000300: f28e 183d 287f b93d 0bad 2ebb e712 2fbc
00000310: 284c 7ebc 35e4 0dbd 380b 1d3d 8aa0 263d
00000320: 5f50 96bd 2b90 2ebd 617c a43d 4f86 76bc
00000330: bcec 7a3b 0ea7 6fbd 6d71 c1bc 4b31 8cbd
00000340: 081c 303c 546c 4e3d 920f 403d 96b1 313d
00000350: 67db aabd 72cc 88bd c05e 91bc ee90 ba3d
00000360: bac6 5cbc cf97 06bd acfb 3c3d a761 4dbd
00000370: e160 3ebd 9aa3 a53d 7189 fabb 2e38 96bc
00000380: f9a6 a8bd 6b0c 8b3d 7956 853d edae df3c
00000390: 1005 45bd 4388 82bd 799e 22bd c92d 743d
000003a0: f5ce d43c 36f2 b33d 810d 553d 289f 2a3c
000003b0: 28f1 3d3c 5efc 82bd 5ef4 c5bd 47bb 88bd
000003c0: d96c e53c 6304 89bd 6fe2 22bd b776 95bd
000003d0: 0815 a8bc 70ed 70bd 3a06 53bd 7d6f ad3d
000003e0: b666 9ebc cbce a63d 5b92 6ebd a549 80bd
000003f0: b6b0 4cbb c42e 1fbd b9f6 5abd 669d a0bd
0.09991581 0.06282302 -0.03225441 0.08058097 -0.018788949 0.0476324 -0.060887575 0.046592414
0.07065965 -0.074875616 0.087889105 0.0689053 0.06293837 0.0070265885 0.015049255 -0.03760037
0.03759874 0.0025664738 -0.03563724 0.02775537 -0.054147735 -0.008283627 -0.040327385 0.07407456
-0.05336943 -0.045288168 -0.03951656 -0.050272003 -0.009252886 -0.10890947 0.05504124 -0.088462494
0.053961135 0.014676379 -0.020968584 0.082351506 -0.0066488557 0.045528583 -0.031074878 -0.01709312
0.047631886 -0.030441916 0.041025486 0.101030506 0.042613998 -0.059384536 0.07011799 -0.011341803
0.059989218 -0.06260469 -0.08346221 -0.027659668 -0.07871817 0.0700166 0.01187986 -0.012150682
0.016549138 -0.021095278 0.099926 -0.08517968 -0.017454026 -0.08310292 0.056492105 -0.05287114
0.04785549 -0.04561697 0.099188656 -0.023828702 -0.04038642 -0.049180504 0.046469003 0.03542338
0.09377272 -0.11787752 -0.084507115 -0.070250764 -0.06753243 0.04211709 0.055159498 0.05430635
-0.04757613 -0.054161564 0.06674469 -0.026501575 0.039798047 -0.034974154 0.054395698 -0.076910846
-0.083179735 0.016469894 0.021576693 -0.0037192274 0.02483262 0.06347913 -0.102684386 -0.076609105
0.081372134 -0.10926878 -0.04801381 -0.11044948 -0.106861025 0.004678347 0.013461284 -0.084253356
-0.013445702 -0.074678205 -0.10809245 -0.10154633 -0.12210523 -0.0907911 0.107279964 0.02099232
0.009466421 -0.08753254 -0.08514518 -0.047126815 0.006470916 -0.10615969 -0.050037794 -0.06652558
-0.015792437 -0.064884916 -0.028999265 -0.068327665 -0.079753436 -0.068889 -0.056765337 -0.0839456
0.051148377 -0.03526425 0.08467043 0.06528958 -0.09928199 0.043235034 -0.06587103 -0.048601136
-0.09382746 -0.10306817 0.002528846 -0.051487483 0.027032554 -0.09888856 0.09240448 -0.08465873
-0.036343403 0.0035712468 0.03526858 0.06592652 0.07765538 -0.096217364 -0.0043621534 -0.062660046
-0.027227053 -0.096474335 0.082204975 -0.08149108 -0.0022694953 0.033034142 0.026922463 -0.067745134
0.08249421 0.011514896 0.035038717 -0.077362254 0.05408877 -0.024309898 -0.08775735 0.076135196
0.0098185185 -0.04646526 0.027178302 -0.007991601 0.05167291 -0.032482926 -0.10240329 -0.06541852
-0.079033405 0.01876756 0.07348946 -0.117525116 0.0075318837 0.049602933 0.019353287 -0.041853696
0.018443016 -0.016864069 0.03816379 0.0017872412 -0.022206465 0.004296766 -0.020802692 -0.037659444
0.0372457 0.09057456 -0.0026653435 -0.010685659 -0.015521087 -0.034641463 0.038340777 0.040680446
-0.07339548 -0.042617958 0.08031536 -0.01504667 0.0038288077 -0.058508925 -0.023613656 -0.068453394
0.010748871 0.05039628 0.04688985 0.04338225 -0.08342629 -0.0667962 -0.017745376 0.091096744
-0.0134751145 -0.03285962 0.04613845 -0.050141957 -0.04647911 0.08087845 -0.007645779 -0.018337335
-0.082349725 0.06789478 0.06510634 0.02730509 -0.04810053 -0.06373646 -0.039701913 0.059613977
0.025977591 0.087864324 0.05201483 0.010413922 0.011593141 -0.063957915 -0.0966575 -0.06676345
0.028006004 -0.0669029 -0.039766725 -0.07298034 -0.020517841 -0.058820188 -0.05151961 0.0846853
-0.019336086 0.081449114 -0.058245044 -0.062640466 -0.0031233258 -0.03886296 -0.05345795 -0.07842521

GNN1.bias f4 [96]
00000000: 78d1 b9bd af75 933d fc2d b4bd 1380 5abd
00000010: ff49 cfbc 062e b8bc ce06 183c faab 843d
00000020: 3016 733d 5225 c4bd 4d30 dbbd 67db ddbd
00000030: 7f51 7f3d ce5d d6bc d043 7cbd 1387 8bbd
00000040: 5cef 1cbc c21a b43c 9463 153d 6547 933d
00000050: 7b31 a03d e1af b6bd 5396 8dbc 1e58 9ebd
00000060: 5d42 2cbd 3d0e 86bc 27a0 1c3d 57ba 62bd
00000070: 292a 91bd 6994 1bbd 68c5 9b3c 4c31 40bc
00000080: be83 523d 7b3e dcbd d736 d83c c52c 743d
00000090: 3809 383d 88ef b9bd 3be2 b7bd 811a b0bc
000000a0: 541f 0fbc a21d 513d 789c 9e3d 452f a2bc
000000b0: 83cf 27bd efcd 303d e09d 97bd 12a1 48bd
000000c0: 7fca c6bb 18b6 13bd 53dc 2f3d 670c 05bd
000000d0: 6651 a7b9 8da7 3b3c fa3c d1bc bcbb 20bd
000000e0: a3ae 263d 654c 1c3d b2d4 d9bc f1c0 96bd
000000f0: 947c 3abd 76c1 703d 5286 483d 1f4c 43bd
00000100: 73b2 4d3d 2c84 f9bc b274 4bbc 2b31 66bd
00000110: 52ef 05bc e9d1 f6bc 42df 0f3c f5fa dfbd
00000120: e424 cebc 9fb9 afbd 2d94 a4bd 1bd9 e2bd
00000130: 5352 acbc 423d 023c 844c 68bc 07ce 6b3c
00000140: e0c3 5abd 2201 a7bd dd96 efbc 7497 bebd
00000150: 24be e0bc 667e bd3b 4c13 b23b 0ccf d2bd
00000160: 0257 a03d 7b16 933d 9c42 3bbd 1477 c6bd
00000170: 184f fc3b 2a44 013d 12a8 14bd a71b 82bd
-0.09073156 0.07200181 -0.08797833 -0.053344797 -0.025303839 -0.022482883 0.009278966 0.064781144
0.05934733 -0.09577431 -0.10702572 -0.10832863 0.06233358 -0.026167776 -0.06158811 -0.06812873
-0.009578552 0.021985415 0.03647192 0.07191352 0.07821938 -0.08920265 -0.017283594 -0.07731651
-0.042055476 -0.016364211 0.03823867 -0.05535349 -0.070881195 -0.03798333 0.01901503 -0.011730503
0.05139517 -0.10754105 0.026393337 0.059613008 0.044930667 -0.0907889 -0.08978697 -0.021497013
-0.008735497 0.05105365 0.07744688 -0.01979793 -0.040969383 0.043165144 -0.07403159 -0.048981734
-0.00606662 -0.03606233 0.042934727 -0.03248253 -0.0003191337 0.011453521 -0.025541771 -0.039241537
0.04069389 0.038158793 -0.026590679 -0.073610194 -0.045528963 0.05877825 0.048956223 -0.047680017
0.05021901 -0.030458532 -0.012417959 -0.056199234 -0.008174734 -0.03012939 0.008781256 -0.10936538
-0.025164075 -0.08580326 -0.08036075 -0.11076566 -0.021035349 0.007949175 -0.014178399 0.014392382
-0.053409457 -0.08154513 -0.029246742 -0.09306231 -0.027434416 0.00578289 0.0054344293 -0.10293397
0.078290954 0.07182022 -0.04571782 -0.09690681 0.0076998584 0.031559147 -0.036293097 -0.063529305

GNN2.Theta1 f4 [1056, 96]
00000000: 69cc 40bc 0b2b 9abd 153b 57bd d307 943c
00000010: 5965 f5b9 4e7e d73c d4ed a43d bbb7 92ba
00000020: 024b d33c 2223 ae3d 90ed 9bbd f33e 633d
00000030: 3b0b 7f3d d363 4fbd cbc9 a83d d21d 53bd
00000040: a52f 85bd 3dcf 913d 8bae 063d c4b2 42bc
00000050: 3893 c2bd b044 1a3d 55f9 3a3c 294f 90bd
00000060: 920d d1bb 73dd 6b3d c12c db3c 7197 80bd
00000070: 23a6 31ba 941c 26bd 2ad0 723d da40 1a3d
00000080: 052a dcbc 431e 95bc 89f5 a9bd 7129 14bd
00000090: af4c 323d 48ff d6bd 63e4 6b3b 1a7b af3d
000000a0: 39d6 d23c 38b3 3e3d 9be0 0bbd bafc 56bc
000000b0: 0b7c c0bd 81b2 54bd 8746 413c dd5b 163d
000000c0: 82db 593d 16a2 8cbd d4ea 7b3b 3dcf 63bd
000000d0: 1cea b8bd 9881 33bd 9315 a4bd 0997 db3c
000000e0: 0e6a 293c b795 663d 3c83 5d3d 1f4a 273c
000000f0: 934a 193d b62f cf3c be12 dcbd 92b5 3bbd
00000100: 2051 b1bd 27ad a7bd cfb8 1e3c 3aeb aa3d
00000110: 13a6 893d a511 4ebd 05ff be3c eb4b 6e3d
00000120: 7792 8e3a be5c a6bd 7f29 803c 6658 0c3d
00000130: d093 633c f5bc b33d 7c47 683d 1ec5 67bd
00000140: 0d96 9c3d 189d cbbd c72d 83bd 4c3f 063d
00000150: 2e32 dabb 8e09 953d aae6 213d a8da d3bc
00000160: af2d ae3d 4fc6 cebd 6cdb 623c 0e52 d53c
00000170: c477 b23d 0bb3 ce3d da73 3d3d 83a9 4bbd
00000180: b547 8c3d ae70 5a3d 71cc 9bbc 8c29 a33d
00000190: 3fca 913c 4090 a7bc 89d3 953c 67c6 65bc
000001a0: 5a9f 32bd 7f51 283a 168f 4fbc 5203 a9bd
000001b0: 5932 bcbd e95b 993b 6aa1 34bd 6c4a 39bc
000001c0: 0d37 8e3d 64fd 773d 2c61 113d 5301 343d
000001d0: 761e 373d 8c1b c0bd 6988 933d 53b6 abbd
000001e0: 755b a2bd 742c 90bd fa87 bd3d f8a0 413d
000001f0: 06ef 853c fc65 483d 534a e3bd 0cd9 eabd
00000200: c869 7a3c 84f0 2ebd ba72 173d a8f8 aabd
00000210: 4423 a53d 9ca4 dfbd a5de 0a3d 1a3d 383d
00000220: d4fc 96bd 2dcd a53d 5542 313d 5227 76bd
00000230: c763 63bd f382 723d 69dc 19bd ed18 f73b
00000240: 4d73 0e3d 1b54 093d eaa5 9bbd 99ec 943d
00000250: ab29 873c 8135 963c 86aa 8fbd 41cf 4b3d
00000260: fa33 18bd 41ee 763d 71ea 593d 466a 603d
00000270: be80 86bc f563 633d 18e7 763d 93e4 833c
00000280: 437f 21bc 60df bbbd c0d2 85bd a1e5 203d
00000290: f166 9abd 710f 82bd 4840 2d3d 23e7 8cbd
000002a0: 4be1 c3bd 8234 8e3c 38c3 0d3d 0921 dabd
000002b0: 6c55 a93b 813d b6bd 088f 843c 0bcf 5e3d
000002c0: bc00 b13c 29ea ae3d e4b4 1cbd a0ea 64bd
000002d0: 71a3 333c 0e53 a43c 7b4e 83bd bc87 96bd
000002e0: f196 38bd 7ff9 b93c 0cbf 1b3d 7260 79bd
000002f0: c523 ab3d 4f57 a8bd 9984 d0bc dad8 fc3b
00000300: 5917 95bd 0783 aa3d bb66 6abd c801 b03d
00000310: eb1e 753c 99c4 4fbd bd72 a23d 08a1 a0bc
00000320: 3d0a 403c 4cff 973d 1ab2 c9bd ff62 aa3d
00000330: 60d0 54bd b003 c6bd 4bed 483d 82c2 49bd
00000340: 1781 b9bd 528f 78bd 4544 8d3d 7e37 193d
00000350: cac5 70bc 1283 813d 2de5 343c c4a3 a2bd
00000360: 79de 233b 91fd 963d 8e73 c7bb b8e2 21bc
00000370: c0af b83d b224 f7bc 1322 cb3d 1c07 9d3d
00000380: d646 993d 9470 8d3c 957c b73c b288 c23c
00000390: 128a bfbd 36a6 5dbd 4e59 8cbd 3324 6cbc
000003a0: e324 30bd 330a 09bd 7337 a3bd d853 adbd
000003b0: 3e89 d43c ff94 ae3d ec1d f4bc 1f8e 90bd
000003c0: b2fe 38bd 8186 38bd 46a1 dfbd 9774 a63d
000003d0: ca16 823d 1fbb 883d 8d5d 5fbd 7ac9 92bd
000003e0: 2a70 b23d a0df 5fbd ae84 b3bd 4b74 a3bd
000003f0: 6c69 fc3c cef5 cbbc a614 85bd a57c a33d
-0.011767485 -0.07527741 -0.05254658 0.018070137 -0.0004680555 0.026305344 0.080531746 -0.0011193672
0.025792602 0.08502795 -0.07613671 0.055479955 0.06226657 -0.05063231 0.08241614 -0.05154211
-0.06503228 0.07119606 0.0328813 -0.011883441 -0.09500736 0.03766316 0.011411984 -0.070463486
-0.0063797915 0.057584237 0.026754739 -0.06278885 -0.00067767705 -0.040554598 0.059280552 0.037659504
-0.026875505 -0.018202906 -0.08298785 -0.036172334 0.043530162 -0.1049791 0.0035994283 0.08568402
0.025736915 0.046557635 -0.034149747 -0.013121778 -0.09398659 -0.051928047 0.0117966 0.0367087
0.053187855 -0.06866853 0.003843953 -0.05561756 -0.09029028 -0.043824762 -0.080119275 0.026805418
0.010340227 0.056295123 0.054080233 0.010210543 0.037424635 0.025291305 -0.10745762 -0.045827456
-0.086580515 -0.08187323 0.0096876165 0.08345647 0.06721129 -0.050309796 0.023314962 0.05817787
0.001087739 -0.08123158 0.015644787 0.03426399 0.013890222 0.08776275 0.056708798 -0.05658447
0.076458074 -0.09942073 -0.06405216 0.03277521 -0.006658814 0.07277213 0.03952662 -0.0258611
0.08504807 -0.10096418 0.01384626 0.026040103 0.0871425 0.100927435 0.046253063 -0.049722206
0.068496145 0.053330116 -0.019018384 0.07966909 0.017796634 -0.020454526 0.018289344 -0.014024354
-0.043609 0.0006420835 -0.012668392 -0.082525864 -0.091892906 0.004680146 -0.04409925 -0.011309247
0.06944094 0.060544387 0.03549306 0.043946575 0.044706784 -0.09380254 0.072037525 -0.08384385
-0.079276 -0.07039729 0.09254451 0.047272652 0.016349327 0.048925385 -0.110981606 -0.1146718
0.015284009 -0.042709842 0.036974646 -0.08348209 0.08063367 -0.109200686 0.033903737 0.044980146
-0.07372442 0.08095775 0.04327615 -0.060096093 -0.055515077 0.059206914 -0.037563715 0.007540813
0.03477793 0.033527475 -0.07600005 0.0727169 0.016499361 0.01833606 -0.07014947 0.0497582
-0.037158944 0.06028581 0.053202096 0.05478885 -0.016418811 0.05551525 0.060278982 0.016100204
-0.009857002 -0.09173465 -0.06534338 0.03928149 -0.07539166 -0.063506015 0.04229763 -0.06880023
-0.095644556 0.017359022 0.034610003 -0.10650832 0.005167654 -0.0889845 0.016181484 0.05439667
0.021606795 0.08540756 -0.03825845 -0.05588782 0.01096426 0.020059135 -0.06411453 -0.07350108
-0.045065824 0.022701977 0.038023993 -0.060882993 0.08356432 -0.08219778 -0.025453852 0.0077162804
-0.07279844 0.08325773 -0.057226878 0.0859409 0.014960985 -0.0507246 0.07932041 -0.019608036
0.011721191 0.07421741 -0.09848423 0.08319663 -0.051956534 -0.09668672 0.049054425 -0.049257763
-0.09057825 -0.060683556 0.06897787 0.037406437 -0.014695594 0.06323828 0.011040968 -0.07941392
0.002500443 0.07372583 -0.0060867732 -0.009880714 0.09017897 -0.030168865 0.099186085 0.07667372
0.07484214 0.017265595 0.022398273 0.023746822 -0.09352507 -0.05411359 -0.06852971 -0.014412927
-0.043003928 -0.033456992 -0.079695605 -0.084632576 0.025944348 0.085245125 -0.029799424 -0.070583574
-0.04516477 -0.045050148 -0.10919432 0.081277065 0.06352003 0.066763155 -0.054532576 -0.07167335
0.087128 -0.054656625 -0.08765541 -0.079811655 0.030811988 -0.024897482 -0.06498079 0.079827584

GNN2.bias f4 [96]
00000000: 1fdc a2bd ada6 be3b 0aa8 263c 78b6 93bc
00000010: 9a3e 30bd e886 c3bd 0abb 483d c8df 88bd
00000020: 0d6c 003c 5fb8 953d b613 ccbd eaf9 783d
00000030: d7b6 5abd d4a4 8f3d 2f49 0fbd 095c 7e3d
00000040: c500 8d3d f265 bd3c d32b 88bd a40e 9fbd
00000050: 2a7c 593d e7bc 20bd 7f13 7d3d 98be d13b
00000060: 2955 683d 9ac1 2bbd c8aa 673d 1eb7 813d
00000070: 4af9 32bc 1235 bcbd d3ef bcbd a0b8 04bd
00000080: 3f6f a8bd 108b 86bd 4101 3fbb bf42 98bd
00000090: 906d 99bd 4a2d 863d 08fb 963c 62b4 bbbc
000000a0: 9103 ecbd a667 5cbd d28d 323c 9b4b 563c
000000b0: 9f32 193d f0ed 2e3d cd23 c8bd 1c40 a6bd
000000c0: 6f62 8c3d 5a67 873d dca8 66b9 5273 17bd
000000d0: 2048 763c 8a13 b2bd 25be 8b3d 8b92 3ebc
000000e0: bee1 f93c 74e9 ccbd 8115 e83b 093d 49bd
000000f0: e818 b03d ff14 803d 0059 533b 026a babd
00000100: 71fe a4bc 9036 6e3d ce83 eabd 4cb6 333c
00000110: 49b8 97bd 4efc d8bd 8103 5cbd bd14 493d
00000120: 4b7c c3bc 8126 a03d 40c0 4abc 4a4e 993d
00000130: 07e6 d1bc 3ebe 83bd 08b8 7a3d 48cf 4fbd
00000140: 5794 69bd 45e3 c1bd 3397 463c 3a2d a2bd
00000150: 858c 303d ffed 793d af3d 7d3d 98f6 a1bd
00000160: 7fea 9abd 6eb9 2ebd 61a0 73bd 4d36 823c
00000170: 0163 26bd 6c38 183c 9a1e 433d 33e3 973d
-0.07952141 0.005818209 0.0101719 -0.018031344 -0.04302845 -0.09547216 0.0490065 -0.06683308
0.007838261 0.073105566 -0.09964697 0.06078521 -0.053397026 0.0701386 -0.034981903 0.06209949
0.068849124 0.0231199 -0.06648984 -0.07766464 0.053096928 -0.03924265 0.06178617 0.0064008944
0.05672184 -0.04193268 0.056559354 0.06333755 -0.010923693 -0.0918981 -0.0922543 -0.032402635
-0.082243435 -0.06569493 -0.0029145034 -0.07434606 -0.074916005 0.06551607 0.018430248 -0.022913162
-0.11524118 -0.053809784 0.01089807 0.013079549 0.03740179 0.042707384 -0.097724535 -0.08117697
0.06854712 0.066115096 -0.00021997414 -0.036975212 0.015031844 -0.08695133 0.068233766 -0.011631618
0.03050315 -0.10005465 0.0070826416 -0.049130473 0.085985005 0.06254005 0.0032249093 -0.09102251
-0.020140858 0.058157504 -0.11450921 0.010968756 -0.074081965 -0.10594998 -0.05371428 0.049092043
-0.023862978 0.07819844 -0.0123749375 0.074856356 -0.02562238 -0.0643277 0.061210662 -0.05073479
-0.057026234 -0.09467176 0.01212101 -0.079187825 0.04310276 0.061017986 0.061826404 -0.07908362
-0.07564258 -0.04265731 -0.05947912 0.015895033 -0.04062176 0.009290796 0.047636606 0.07416382

GNN3.Theta1 f4 [1056, 2]
00000000: 956d 013e d49b 05be 722f 473e 4b52 e0bd
00000010: 1bc7 b7bd cdab 2fbe baaa cc3d 8315 213f
00000020: 9618 bebd 3efe 013f 4b22 91bd 0ab6 e5be
00000030: e882 10bf a39c f13e 0c61 93be 8d2f a83e
00000040: e367 5dbd 9605 efbe dc32 f6bc 863f 213f
00000050: 518c 4abe bb55 2d3f 0894 9fbe 893f 0cbc
00000060: 9b2e 96be 321f cabe d7c9 a1be 56b6 39be
00000070: b7be ac3c 3d47 b83e 6efa c53e 0940 c8be
00000080: 97a8 fcbe 3f4a 483d 4f77 6fbe 2f1e e6bd
00000090: 93d9 29bf d2fa a53d b000 b23e 107d a73e
000000a0: 9a86 8c3c c34f 133f c250 6c3c 6986 04bf
000000b0: f41b b63d c35e e0be 3ff0 56be e52e f63e
000000c0: c0a1 d2be 6f3e 193f ad79 dd3e b790 15bf
000000d0: 3189 12bf 51b2 1bbf 7646 123e 4077 303f
000000e0: 5587 ecbe 2b25 b3be acab f7be 01b1 e03e
000000f0: a7b0 27bf e10e 5e3e a088 01bd 6472 05bf
00000100: 8f4a 42be 51ec 9a3e 0ab7 203f 9b1f 8abe
00000110: 17c6 e2bd 3266 9abc e550 0abf 76f1 bebe
00000120: 5651 b8bd f211 4a3c a19f eebe 8421 293e
00000130: c831 3fbe cf54 f73e 6319 19bf 18b2 b4bd
00000140: 30e7 443e 59d8 f9be 21cc 4cbe 6b8a a4be
00000150: 8992 93be 61c0 1abf b3a8 94be 8525 303f
00000160: 6445 d3be 1689 223f 9629 223c 70e6 703e
00000170: 532c 573e d750 acbd ca6f 013f ed45 a63c
00000180: a75d 6abe 9ce9 29bf b325 18bf df57 febe
00000190: 5c3c e9bb 1770 213f eda5 27bf b51d 02bf
000001a0: bdc6 aabe e3ea 023f 7e38 e93e 3760 a4be
000001b0: 1a6a a13e 14e8 c73e 642c 143f d2d7 a53d
000001c0: 0fcf 40bd 4442 38be 36a5 e8bd 6d70 b73b
000001d0: 1087 2bbf 3ae2 1b3f f409 833d ff64 133f
000001e0: 743d 143e 5e7d c0be d08a e83e 5dcc 8b3e
000001f0: a648 26bf 0af8 473e ba7f de3d efd4 a3bb
00000200: 19a2 16bd 636e 1a3e 3a3e b33c 8ee1 f73e
00000210: 67f9 8abe 7a2f 013f e6e6 30be 42d1 b8bd
00000220: f7ea 35bf 7864 a5bd e7db c93e be42 173f
00000230: c413 c5be aeb8 ec3e 5b1d 9abe dfd9 013f
00000240: eaf0 873e 8000 8c3e 3d3f b13e de18 183f
00000250: 3be0 803c aee1 15bd 626c 07be 226d 9f3c
00000260: 9e99 99be ce1d 123f ef9c bebe e166 0cbe
00000270: aaf1 543e 7cc0 15be 4176 4dbd b0da d8bd
00000280: dfb5 b93e d4bb eabe 3036 01be 6102 ab3e
00000290: b54d 9f3e e3fb dfbd 0371 ebbe a71e c93e
000002a0: 3d71 d83e e0e7 93be 2d89 193f 82af e7be
000002b0: 9eff dabe 95f5 323f b4f8 7ebe 7037 273f
000002c0: ae89 1fbf 6453 ee3c 44ca ebbe cd29 12bf
000002d0: 8c2d d13d abeb f4be f535 093e 3271 a4be
000002e0: 97cf 1abf 3d52 203f b69a e6bd e4e7 8a3c
000002f0: f2d3 b5be c5bb 263d d65a 013f c0aa 14bf
00000300: 57b1 bfbe 41a2 b1bd 4558 03bf 1c3f 1bbf
00000310: 690a c13d 794b 153c 3a98 75be d14b 5abd
00000320: f515 efbe b97e b13e eb2f 0d3f beb9 2bbf
00000330: b5bd 8c3e 96da 90be 2787 24bd 4cf0 8ebe
00000340: b4c3 f2be a1cd aebd f63a 9d3d 36f4 973e
00000350: 69b4 e63d 5a13 8dbd 1d4c 773e 7978 303f
00000360: 5787 d6be dd5f e2be 654f b43e 7d5a 2ebf
00000370: dcf2 41be e43a c2be 17cf 20bf ab95 c73e
00000380: 0cfb 1abf f42b 033f c8cd 94be a373 afbe
00000390: a282 cebe 65dd a03e 1fee b7be 7582 303f
000003a0: c807 0f3f 51cc 5ebe b959 a2be 94e5 6fbe
000003b0: 11b5 ac3e 2b8f 22bf 17de 033e b677 a9be
000003c0: 2103 1f3f 04f8 34bf 6b4e 683e 8026 c63e
000003d0: 82d2 ebbe 8d48 6d3e b4df b6be b370 333e
000003e0: 8caa 933e a05d f0be 7eef ac3e c1d2 07bf
000003f0: cf3a 19be 2255 193e 68ee 09bf 6b0a aebc
0.12639458 -0.13047725 0.19451693 -0.10953196 -0.08973523 -0.1715538 0.09993501 0.6292345
-0.09282033 0.5077857 -0.07086619 -0.44865447 -0.5644975 0.47189817 -0.28784978 0.32848778
-0.054054152 -0.4668395 -0.030053549 0.62987554 -0.19780089 0.6770894 -0.31167626 -0.00856007
-0.29332432 -0.39476925 -0.31599304 -0.18135962 0.021087034 0.3599185 0.38667625 -0.39111355
-0.49347374 0.04889893 -0.23385356 -0.11236226 -0.66347617 0.08104481 0.3476615 0.32712603
0.017154027 0.5754358 0.014423551 -0.51767594 0.088920504 -0.43822297 -0.20990084 0.48082653
-0.4113903 0.5986089 0.43256894 -0.5842394 -0.5724059 -0.60818964 0.14284691 0.6893196
-0.46197 -0.34989294 -0.48373163 0.43885043 -0.65503925 0.21685363 -0.031624436 -0.5212767
-0.18973754 0.3025842 0.62779295 -0.26977238 -0.11072939 -0.018847559 -0.54029685 -0.37293595
-0.089998886 0.01233338 -0.46606162 0.16516691 -0.18671334 0.4830689 -0.5980436 -0.08823031
0.19228816 -0.48797873 -0.19999744 -0.32136855 -0.28822735 -0.60449797 -0.29034957 0.6880725
-0.41263878 0.63490427 0.00989761 0.23525405 0.21013002 -0.084138565 0.505612 0.020297015
-0.22887288 -0.66372085 -0.59432524 -0.49676415 -0.007117791 0.6306166 -0.6548756 -0.5082658
-0.3335475 0.5113966 0.45550913 -0.32104656 0.31526262 0.3904425 0.57880235 0.08097805
-0.047072466 -0.17994028 -0.113596365 0.005598119 -0.67002964 0.6089207 0.06398383 0.5757598
0.14476568 -0.37595648 0.45418406 0.27304354 -0.649546 0.19528213 0.10864206 -0.004999749
-0.036775682 0.15081172 0.021880258 0.48414272 -0.27143404 0.5046307 -0.17275581 -0.09024288
-0.7106165 -0.080758035 0.39425585 0.59086215 -0.38491642 0.4623465 -0.3010052 0.5072307
0.2655099 0.2734413 0.3461856 0.59412944 0.015731921 -0.036592178 -0.13224939 0.019461218
-0.30000013 0.5707673 -0.37229106 -0.1371112 0.20795313 -0.14624208 -0.050161604 -0.10588586
0.3627157 -0.45846426 -0.12618327 0.33400252 0.31113973 -0.109367155 -0.4598466 0.39281198
0.42273894 -0.28887844 0.5997494 -0.4525109 -0.42773145 0.6990598 -0.2489956 0.65318966
-0.6231946 0.029092498 -0.46052754 -0.5709503 0.102137655 -0.4783605 0.13399489 -0.3211761
-0.60473007 0.62625486 -0.112599775 0.016956277 -0.35513264 0.040706415 0.5052923 -0.58073044
-0.37439987 -0.086735256 -0.51306564 -0.6064317 0.09425814 0.009112232 -0.23983851 -0.05329496
-0.4669644 0.34666994 0.5515124 -0.67080295 0.27488485 -0.28291768 -0.040167954 -0.27917707
-0.47414935 -0.08535314 0.076772615 0.29678506 0.11264879 -0.06888457 0.24150129 0.68933827
-0.4190013 -0.44213763 0.35216823 -0.68106824 -0.189403 -0.37935555 -0.62815994 0.38981375
-0.6053932 0.5123894 -0.2906325 -0.3426791 -0.4033404 0.3141891 -0.3592386 0.6894906
0.5587125 -0.21757628 -0.31709078 -0.23427421 0.33731893 -0.63499707 0.1287769 -0.33099145
0.6211415 -0.7069094 0.22686164 0.38701248 -0.46059042 0.23172207 -0.35717547 0.1752346
0.28841054 -0.4694643 0.33776468 -0.5305596 -0.1496384 0.14973882 -0.53879404 -0.021245202

GNN3.bias f4 [2]
00000000: bcd7 223f a3d2 a03e
0.63610435 0.31410703
