trained_models/iS_GNN_Trained_ep_150_bs64_lr5em04_z96_k_diff_1_kNN_5_ramps_30_b_cap_90.pth (torch, 134999 bytes, 6 tensors)

GNN1.Theta1 f4 [48, 96]
0	0x3be77b4a	0.0070642577
1	0x3d109aef	0.035304006
2	0xbbeb6a04	-0.007184269
3	0x3d7ea077	0.06216475
4	0xbc480d26	-0.012210166
5	0x3c48b325	0.012249743
6	0xbcf0c323	-0.029389923
7	0x3cb0dba6	0.021589112
8	0x3d3cd5a2	0.046102174
9	0xbcc8fc40	-0.024534345
10	0x3d8a4f68	0.06753427
11	0x3cac8c5f	0.021063028
12	0x3d9383e9	0.07202894
13	0x3d3579cc	0.044305608
14	0x3c8ed878	0.017437205
15	0x3c2dc7d8	0.0106067285
16	0x3d2891c6	0.041154645
17	0x3ce78060	0.028259456
18	0xbca4e41c	-0.020128302
19	0x3c189522	0.0093129
20	0x3c1b0d12	0.009463565
21	0x3cf6e433	0.03013811
22	0xbc78438a	-0.015152821
23	0x3d18a59c	0.037267312
24	0xbd3f4d15	-0.04670437
25	0xbc747234	-0.014919806
26	0xbcb30b58	-0.021855995
27	0x3c419e45	0.01181752
28	0x3ce2a8a8	0.027668312
29	0xbd3fd820	-0.046836972
30	0x3d937a7f	0.07201099
31	0xbca07bf4	-0.019590355
32	0x3d11be0d	0.035581637
33	0x39f6e1f8	0.00047089136
34	0xbd5c9d0d	-0.053860713
35	0x3d00b711	0.031424586
36	0x3d5ae8bb	0.053444605
37	0x3d5ba7e3	0.053626906
38	0x3bbb1cf4	0.0057102386
39	0xbc38726d	-0.01125775
40	0x3ce2213b	0.027603736
41	0xbc9411bf	-0.018074868
42	0x3ca9435c	0.020662002
43	0x3d181b21	0.037135247
44	0x3d02ca6a	0.03193132
45	0xbd11d3e3	-0.03560246
46	0x3c9a8976	0.018864375
47	0x3d08892b	0.03333394
48	0x3b99f0e2	0.004697905
49	0xbce7764e	-0.028254654
50	0xbd245880	-0.040123463
51	0xbce5db25	-0.028058598
52	0xbd48461e	-0.048894994
53	0x3d355d66	0.044278525
54	0x3c576cd9	0.01314851
55	0x3bc6132e	0.006044767
56	0x3c1218de	0.008917062
57	0x39facbc6	0.0004783554
58	0x3cd3143e	0.025766488
59	0x3c93c9c0	0.018040538
60	0xbc156044	-0.00911719
61	0xbcaf5815	-0.021404305
62	0x3d09d521	0.03365052
63	0x3a0fa198	0.00054790964
64	0x3c28ab58	0.010294758
65	0xbc8277f1	-0.015926333
66	0x3c7fdd0b	0.015616666
67	0xbc53ba16	-0.012922784
68	0xbd2a6dce	-0.041608624
69	0xbcf775aa	-0.030207474
70	0x3d183389	0.037158523
71	0x3cb6ac1e	0.022298869
72	0x3c88ae05	0.016684541
73	0xbd141dba	-0.036161162
74	0xbd04b9ac	-0.032403633
75	0xbd55b8d4	-0.05217822
76	0xbce876d2	-0.02837697
77	0x3d20f3ec	0.039295122
78	0x3c90a851	0.017658385
79	0x3d8e363b	0.069439374
80	0xbbe27dd2	-0.0069119716
81	0xbd54a1d6	-0.05191215
82	0x3b217e54	0.0024641948
83	0x3c6f386b	0.014600853
84	0x3c705e5a	0.014670933
85	0xbc2fbfc9	-0.0107268775
86	0x3cc87f53	0.024474775
87	0xbcf119d9	-0.02943127
88	0xbd55264e	-0.052038483
89	0x3c35ce41	0.011096538
90	0x3cc7b0e7	0.024376346
91	0xbc403ed0	-0.011733726
92	0x3d834bfd	0.06410978
93	0x3d31fbac	0.043452904
94	0xbc6e967e	-0.014562247
95	0xbd15f6a9	-0.036612187
96	0x3cbb5517	0.022867722
97	0xbd8294e9	-0.063760586
98	0xbcbc9665	-0.023020932
99	0xbd8e9d69	-0.06963617
100	0xb9e347f0	-0.00043350412
101	0xbadb546b	-0.0016733533
102	0xba70d09b	-0.0009186358
103	0xbd376b89	-0.044780288
104	0x3d48f1e4	0.04905881
105	0xbc739a3a	-0.014868313
106	0xbdde1483	-0.10843756
107	0xbdbf31ae	-0.093356475
108	0xbd9b7c05	-0.07592014
109	0x3b50261f	0.0031761003
110	0x3da9073f	0.08253335
111	0x3d470410	0.04858786
112	0x3c6e7213	0.014553565
113	0xbda464e6	-0.08027057
114	0xbcf8ec33	-0.030386066
115	0xbcdc18c1	-0.026867272
116	0x3d23797f	0.03991079
117	0xbd408565	-0.047002215
118	0xbd3e2c95	-0.046429235
119	0xbdd8a281	-0.1057787
120	0x3cc31b3c	0.023816697
121	0xbcb3aca7	-0.021932913
122	0xbc57ff2f	-0.013183399
123	0xbd23f179	-0.04002521
124	0x3c186ff6	0.009304037
125	0xbd314642	-0.043279894
126	0xbd449871	-0.047996942
127	0xbd47aba3	-0.04874767
128	0x3d8b07c8	0.067885935
129	0xbd338230	-0.04382533
130	0x3d6e7cc5	0.05822446
131	0x3b7332f9	0.003710924
132	0xbccbce11	-0.024878534
133	0x3d93112f	0.07181012
134	0xbc13e6c3	-0.009027186
135	0xbd3f717e	-0.046739094
136	0xbdc05f5b	-0.093931876
137	0xbd9cea61	-0.07661892
138	0xbb5cdeb3	-0.0033702075
139	0xbbab1aea	-0.0052217143
140	0x3d01532a	0.031573452
141	0xbcb47f26	-0.022033285
142	0x3dc39451	0.095497735
143	0xbd07444b	-0.033024114
144	0xbd2644cb	-0.04059295
145	0x3d7d0d9b	0.061780553
146	0x3d9a1529	0.07523567
147	0x3dc61c69	0.096733876
148	0x3dbe09cb	0.092792116
149	0xbca4ad5a	-0.020102192
150	0x3d233997	0.039849844
151	0xbd84e3cf	-0.064887635
152	0x3c6c075f	0.014406054
153	0xbdab880b	-0.083755575
154	0x3da68e5b	0.08132621
155	0xbc8d6067	-0.017257882
156	0x3d2963b9	0.04135487
157	0x3cd70b0b	0.026250383
158	0x3d81a793	0.0633079
159	0xbc3b78c6	-0.011442369
160	0x3d631239	0.0554373
161	0x3d4f1058	0.050552696
162	0x3a65f47b	0.0008772087
163	0xbd442dfc	-0.047895417
164	0x3c94cbd1	0.018163593
165	0x3c04eaa2	0.008112581
166	0xbdcee40e	-0.10102092
167	0x3dd64e38	0.10464138
168	0xbd150beb	-0.03638832
169	0xbd8dc058	-0.06921452
170	0xbcc75c03	-0.024335867
171	0x3c7bda8e	0.015371932
172	0x3d923c83	0.07140448
173	0x3d2c5e5b	0.042082172
174	0xbdb95f5e	-0.09051393
175	0xbce7dac2	-0.028302554
176	0xbd807a3e	-0.06273316
177	0x3d19de54	0.037565544
178	0x3cf2f927	0.02965982
179	0xbcc18fc4	-0.023628123
180	0x3d2c6401	0.04208756
181	0x3d163a87	0.03667691
182	0x3bd0d97c	0.0063735824
183	0x3d36f8af	0.044670757
184	0x3d58099b	0.052743535
185	0x3d33141e	0.043720357
186	0x3d93adb7	0.07210868
187	0x3cf586a6	0.029971432
188	0x3ce816c3	0.028331166
189	0xbcacac73	-0.021078324
190	0x3ce7ea64	0.028310008
191	0xbd563f82	-0.05230666
192	0xbbaf3d0f	-0.005347855
193	0x3d6f2ac9	0.058390412
194	0x3b486618	0.003057843
195	0x3bcd5c0e	0.0062670773
196	0x3d73ba39	0.059503768
197	0xbd083e81	-0.033262733
198	0x3d17eb69	0.03708974
199	0x3d6d2f38	0.05790636
200	0xbd3c8dcc	-0.046033666
201	0x3c8cc4d1	0.017183693
202	0x3d83476f	0.06410109
203	0x3b2aa990	0.0026041009
204	0x3c0878ae	0.0083295535
205	0x3bd9383b	0.0066290176
206	0xbda7cb63	-0.0819309
207	0xbd7e6a04	-0.062112823
208	0xbd4d7b31	-0.050166313
209	0x3d4a4acf	0.04938775
210	0x3dd053ec	0.10172257
211	0x3d5e1c6f	0.054226335
212	0xbd87b65f	-0.066265814
213	0xbc98245d	-0.018572027
214	0xbc980c37	-0.018560512
215	0x3d5d65f8	0.054052323
216	0x3d1cde25	0.03829779
217	0xbc2a2bc6	-0.010386413
218	0x3d13ebfd	0.036113728
219	0xbc1f8e5f	-0.009738534
220	0x3c59e2b3	0.013298678
221	0x3db9deb8	0.09075683
222	0xbd7395f4	-0.05946918
223	0x3c39ec84	0.011347894
224	0xbdf42a94	-0.11922184
225	0x3d373ea4	0.044737473
226	0x3d438725	0.047736306
227	0x3c1533ae	0.00910656
228	0xbc1d93d5	-0.009617765
229	0xbdcbe0a5	-0.09954957
230	0xbd82bd90	-0.063838124
231	0x3d8c4556	0.06849162
232	0x3d22f85d	0.03978764
233	0x3de2c7eb	0.110732876
234	0x3cab2e17	0.020896
235	0x3d2fbc45	0.042904157
236	0xbc16180d	-0.009161008
237	0xbc82331e	-0.015893515
238	0xbd8ab0d1	-0.06772006
239	0xbd5b6ad5	-0.05356868
240	0x3c9a1955	0.018810907
241	0xbc1e0bd2	-0.009646373
242	0x3b037561	0.0020058977
243	0xbd35dc2e	-0.044399433
244	0xbc99d988	-0.018780485
245	0xbc346298	-0.011009835
246	0xbd572431	-0.05252475
247	0x3c52d078	0.012867086
248	0xbb9b62a3	-0.004741983
249	0x3d63eb27	0.05564418
250	0xbd35c85f	-0.044380542
251	0xbc8d0e5c	-0.017218761
252	0xbcff9735	-0.03120003
253	0xbd720b22	-0.05909265
254	0xba8df10a	-0.0010829282
255	0xbd5ad4c8	-0.05342558

GNN1.bias f4 [96]
0	0x3c98793b	0.018612495
1	0xbd19e7f6	-0.03757473
2	0x3d08255d	0.033238757
3	0xbd785084	-0.06062366
4	0xbcc61a65	-0.024182508
5	0x3ca28d1b	0.019842675
6	0x3d891a02	0.06694414
7	0x3c485df7	0.012229434
8	0xbd4431ba	-0.047898985
9	0xbd8b795c	-0.06810257
10	0xbc4e6c0b	-0.012599002
11	0xbcffdac5	-0.031232247
12	0x3dada30b	0.084783636
13	0xbd3e1156	-0.04640325
14	0x3d314b1a	0.043284513
15	0x3bee5f75	0.007274563
16	0xbcdafaf9	-0.026731001
17	0x3d85a4cd	0.06525574
18	0x3bcb2f84	0.0062007327
19	0xbb8028f4	-0.003911132
20	0xbd24370b	-0.040091556
21	0xbcbd903d	-0.023140067
22	0x3ccb1057	0.024788065
23	0x3d80e8d8	0.062944114
24	0xbd070f83	-0.032973778
25	0xbccd9939	-0.025097476
26	0xbd83b482	-0.064309135
27	0x3d8444b2	0.06458415
28	0x3d6db04d	0.05802946
29	0x3d227f2b	0.039672058
30	0xbd0c6b94	-0.034282282
31	0x3d1d3da5	0.038388867
32	0xbca78c90	-0.020452768
33	0x3d4bab0a	0.049723662
34	0x3d92bf65	0.07165412
35	0xbdb731f8	-0.08945078
36	0x3cffced9	0.031226562
37	0x3d1b74f6	0.03795334
38	0xbd77c8bf	-0.06049418
39	0x3dc81aa1	0.09770704
40	0x3d3ebb98	0.046565622
41	0x3d4e20d4	0.050324276
42	0x3aef823b	0.0018273065
43	0xbd4b23ea	-0.049594797
44	0xbc9bcb60	-0.019017875
45	0x3d5325b1	0.051549617
46	0xbc9449a8	-0.018101528
47	0x3d843d3b	0.06456991
48	0x3d7fc73a	0.062445857
49	0x3c2855a5	0.0102743255
50	0xbd9032aa	-0.070409134
51	0x3d71a648	0.05899647
52	0x3da971d6	0.082736656
53	0xbc55a01c	-0.013038661
54	0xbd045ea1	-0.032316808
55	0xbba92da1	-0.00516291
56	0xbb846ff7	-0.0040416676
57	0xbd756c95	-0.059918005
58	0x3d4cede1	0.050031547
59	0x3d6b7db7	0.057492938
60	0xbd2605ca	-0.040532865
61	0xbd00c5bf	-0.031438585
62	0xbcb2fabf	-0.02184808
63	0x3d972afb	0.07381245
64	0x3ce07040	0.027397275
65	0x3cb92df2	0.022604916
66	0xbbfa742f	-0.0076432447
67	0x3c73db46	0.014883822
68	0x3dfb9b37	0.12285464
69	0x3cdf4b5d	0.027257616
70	0xbd2efd51	-0.04272205
71	0x3d8aabe4	0.06771067
72	0xbd381a77	-0.044947114
73	0x3ca63a52	0.020291481
74	0xbd1612ab	-0.036638897
75	0xbb3b8b08	-0.0028616805
76	0x3bb5965a	0.005541605
77	0xbcc27402	-0.023736957
78	0x3d74237c	0.059604153
79	0x3d928b9a	0.07155533
80	0xbd307109	-0.04307655
81	0x3cce0247	0.02514757
82	0xbd60d092	-0.05488641
83	0xbc10535b	-0.008808936
84	0x3d2b87a5	0.041877408
85	0xbb325354	-0.0027210312
86	0x3c672f10	0.014110342
87	0xbd1aa7d3	-0.037757706
88	0x3da78d98	0.08181304
89	0xbcc06f53	-0.023490584
90	0x3cfcccb9	0.030859338
91	0x3cfaf9e3	0.030636733
92	0x3dad6fe8	0.0846861
93	0xbafbe7ba	-0.001921884
94	0x3d8813d1	0.06644405
95	0x3d3c8592	0.04602582

GNN2.Theta1 f4 [288, 96]
0	0x3d05bbf2	0.03264994
1	0xb8542098	-5.0575094e-05
2	0x3cd224c2	0.025652293
3	0x3db1445d	0.086556174
4	0xbd0df73e	-0.034659617
5	0xbd02459e	-0.031804673
6	0x3daaec7d	0.08345888
7	0x3d2c6c6f	0.042095598
8	0xbd9934be	-0.07480763
9	0x3cef495e	0.029209789
10	0xbdb228d1	-0.08699191
11	0xbd806d3e	-0.06270836
12	0x3d57daca	0.052698888
13	0x3d616e62	0.05503691
14	0xbd03cf2f	-0.032180008
15	0x3d949235	0.07254449
16	0x3da2b96c	0.07945523
17	0x3d5aac09	0.05338672
18	0xbd59e36e	-0.05319541
19	0xbcebfa39	-0.028805839
20	0x3c793774	0.015210975
21	0x3d8c1275	0.06839458
22	0xbd2549ba	-0.040353514
23	0x3c0d24f0	0.008614764
24	0x3d27e37c	0.04098843
25	0xbcf028e3	-0.029316371
26	0xbcc43fdf	-0.023956237
27	0x3dbb5735	0.09147493
28	0x3b8df58d	0.0043322504
29	0x3db178ad	0.08665595
30	0xbdebd53f	-0.11515283
31	0xbd51f4b3	-0.051258754
32	0x3d58e9df	0.05295741
33	0xbbb2d378	-0.005457338
34	0x3c3db637	0.011579088
35	0xbd88cb3c	-0.06679389
36	0x3dae8e2a	0.085232094
37	0xbd540035	-0.05175801
38	0x3c84fb54	0.016233124
39	0xbd5b0a7c	-0.053476796
40	0xbd8dee37	-0.069302015
41	0xbdaacc78	-0.083397806
42	0xbdbab016	-0.09115617
43	0x3c85678a	0.016284723
44	0xbd1d6e99	-0.038435552
45	0x3d471463	0.048603427
46	0xbcaa6961	-0.020802202
47	0x3d8a644f	0.067574136
48	0xbc455548	-0.012044258
49	0x3cbcaf73	0.02303288
50	0x3dad293c	0.084551305
51	0xbdc8e5c9	-0.09809453
52	0xbd44dff5	-0.048065145
53	0x3d92a07d	0.07159517
54	0xbd10e6c9	-0.035376344
55	0xbd4f528f	-0.050615843
56	0xbaccbdca	-0.0015620526
57	0xbd20ecf2	-0.03928847
58	0x3c884960	0.01663655
59	0xbd64d2cd	-0.055865098
60	0x3bd553ab	0.006510218
61	0xbd2d70d7	-0.04234394
62	0xbd122f13	-0.035689425
63	0xbcc3a880	-0.023884058
64	0x3b71153b	0.0036786336
65	0x3d414d87	0.047193076
66	0xbd986ec3	-0.07443001
67	0xbd7654ab	-0.06013934
68	0xbdbbadfc	-0.09164044
69	0x3caef67e	0.021357771
70	0x3d5e5e08	0.054288894
71	0xbdd87811	-0.10569776
72	0x3cca2189	0.024674194
73	0x3d1d523f	0.038408514
74	0xbcfae09d	-0.030624682
75	0x3cc17417	0.023614926
76	0x3d44373f	0.04790425
77	0x3dd7749a	0.10520287
78	0x3d2f2ad5	0.042765457
79	0xbcd6af98	-0.026206776
80	0xbd82d301	-0.06387902
81	0xbc6f869b	-0.014619495
82	0x3c220e1f	0.009891062
83	0x3c572088	0.013130315
84	0x3db40a94	0.0879108
85	0xbdbd33d7	-0.09238403
86	0x3c0ee55c	0.008721676
87	0xbd2dd45c	-0.04243885
88	0x3c595ef9	0.013267272
89	0x3dc7a98d	0.09749136
90	0x3c725923	0.01479176
91	0x3b6c0a9f	0.0036017073
92	0xbcffe5a8	-0.031237438
93	0xbdc79789	-0.097457
94	0xbd77bf39	-0.0604851
95	0x3cf2596f	0.02958366
96	0xbdaaee00	-0.08346176
97	0x3d565e35	0.052335937
98	0xbcf2b9d4	-0.029629625
99	0x3cdacfb3	0.026710367
100	0x3d9c37d5	0.076278366
101	0x3c99056a	0.01867934
102	0x3d389145	0.045060415
103	0x3dcaaee9	0.09896643
104	0xbc18601e	-0.00930026
105	0x3d95396c	0.07286343
106	0xbd9b9e1a	-0.07598515
107	0x3dac89f5	0.08424751
108	0xbcc9b98d	-0.02462461
109	0xbb799c4d	-0.0038087547
110	0x3d37640b	0.044773143
111	0xbc3b9d39	-0.011451059
112	0x3d869898	0.06572074
113	0xbd8fba8a	-0.070180014
114	0xbcf3728e	-0.02971771
115	0x3dc0c29b	0.09412118
116	0xbd74963b	-0.059713583
117	0x3d562e73	0.05229039
118	0x3d8a92fa	0.06766315
119	0x3d510921	0.051034097
120	0xbd3b984d	-0.045799542
121	0x3ca0f468	0.019647792
122	0xbd5c2dd0	-0.053754628
123	0xbd8a376f	-0.06748854
124	0xbc37dde5	-0.011222337
125	0xbd72fc84	-0.05932285
126	0x3d237be3	0.03991307
127	0x3d17ee46	0.03709247
128	0xbd550be5	-0.052013297
129	0xbbd0e1f0	-0.00637459
130	0x3d982e03	0.07430651
131	0x3caf7376	0.02141736
132	0x3d84be2f	0.06481587
133	0x3dc2432e	0.0948547
134	0xbc96557e	-0.018351313
135	0xbdb8d977	-0.09025853
136	0x3d87d627	0.06632643
137	0xbd48745e	-0.0489391
138	0x3dc9df4c	0.098570436
139	0xbccdd4e2	-0.025125924
140	0x3cb24cc5	0.021765122
141	0x3beae1e3	0.007168041
142	0xbd125167	-0.035722163
143	0x3da1aa12	0.078937665
144	0xbda69f25	-0.08135823
145	0xbd0e3ea0	-0.034727693
146	0xbcaa90e2	-0.020821039
147	0x3d742905	0.05960943
148	0x3d2de2e0	0.042452693
149	0x3d6d6ac4	0.057963148
150	0x3d08b2af	0.03337353
151	0x3d84625d	0.06464074
152	0xbd039ec2	-0.032133825
153	0xbcbd4c03	-0.023107534
154	0xbb91b6df	-0.0044468488
155	0x3ccfe7ca	0.02537908
156	0xbd6ea76c	-0.058265135
157	0x3c43d736	0.011953166
158	0x3ccc4ca5	0.02493889
159	0x3d119319	0.035540674
160	0x3d763348	0.0601075
161	0x3c854796	0.016269486
162	0x3db866e8	0.09004003
163	0xbc803697	-0.01565103
164	0xbdb09e65	-0.08623961
165	0x3d134e17	0.035963144
166	0x3cbf9a43	0.023388987
167	0x3db08b81	0.08620358
168	0x3d01066e	0.031500272
169	0x3c91248a	0.017717618
170	0xbd3fdc0f	-0.046840724
171	0xbdb7a7a5	-0.089675225
172	0xbb8e6e18	-0.0043466203
173	0x3dbf2728	0.0933364
174	0xbbd49768	-0.0064877756
175	0xbd2fcd95	-0.042920668
176	0x3d35cb7d	0.044383515
177	0xbce2d316	-0.027688544
178	0x3d3c2a2e	0.045938663
179	0xbd634b30	-0.055491626
180	0xbda3a515	-0.07990471
181	0xbd813462	-0.06308819
182	0xbcc9388d	-0.024563098
183	0x3cdb46a7	0.026767088
184	0x3d66f2cd	0.056383897
185	0xbd6617e5	-0.05617513
186	0xbc356706	-0.011071926
187	0x3d7bd045	0.06147792
188	0xbc65fc0b	-0.0140371425
189	0xbaf3a91f	-0.0018589831
190	0x3dc9df41	0.098570354
191	0xbd242712	-0.040076323
192	0x3d00f50f	0.031483706
193	0x3d9e5a30	0.07732046
194	0x3d08852c	0.033330128
195	0xbce764f1	-0.028246375
196	0xbd80b7a3	-0.06285026
197	0xbd8279a6	-0.06370859
198	0xbc20cb9f	-0.009814172
199	0x3d36bb91	0.04461247
200	0x3da0f44d	0.07859097
201	0xbbe94295	-0.007118533
202	0x3dbc9ddc	0.09209797
203	0xbd4b4d77	-0.049634423
204	0x3cef40c0	0.02920568
205	0xbd55e49f	-0.052219983
206	0x3c74d187	0.014942533
207	0x3d8b98e9	0.06816275
208	0x3c4884c7	0.012238688
209	0xbc976ad9	-0.018483566
210	0xbc34a649	-0.011025974
211	0xbda5544d	-0.0807272
212	0xbd8b2a59	-0.067951865
213	0xbdd80de3	-0.10549524
214	0x3d2ba503	0.041905414
215	0xbd7859fe	-0.0606327
216	0xbcb82f80	-0.022483587
217	0xbd8ffa75	-0.07030193
218	0x3c1ffc5b	0.009764756
219	0x3d996311	0.074895985
220	0x3cead5e7	0.02866645
221	0xbc25ba52	-0.010115223
222	0x3d0c326b	0.03422777
223	0x3d7f2c27	0.062297966
224	0x3d67e47f	0.056614395
225	0xbd86d673	-0.06583872
226	0xbc8ae228	-0.016953543
227	0xbd65d018	-0.056106657
228	0xbdbce8e5	-0.092241086
229	0x3da125ae	0.07868515
230	0xbd82cbb6	-0.06386511
231	0xbd2f7233	-0.04283352
232	0x3ca46e58	0.020072147
233	0x3dd7875f	0.10523867
234	0xbdc90f42	-0.09817363
235	0xbcd3962e	-0.025828447
236	0xbd169a14	-0.036768034
237	0x3d65996c	0.056054518
238	0x3d440ee7	0.047865774
239	0x3d80f992	0.06297602
240	0x3d9cd3f7	0.076576166
241	0xbc924e51	-0.01785961
242	0x3d9061ad	0.0704988
243	0xbcaf85e1	-0.021426143
244	0x3b9c5cac	0.0047717895
245	0xbd0e5afc	-0.03475474
246	0x3d06180a	0.03273777
247	0x3c96e637	0.018420322
248	0xbc8fa514	-0.01753477
249	0x3dc93704	0.098249465
250	0xbc8a2758	-0.016864464
251	0x3c353d72	0.011062013
252	0x3d83d10e	0.064363584
253	0x3d02f40f	0.031971034
254	0xbd24b195	-0.040208418
255	0xbd0e1699	-0.03468952

GNN2.bias f4 [96]
0	0xbcb99ac5	-0.022656808
1	0xbb636194	-0.0034695612
2	0x3b52016e	0.003204431
3	0x3d10a1dd	0.035310615
4	0x3c193827	0.009351767
5	0x3bddbf28	0.0067671724
6	0x3c6d07a4	0.014467154
7	0x3c70cff7	0.01469802
8	0x3ad74b7e	0.0016425697
9	0xbb921069	-0.0044575226
10	0x3bd1435c	0.0063862037
11	0xbb03f12c	-0.0020132763
12	0xbc17777c	-0.009244796
13	0xbb1a3f17	-0.002353614
14	0x3d148b8d	0.0362659
15	0xbb96ee87	-0.0046060714
16	0xbcccc439	-0.02499591
17	0xbcb62f87	-0.02223946
18	0xbcc4f6b4	-0.024043418
19	0x3ba7c65a	0.005120081
20	0x3c01e5ab	0.007928292
21	0xbc1ce853	-0.009576875
22	0x3c90816c	0.017639838
23	0x39cdee9c	0.00039278425
24	0x3c834e10	0.016028434
25	0x3c34a33b	0.011025245
26	0x3c3ba330	0.011452481
27	0xbcdd8c59	-0.027044462
28	0xbc0f89b8	-0.008760862
29	0x3c0d2dfe	0.008616922
30	0xbc17f284	-0.009274129
31	0xbcec0767	-0.028812123
32	0xbbf392e2	-0.0074332813
33	0x3bae2856	0.005314867
34	0x3cb0cc5d	0.021581823
35	0x3c0d98e9	0.008642414
36	0xbc144171	-0.009048806
37	0xbc78c3c1	-0.01518339
38	0x3c0f2d44	0.0087388195
39	0xbc95a39c	-0.018266492
40	0xbcaa10a9	-0.020759897
41	0xbc57ac03	-0.013163569
42	0xbc74a918	-0.014932893
43	0x3bfc885a	0.007706684
44	0x3c9148b3	0.017734861
45	0x3c2e26ac	0.010629337
46	0x3b0b711b	0.0021277133
47	0xbc77ee90	-0.015132561
48	0xbb5acf5d	-0.0033387758
49	0x3c87b607	0.01656629
50	0x3b9f1050	0.0048542395
51	0x3c89a293	0.016801154
52	0x3d18ddbb	0.037320834
53	0xbcbacb66	-0.022802066
54	0x38f5f428	0.00011727988
55	0xbcb01057	-0.021492166
56	0x3ca261b1	0.019821974
57	0xbbe6ab8b	-0.0070394925
58	0x3ca79958	0.020458862
59	0xbd1d7027	-0.038437035
60	0x3adf0642	0.0017015415
61	0xba1622c5	-0.0005727227
62	0x3b9a824b	0.004715239
63	0xbcb65dc4	-0.022261508
64	0xbae902bf	-0.0017777308
65	0x3bc1654c	0.005901968
66	0x3c6bc49b	0.014390136
67	0x3cbca742	0.023028973
68	0x3d098553	0.033574414
69	0x3bbbe9a7	0.0057346406
70	0x3c55c170	0.013046607
71	0x3d0dc140	0.034608126
72	0xbc7593c3	-0.014988842
73	0xbc53619c	-0.01290169
74	0xba8f8d66	-0.0010952174
75	0x3c04d26f	0.008106812
76	0x39b13463	0.00033799102
77	0x3ac97ab9	0.0015371657
78	0x3c188353	0.009308654
79	0xbbf6d484	-0.007532658
80	0xbc46a2f2	-0.01212381
81	0x3cd4d3e5	0.025979945
82	0x3c6b8cba	0.014376814
83	0x3c489dd6	0.012244662
84	0xbb655d74	-0.003499833
85	0x3cd9bc50	0.026579052
86	0x3cd009c2	0.025395278
87	0x3d10c576	0.035344563
88	0xbbdf26e0	-0.006810054
89	0xbce93df9	-0.028471934
90	0x3c2b084e	0.010438992
91	0xbb4bafdf	-0.003108017
92	0x3cbc0d3b	0.022955528
93	0x3a363adc	0.000695152
94	0xbc2c97c8	-0.010534234
95	0x3cbe9c7d	0.023267979

GNN3.Theta1 f4 [288, 2]
0	0x3e8b517b	0.27210602
1	0x3e5af27d	0.21381564
2	0xbf33f579	-0.70296437
3	0x3f251cbe	0.6449698
4	0x3ed967db	0.42462048
5	0xbf33ed8e	-0.70284355
6	0xbecebe4e	-0.40379566
7	0x3ec15975	0.37763563
8	0xbdb52657	-0.08845203
9	0xbed2e20d	-0.41188088
10	0x3e3fb744	0.18722254
11	0xbf142fad	-0.5788525
12	0x3efd9aeb	0.49532256
13	0x3ee47faf	0.44628665
14	0x3e9e57ca	0.30926353
15	0x3e479678	0.19490993
16	0xbf000e8f	-0.50022215
17	0xbe52660e	-0.20546743
18	0x3e93dd37	0.2887971
19	0x3e407e85	0.18798263
20	0x3f060781	0.523552
21	0x3e34b610	0.17647576
22	0xbf1eedc1	-0.62081534
23	0xbeddb276	-0.43300217
24	0x3ebf9589	0.37418774
25	0x3ee74708	0.4517138
26	0x3d6ecd87	0.058301475
27	0x3e02ef7e	0.12786672
28	0x3e96dd9f	0.29465958
29	0xbf2aa245	-0.66653854
30	0xbf0f6c04	-0.56024194
31	0xbe758273	-0.23975544
32	0xbe66e3e6	-0.22547874
33	0x3c9b6eff	0.018973825
34	0x3ed6351d	0.41837397
35	0xbdb82933	-0.08992233
36	0xbc448d2b	-0.011996548
37	0xbf036c45	-0.5133708
38	0xbea4297d	-0.32062903
39	0x3f13dbac	0.5775707
40	0x3f0937f6	0.53601015
41	0xbe1e56f9	-0.15462865
42	0x3e5b7084	0.2142964
43	0x3f017ed1	0.5058413
44	0x3ef029f5	0.4690701
45	0xbdab7f00	-0.08373833
46	0xbf025eab	-0.509257
47	0xbe8f6463	-0.28006276
48	0x3e8954e4	0.2682258
49	0xbe89675d	-0.26836672
50	0x3e7f22ad	0.24915572
51	0xbeead991	-0.45869115
52	0x3e49a292	0.19690922
53	0x3efcb9a0	0.4936037
54	0xbddce5b4	-0.10786
55	0x3f11742e	0.568179
56	0x3edcb811	0.43109182
57	0xbde56419	-0.11200733
58	0xbe1dc418	-0.15406835
59	0xbd97fc28	-0.07421142
60	0xbe837724	-0.25676835
61	0xbd074f53	-0.033034634
62	0xbf03a3af	-0.51421636
63	0x3ea0d83a	0.31414968
64	0x3e637294	0.22211677
65	0xbef371cf	-0.47547767
66	0xbc3a40c3	-0.011367979
67	0x3e2749f7	0.16336809
68	0xbe97f6d8	-0.29680514
69	0x3e4fae2c	0.20281285
70	0xbeb963ce	-0.36208957
71	0xbd3834d3	-0.044972252
72	0xbcb05cca	-0.02152862
73	0xbebb1024	-0.36535752
74	0xbd1e3afa	-0.038630463
75	0xbe424241	-0.18970586
76	0xbd58b11c	-0.05290328
77	0x3e6880a9	0.2270533
78	0xbe00ad6e	-0.12566158
79	0xbe1e80bf	-0.154788
80	0x3f0c44f4	0.54792714
81	0x3ef14928	0.47126126
82	0xbec3f6e3	-0.38274297
83	0x3c9b25c7	0.018938912
84	0x3e4f68fb	0.2025489
85	0x3e2fa1cb	0.17151563
86	0xbb56792c	-0.0032726033
87	0xbe0c9a51	-0.13730742
88	0x3d904bb8	0.07045692
89	0xbe8d5823	-0.27606305
90	0xbd570d52	-0.052502938
91	0xbe3582ba	-0.1772565
92	0x3eaa280a	0.33233672
93	0x3ebcb167	0.36854097
94	0xbf03fa2c	-0.51553607
95	0xbedf27c0	-0.43585014
96	0x3e364fd1	0.17803885
97	0x3e90016d	0.28126088
98	0xbf0297f1	-0.51013094
99	0x3e06a4dd	0.13148828
100	0xbe82d3e9	-0.255523
101	0xbf08ab14	-0.53386045
102	0x3f1f53d1	0.6223727
103	0xbed6ee55	-0.41978708
104	0xbea46c6e	-0.32113975
105	0x3f34bccf	0.706006
106	0xbed05683	-0.40691003
107	0xbe881730	-0.2658019
108	0xbece4951	-0.4029031
109	0xbe9f8313	-0.3115469
110	0x3dcf3c4e	0.10118924
111	0x3ed6abcb	0.41927943
112	0x3e7eea9e	0.24894187
113	0xbe1d41bd	-0.15357108
114	0x3d48d133	0.049027633
115	0xbeb25f9b	-0.34838566
116	0x3eca44b7	0.3950555
117	0xbeae23e9	-0.34011772
118	0x3e402678	0.18764675
119	0xbec2a70f	-0.3801808
120	0xbe35c2b0	-0.17750049
121	0xbf1f01d9	-0.62112194
122	0x3e5fd455	0.21858342
123	0x3ebb76a7	0.36613962
124	0xbec0dbeb	-0.37667784
125	0x3e8c7527	0.2743313
126	0xbd313d36	-0.043271266
127	0x3e30ffd7	0.17285095
128	0xbebadbe2	-0.36495882
129	0xbf00d7f5	-0.50329524
130	0x3c7bf22e	0.015377564
131	0x3e9b149a	0.30289155
132	0xbf09067a	-0.5352551
133	0xbeb18751	-0.3467355
134	0xbec8ccd1	-0.39218763
135	0xbbfc8432	-0.0077061886
136	0xbeb9fd91	-0.36326268
137	0xbe891d38	-0.26780105
138	0xbe320d11	-0.17387797
139	0xbedf911e	-0.43665403
140	0xbe879935	-0.26484075
141	0xbe8dcce7	-0.2769539
142	0xbd25bc82	-0.04046298
143	0x3f1a72a6	0.6033119
144	0xbd9a66d2	-0.07539143
145	0x3eff5c83	0.49875268
146	0x3c8997dd	0.016796047
147	0x3e6e2eec	0.23260087
148	0x3e50c938	0.20389259
149	0xbe0ed2e3	-0.13947634
150	0x3f195121	0.5988942
151	0xbeaa94e0	-0.33316708
152	0xbe80d3c5	-0.25161567
153	0x3e4cffb4	0.20019418
154	0xbb1d7a6c	-0.0024029268
155	0xbe46cfc9	-0.19415201
156	0x3e99f643	0.30070695
157	0xbf2989e9	-0.6622606
158	0x3f0ec621	0.5577107
159	0x3e1b443f	0.15162753
160	0xbe458fa9	-0.19293083
161	0x3f1bcb83	0.6085741
162	0xbd81c23b	-0.06335875
163	0xbf2c9a5d	-0.6742304
164	0xbe9d1bb5	-0.306852
165	0x3f12f911	0.57411295
166	0xbe37d118	-0.17950857
167	0x3e50eb1f	0.20402192
168	0xbe6d98c8	-0.23202813
169	0x3e9b3cf8	0.30319953
170	0xbea6e9b2	-0.3260017
171	0x3ee9478f	0.45562407
172	0x3f18ceeb	0.5969073
173	0xbdd9cf03	-0.106351875
174	0xbed104f1	-0.40824082
175	0x3e3a94f2	0.1822088
176	0xbe5abafa	-0.21360388
177	0xbee3d025	-0.4449474
178	0xbd571533	-0.05251045
179	0xbd121eb6	-0.03567382
180	0x3e50733d	0.2035646
181	0xbd395834	-0.045250133
182	0x3e4e52c3	0.20148759
183	0xbd73c2e8	-0.05951205
184	0xbf1fd5fb	-0.62435883
185	0x3d95a8fd	0.073076226
186	0x3eb22b04	0.34798443
187	0x3f078ff8	0.52954054
188	0xbeeaabcf	-0.45834205
189	0xbea24785	-0.3169519
190	0xbe8a4ab9	-0.27010134
191	0xbe4b3945	-0.19846065
192	0xbe6e387d	-0.23263736
193	0x3f192b02	0.5983125
194	0xbedb5c95	-0.42844072
195	0xbf05a8a6	-0.5221046
196	0x3c8fb3af	0.017541735
197	0x3e091ce0	0.13389921
198	0x3f0a6763	0.54064006
199	0x3d1b7a5c	0.037958488
200	0x3f0476a7	0.5174355
201	0x3d983e73	0.07433786
202	0xbf3ed650	-0.74545765
203	0x3da54159	0.08069105
204	0xbb0eb9e3	-0.0021778278
205	0xbd056be8	-0.03257361
206	0x3dea3257	0.11435383
207	0xbe90bff1	-0.2827144
208	0x3f06b3df	0.5261821
209	0xbeb34247	-0.35011503
210	0x3f1257cf	0.57165235
211	0x3ebc171c	0.3673638
212	0x3ecdc7fa	0.40191633
213	0xbea80baf	-0.32821414
214	0xbf39fa30	-0.7264738
215	0x3eb51ec1	0.35375026
216	0xbef03f3e	-0.4692325
217	0xbee32fc1	-0.4437237
218	0x3d46cc10	0.048534453
219	0xbede4575	-0.43412367
220	0x3e6992ff	0.22809981
221	0x3f2a83dd	0.6660746
222	0xbd85d8fe	-0.065355286
223	0xbea7cc4b	-0.3277305
224	0xbe95dc13	-0.29269466
225	0x3dd62837	0.10456889
226	0x3e48722d	0.19574805
227	0x3ed1959f	0.40934464
228	0xbf131672	-0.57456124
229	0x3dcf353a	0.10117574
230	0xbeb1dd5b	-0.34739193
231	0x3e95c71c	0.2925347
232	0xbda57d85	-0.080805816
233	0x3f06a694	0.5259793
234	0xbda4008f	-0.08007919
235	0xbf303cdc	-0.68842864
236	0x3d8b5ec3	0.06805184
237	0x3f260f37	0.64866966
238	0xbe705093	-0.23468237
239	0x3dc6d350	0.097082734
240	0xbe2ceb11	-0.16886546
241	0xbe9bc5ef	-0.3042445
242	0x3ebca50f	0.3684468
243	0xbe7c39b2	-0.24631384
244	0xbed3afce	-0.41345066
245	0x3f23bffe	0.6396483
246	0xbf1c798d	-0.6112297
247	0xbe3e0083	-0.18554883
248	0x3f209182	0.6272203
249	0xbe181425	-0.14851435
250	0x3e49bf69	0.19701923
251	0x3efadeb0	0.48998022
252	0x3c1b7b3c	0.009489831
253	0xbe886f78	-0.26647544
254	0xbdced989	-0.10100085
255	0x3dfb79ad	0.12279067

GNN3.bias f4 [2]
0	0xbebdb940	-0.37055397
1	0x3b3884b9	0.002815528
